Mixture_of_latest_Koopman_NN/results_duffing_temporal/best_model.pth (torch, 178421 bytes, 30 tensors)

A_f f4 [20, 20]
0.9998996 -0.012955121 -1.2638455e-05 -0.0024781618 0.0018203058 -0.0057408623 -0.005560871 0.0049707266
0.009437225 -0.0037169633 -0.0003613175 0.0050463052 2.1470076e-05 0.0003452292 0.0081378585 -0.013022435
-0.009227299 -0.00017058104 0.0010514825 -0.0030171385 -0.0035507341 0.9923426 -1.8042192e-07 0.00070075376
-0.003833844 -0.0046569062 -0.0049411817 -0.0034342876 0.0018538419 -0.0044015814 -6.358761e-05 0.0014027809
5.7673045e-05 -0.00047872993 0.0051639844 -0.0036432764 -0.0018040139 -0.00044001907 -0.00036219475 -0.0012725735
-0.016159916 0.0064280904 1.0015903 0.0007445447 0.00281375 0.016338719 -0.0018032764 -0.007895013
0.012590828 0.02083152 -0.021870088 -0.00043915972 0.0032418307 -0.01855866 0.0002680192 -0.0024288774
-0.006876952 -0.016234186 -0.0007478903 0.0009980327 0.0040295147 -0.0009495197 -0.00013766024 0.9986961
1.0416856e-05 0.0056464225 0.004923638 0.012578961 0.0018492794 -0.00027750465 -0.00032281122 0.00556848
0.00012655446 -0.00033001942 -0.0027100341 -0.011703196 0.00019551147 -0.00044948226 0.0024618274 -0.004703865
-0.002957568 0.012042492 0.00013043192 -0.0017901821 0.993593 0.004324812 0.003979558 -0.00096891186
-0.0008564302 0.0007427621 0.00020264511 -0.0020296453 -3.141433e-05 -0.00018459816 -0.00051647297 0.008030035
0.0038839018 7.8217985e-05 0.005592923 0.0058988417 -0.008449695 0.022769928 0.00014930325 0.02502267
-0.0010023974 0.9924528 0.0010230535 -0.00967285 0.0011658606 0.004626925 0.00048027845 -0.028617933
-0.00018652806 0.00024377932 -0.0009006113 0.023653813 0.013479089 0.0008900676 -0.0029934957 0.01357379
-0.0010894787 -0.000569666 -0.0002214227 -0.0030321674 0.0003533258 -0.003098144 0.9967282 -0.0031971622
-0.0026918242 0.0020356867 -0.0001146876 -0.0007349031 0.00012528806 -0.000104772014 -0.0047662654 -0.006511355
0.0010499012 -0.00015022064 0.00032250566 -0.00030679698 0.0005946246 0.012976725 0.00017525168 0.0006944347
0.00041197703 0.004324306 0.0071305716 0.9974356 -0.006574086 0.0030914033 0.0005874975 -0.005149857
-8.0639256e-05 -0.00023453528 -0.006249405 0.022608928 0.01617902 0.00046079417 -0.002500666 0.00625262
-0.0037758052 0.0021878788 9.8276534e-05 0.0068627973 0.0013399237 0.005620581 0.0049164435 -0.0021973248
1.0001103 0.002125038 9.034139e-05 8.456921e-05 1.3917077e-05 -0.00019893836 -0.0040449607 0.0031719718
-0.00041755132 2.2883978e-05 0.00043180888 0.0003546476 0.0030585148 0.008958627 0.00017087202 0.009170718
-0.004393318 -0.0052996674 -0.0033712373 0.003030361 0.00028280605 1.0067608 0.00032291745 -0.022384932
-0.00013985508 7.406639e-05 -0.01128461 0.01308101 0.0125098815 0.00038417306 -0.003384897 -0.001621796
-0.0016618737 -0.015989901 0.011100599 -0.0026294554 -0.00042958913 0.0014726322 -0.0017726814 -0.009526573
0.0087374495 -0.0011655651 0.9993485 0.029824529 0.0054029445 -0.012697116 0.0087132035 -0.0063852854
-0.006079778 -0.004144046 -0.0019008534 -0.0017977454 0.0022077942 -0.015546801 3.4117977e-05 -0.011787529
0.0089528095 0.0017251569 -0.0057364027 0.0040019336 0.005893887 0.002116727 -7.9940735e-05 1.0030851
-8.8311615e-05 0.00019256237 -0.002398716 0.0027380195 -0.0005560467 0.00014646207 0.003432805 0.0031019247
-0.006346364 0.041266717 -0.0016366267 0.013103228 0.0014341314 -0.011629888 0.013507012 0.0016685699
0.011059818 0.03420173 -0.012598264 -0.0051669776 0.9975467 -0.014659466 -0.011383012 4.760079e-06
00000000: 6cf9 7f3f b741 54bc c009 54b7 a868 22bb
00000010: 5497 ee3a d81d bcbb f837 b6bb 7ae1 a23b
00000020: 979e 1a3c 4c98 73bb 376f bdb9 7a5b a53b
00000030: a31a b437 e1ff b439 a754 053c 0d5c 55bc
00000040: 192e 17bc 00de 32b9 e6d1 893a 2fbb 45bb
00000050: 6fb3 68bb 2a0a 7e3f 00ba 41b4 cab2 373a
00000060: 3b41 7bbb f698 98bb a3e9 a1bb c911 61bb
00000070: 9dfc f23a 243b 90bb 575a 85b8 84dd b73a
00000080: f6e5 7138 0bfe fab9 a436 a93b 09c4 6ebb
00000090: a974 ecba 5cb2 e6b9 f5e4 bdb9 7bcc a6ba
000000a0: cd61 84bc bba2 d23b 1c34 803f 8d2d 433a
000000b0: e466 383b c7d8 853c ea5b ecba 165a 01bc
000000c0: c349 4e3c dda6 aa3c e628 b3bc 053f e6b9
000000d0: e574 543b 5508 98bc ee84 8c39 cd2d 1fbb
000000e0: 0e58 e1bb 8efd 84bc 120e 44ba 6cd0 823a
000000f0: 050a 843b 30e9 78ba e458 10b9 8caa 7f3f
00000100: 0ec4 2e37 a005 b93b 7856 a13b fd17 4e3c
00000110: 8563 f23a 0b7e 91b9 fd3e a9b9 cc77 b63b
00000120: b4b3 0439 7506 adb9 d49a 31bb c3be 3fbc
00000130: 3602 4d39 7da8 ebb9 9c56 213b e122 9abb
00000140: c2d3 41bb df4d 453c 8dc4 0839 8ba4 eaba
00000150: 1c5c 7e3f 27b7 8d3b f466 823b 93fe 7dba
00000160: 0f82 60ba ecb5 423a 227d 5439 cc03 05bb
00000170: e1c2 03b8 b190 41b9 ea63 07ba 6890 033c
00000180: 0f89 7e3b f608 a438 d744 b73b 124b c13b
00000190: 9770 0abc 0088 ba3c 498e 1c39 58fc cc3c
000001a0: e062 83ba 6311 7e3f fb17 863a e07a 1ebc
000001b0: cacf 983a 769d 973b e2cd fb39 2870 eabc
000001c0: bf96 43b9 039f 7f39 0017 6cba a4c5 c13c
000001d0: 66d7 5c3c 6d53 693a 862e 44bb 9a64 5e3c
000001e0: d7cc 8eba a355 15ba b42d 68b9 54b7 46bb
000001f0: 963e b939 3b0a 4bbb 9429 7f3f 7b87 51bb
00000200: 5169 30bb 2869 053b 7084 f0b8 83a6 40ba
00000210: c25f 0339 0cb9 dbb8 552e 9cbb 345d d5bb
00000220: d79c 893a 8c84 1db9 fa15 a939 98d9 a0b9
00000230: 95e0 1b3a 549c 543c c4c3 3739 b90a 363a
00000240: 9ffe d739 e8b2 8d3b 92a7 e93b f157 7f3f
00000250: 6e6b d7bb 2499 4a3b 4a02 1a3a 22c0 a8bb
00000260: df1c a9b8 96ed 75b9 cfc7 ccbb 5c36 b93c
00000270: dd89 843c bf96 f139 37e2 23bb c7e2 cc3b
00000280: 8073 77bb 8462 0f3b d019 ce38 51e1 e03b
00000290: 61a0 af3a da2c b83b 1e1a a13b fe00 10bb
000002a0: 9d03 803f 3944 0b3b aa75 bd38 c05a b138
000002b0: 647d 6937 1c9a 50b9 978b 84bb dbe0 4f3b
000002c0: caea dab9 f8f6 bf37 6864 e239 ffef b939
000002d0: 5d71 483b 34c7 123c 1c2c 3339 c740 163c
000002e0: d3f5 8fbb d5a8 adbb faef 5cbb 0599 463b
000002f0: 9645 9439 8add 803f 3f4d a939 9b60 b7bc
00000300: 10a6 12b9 1754 9b38 16e3 38bc bc51 563c
00000310: 3ff6 4c3c d66a c939 26d5 5dbb 7292 d4ba
00000320: 3ad3 d9ba 41fd 82bc 49df 353c f152 2cbb
00000330: 7a3a e1b9 5605 c13a 5159 e8ba 5815 1cbc
00000340: 8527 0f3c e0c5 98ba 4ed5 7f3f 9252 f43c
00000350: 2f0b b13b 9007 50bc d3c1 0e3c a83b d1bb
00000360: e038 c7bb c7ca 87bb 0e26 f9ba 53a2 ebba
00000370: a4b0 103b 02b8 7ebc e619 0f38 7b20 41bc
00000380: ceae 123c a91e e23a 6ff8 bbbb a722 833b
00000390: 8221 c13b c9b8 0a3b dba5 a7b8 1865 803f
000003a0: f033 b9b8 91ea 4939 c733 1dbb 5870 333b
000003b0: aac3 11ba 9d93 1939 e9f8 603b a949 4b3b
000003c0: 29f5 cfbb 4a07 293d 1484 d6ba ecae 563c
000003d0: 77f9 bb3a 498b 3ebc 844c 5d3c eab3 da3a
000003e0: 3d34 353c 1d17 0c3d f368 4ebc c04f a9bb
000003f0: 385f 7f3f 422e 70bc d07f 3abc c4b8 9f36

A_b f4 [20, 20]
1.000346 0.012719405 6.1276034e-05 0.0021950912 -0.001615993 0.005960489 0.0057272366 -0.0047021513
-0.009802943 0.003657802 0.00038467202 -0.0046978556 -2.629448e-07 -0.0002612566 -0.007979453 0.0132585345
0.009184118 0.00013335675 -0.00096646644 0.0028612362 0.0037239958 1.007442 -7.002111e-05 -0.0009751066
0.0040121977 0.004752438 0.004954253 0.0035511376 -0.0020446393 0.004321147 6.9080204e-05 -0.0010089917
-3.2302494e-05 0.00044580273 -0.0050105504 0.0035634248 0.0015895321 0.00045975237 0.00038313426 0.0010055216
0.016362537 -0.005785503 0.99809074 -0.00021131893 -0.0028629927 -0.016553385 0.001776221 0.007884673
-0.012869076 -0.020764202 0.021817451 -0.0003490907 -0.003405767 0.018870886 -0.00016100646 0.0030769971
0.007375789 0.016277911 0.00051393517 -0.0008494327 -0.0040222835 0.0010771698 0.000109472465 1.0011809
0.00010240256 -0.0057044243 -0.005016177 -0.012610071 -0.0020376488 0.0003083325 0.00036336822 -0.0056660688
-0.00011632917 0.000315487 0.0027535066 0.012062523 -0.00011046259 0.00051339867 -0.0024041573 0.0048409086
0.0026699759 -0.011904097 -0.0001436814 0.00199618 1.0062824 -0.004596754 -0.0040016402 0.0006500422
0.00097319036 -0.00073738466 -0.00015076117 0.0019104915 4.5469013e-05 7.5132266e-05 0.00050856516 -0.007946047
-0.0038896322 -7.092948e-05 -0.005738268 -0.0059148343 0.0081956135 -0.022197176 -0.00020284907 -0.024371041
0.00048413582 1.0076464 -0.00071694725 0.009596356 -0.00081314094 -0.00462819 -0.00043008316 0.02848178
0.0002165341 -0.00037931645 0.00041132496 -0.024279352 -0.01339023 -0.0008961565 0.0028527444 -0.013849436
0.0010907528 0.00041755146 0.00018791351 0.0028140815 -0.00053349265 0.0030901732 1.0031595 0.003288488
0.0026386164 -0.0020484843 0.00017186519 0.0008618267 -9.6601914e-05 0.00011585354 0.0049119345 0.0062602386
-0.0011827671 0.00019017821 -0.00030593635 0.00030602716 -0.0009924831 -0.012556449 -0.000233836 -0.00022226055
-0.0006865467 -0.004510347 -0.007190179 1.0021393 0.0068100803 -0.0029585669 -0.0005362135 0.0046516485
0.00018431914 0.00016024147 0.0059232693 -0.022669308 -0.016032636 -0.00044147836 0.0023934005 -0.006249592
0.0037798851 -0.0018913224 -9.555934e-05 -0.006662138 -0.0013655075 -0.0055849063 -0.0049784207 0.002148116
1.000005 -0.0020005803 -4.276296e-05 -0.00021762047 -4.8853304e-05 0.000162666 0.0039965673 -0.0033123246
0.0005439337 5.07354e-06 -0.00046446372 -0.0003124431 -0.0032653972 -0.008500942 -0.00018729203 -0.008830988
0.004101991 0.005231673 0.003474512 -0.0030882077 -2.2521002e-05 0.993268 -0.00037252554 0.022210268
0.00012348796 -0.00015430839 0.011044374 -0.013542499 -0.012456482 -0.00039051118 0.0033059423 0.0015398676
0.0017397595 0.015477574 -0.011181144 0.00228332 0.00083995366 -0.0012823252 0.0017016864 0.009652076
-0.008463994 0.0013656401 1.0003715 -0.029068884 -0.005434288 0.012324044 -0.008375298 0.0062812325
0.0058516967 0.0039009165 0.002011217 0.0017708149 -0.0022606421 0.015936956 4.0697923e-06 0.011855153
-0.008954722 -0.0015810247 0.005854253 -0.004115566 -0.0058404147 -0.0019468867 5.41218e-05 0.99673873
8.319433e-05 -0.00017238682 0.0022280961 -0.002400322 0.000678359 -0.0001551026 -0.0034671791 -0.0029214532
0.0063503836 -0.041387923 0.0014231534 -0.013178531 -0.0018410207 0.011462525 -0.013730469 -0.0014654374
-0.0108830435 -0.034304157 0.01248136 0.0049952934 1.0023427 0.014634523 0.011253584 -0.0006758367
00000000: 560b 803f 0d65 503c 5281 8038 85db 0f3b
00000010: bacf d3ba 3550 c33b 8bab bb3b 8114 9abb
00000020: 869c 20bc bcb7 6f3b cead c939 78f0 99bb
00000030: dc2a 8db4 44f9 88b9 40bc 02bc 533a 593c
00000040: fc78 163c aed5 0b39 775a 7dba 9483 3b3b
00000050: 480e 743b dcf3 803f 4cd8 92b8 4c9e 7fba
00000060: c178 833b 57ba 9b3b 4957 a23b 34ba 683b
00000070: 5bff 05bb 6998 8d3b 27df 9038 2540 84ba
00000080: 8a7c 07b8 a1ba e939 8b2f a4bb 5988 693b
00000090: d957 d03a eb0a f139 69df c839 b5cb 833a
000000a0: ba0a 863c 5194 bdbb e082 7f3f 7e95 5db9
000000b0: 0ca1 3bbb f79a 87bc 16d0 e83a b72e 013c
000000c0: d1d8 52bc b019 aabc 83ba b23c 2906 b7b9
000000d0: 4a33 5fbb 1e97 9a3c d8d3 28b9 72a7 493b
000000e0: 9ab0 f13b 4159 853c 9bb9 063a 77ac 5eba
000000f0: 5ccd 83bb d22f 8d3a 9594 e538 b226 803f
00000100: f5c0 d638 2eec babb be5e a4bb 799a 4ebc
00000110: 138a 05bb b0a7 a139 7582 be39 6eaa b9bb
00000120: bff5 f3b8 f367 a539 2d74 343b e3a1 453c
00000130: 27a8 e7b8 9a95 063a 118f 1dbb 7ca0 9e3b
00000140: c3fa 2e3b 6709 43bc 2fa9 16b9 58d2 023b
00000150: ddcd 803f 5ea0 96bb 3120 83bb 9867 2a3a
00000160: b31d 7f3a 0c4d 41ba a515 1eb9 7569 fa3a
00000170: fbb5 3e38 5490 9d38 3b51 053a 2330 02bc
00000180: 33e9 7ebb fabf 94b8 1508 bcbb 3ad1 c1bb
00000190: e546 063c dad6 b5bc e2b3 54b9 c7a5 c7bc
000001a0: 9cd3 fd39 8ffa 803f 84f1 3bba 093a 1d3c
000001b0: f728 55ba 12a8 97bb c97c e1b9 9f52 e93c
000001c0: 6e0d 6339 fede c6b9 1aa7 d739 7ee5 c6bc
000001d0: b262 5bbc 0bec 6aba 1cf5 3a3b bfe8 62bc
000001e0: 97f7 8e3a cfea da39 a60a 4539 746c 383b
000001f0: 16da 0bba 8184 4a3b 8867 803f ac83 573b
00000200: a3ec 2c3b dd3f 06bb b636 3439 36ec 613a
00000210: c296 cab8 65f6 f238 4bf4 a03b b022 cd3b
00000220: 1407 9bba 936a 4739 1566 a0b9 4572 a039
00000230: 3516 82ba 90b9 4dbc e031 75b9 9d0e 69b9
00000240: 5ef9 33ba 88cb 93bb 989b ebbb 1a46 803f
00000250: 1827 df3b 84e4 41bb ae90 0cba db6c 983b
00000260: cb45 4139 7e06 2839 fc17 c23b fcb4 b9bc
00000270: e056 83bc 3976 e7b9 99da 1c3b 61c9 ccbb
00000280: f3b7 773b 40e6 f7ba 0867 c8b8 104e dabb
00000290: d4fa b2ba 9701 b7bb 0522 a3bb 68c7 0c3b
000002a0: 2a00 803f 2b1c 03bb 615c 33b8 0d31 64b9
000002b0: d6e7 4cb8 5291 2a39 a3f5 823b 9613 59bb
000002c0: c696 0e3a 603d aa36 4483 f3b9 67cf a3b9
000002d0: 4600 56bb 8947 0bbc d263 44b9 d9af 10bc
000002e0: ff69 863b 746e ab3b a3b4 633b 8763 4abb
000002f0: 7ceb bcb7 d046 7e3f 884f c3b9 4ff2 b53c
00000300: 8c7c 0139 d8cd 21b9 76f3 343c 5ce1 5dbc
00000310: 4616 4cbc 86bd ccb9 82a8 583b 62d5 c93a
00000320: a408 e43a a795 7d3c 1e31 37bc c1a3 153b
00000330: 5630 5c3a b213 a8ba 1f0b df3a be23 1e3c
00000340: 90ac 0abc 47ff b23a 2c0c 803f de21 eebc
00000350: 1d12 b2bb c9ea 493c 8c38 09bc ccd2 cd3b
00000360: 97bf bf3b 85a6 7f3b 9fce 033b b01a e83a
00000370: 4827 14bb 388e 823c 408f 8836 1e3c 423c
00000380: d4b6 12bc 633a cfba 09d5 bf3b dfdb 86bb
00000390: f360 bfbb ad2e ffba d700 6338 452a 7f3f
000003a0: 9e78 ae38 bcc2 34b9 4005 123b b84e 1dbb
000003b0: e7d3 313a 0aa3 22b9 9d39 63bb da75 3fbb
000003c0: e116 d03b 6286 29bd 1b89 ba3a c4ea 57bc
000003d0: 674e f1ba 51cd 3b3c c3f5 60bc eb13 c0ba
000003e0: cb4e 32bc 8482 0cbd 9e7e 4c3c 8faf a33b
000003f0: c44c 803f a3c5 6f3c f460 383c a22a 31ba

encoder.net.0.weight f4 [128, 2]
3.50128e-06 7.547207e-05 -0.00012444507 4.7031943e-05 -0.05487278 0.053001504 -8.299432e-05 4.610807e-05
7.306448e-05 -9.730762e-06 -0.101021364 -0.027565729 -0.00028247834 -8.5225125e-05 4.44049e-05 2.1781492e-05
0.0002898791 -1.0609598e-05 -4.647553e-05 0.00010940319 -9.62395e-05 -0.00020622594 1.2068136e-05 3.729856e-05
6.766649e-05 -7.55345e-05 2.0564508e-05 7.0405775e-05 8.094979e-05 0.00031532248 -4.8578848e-05 0.00010142765
-2.628957e-05 0.00012057179 6.88978e-05 1.6408521e-06 -2.1971107e-05 -7.757246e-05 0.13329402 0.05862708
7.0270566e-05 0.00019086018 4.618642e-05 4.7517897e-06 -1.4399455e-05 -0.00016744796 -8.448766e-06 -7.015484e-05
-9.683171e-06 2.3766797e-06 -3.740494e-05 -7.24078e-05 -7.9311256e-05 -1.4565718e-05 0.12616834 -0.11790959
2.671642e-06 -6.117266e-05 6.753077e-05 0.00028506044 4.616595e-08 7.0299764e-05 -1.282982e-05 4.1851352e-05
5.3720665e-05 -1.4208948e-05 7.7599776e-05 0.00011925384 -9.075743e-05 -3.1499148e-06 -4.7963025e-05 -0.0002525539
-2.1921478e-05 -9.599859e-05 -9.602385e-05 -0.00053810835 1.8816132e-05 -4.4267646e-05 4.713056e-07 0.00029158528
4.8849786e-05 -0.00014285545 0.0002678512 -7.362728e-05 -3.632282e-05 -2.5029103e-06 -7.2473995e-08 0.00014681564
-2.638393e-05 2.1967115e-05 0.008169885 0.025096579 1.401125e-05 1.7466938e-06 0.00025615375 -7.0035203e-06
0.00022631456 -4.1053176e-05 -2.1557891e-05 -3.2182346e-05 0.28750834 0.121352054 0.00014999132 -3.597503e-05
0.00013011495 -2.051448e-05 3.670282e-05 8.301204e-05 0.000107267086 0.00031334962 0.0001512188 -0.0001120466
-0.00011487889 -6.2745006e-05 -6.794771e-05 -0.0001658073 -7.071519e-05 -5.5886776e-06 1.821041e-05 -2.5224967e-05
-4.6813213e-05 1.3628946e-05 -7.108227e-05 -5.5912744e-05 0.00012916757 -6.900793e-06 -4.8545437e-05 -2.6387745e-05
1.1746483e-06 -2.0984238e-05 6.759075e-05 -4.313377e-05 -4.356471e-05 3.7403947e-07 -2.0591908e-05 1.2443823e-05
-1.9730069e-06 -2.2903361e-05 -4.6013072e-05 0.00012024825 -2.3844694e-05 0.00020210506 5.252115e-05 -1.6277734e-05
2.6816706e-06 0.00010971846 -4.2939791e-07 1.0484146e-05 -0.00016221468 0.00033937074 -3.3065906e-05 8.623922e-05
-0.026165714 0.108116336 0.00010773302 5.6716548e-05 -2.6022244e-06 5.432892e-06 -6.8611166e-06 -0.00023908372
0.000121563775 -0.00010395325 -0.1841069 -0.04946363 0.00012282302 9.421501e-05 -9.185775e-05 7.2150004e-05
-7.7811186e-05 5.2507705e-05 -0.00016674644 0.00012138097 2.1761978e-05 -0.000176851 -1.91574e-05 -8.007962e-05
0.0005328843 -0.038572606 0.00024895516 -3.8080565e-05 1.7676939e-07 -7.657982e-06 2.5218596e-05 -4.7786598e-05
-0.00022016931 0.00022175502 -9.820046e-05 0.00011344671 0.00020190119 -7.4557094e-05 1.0925767e-05 1.545341e-05
-0.00015972691 0.00017654161 0.000119204145 -0.000223462 -0.0001176661 0.00015772396 -0.00025653318 -4.9611954e-06
0.00014175396 2.348746e-05 -0.00014945271 0.00011677676 6.852512e-05 -6.791357e-06 9.9517914e-05 -0.00016607172
-0.00014422578 -0.00011466243 -6.3446514e-06 -3.9593942e-07 0.0083602965 -0.113628805 3.1945725e-05 3.212521e-05
-5.6698926e-05 -6.3773165e-05 0.00035104592 0.000109571905 1.2395418e-05 -2.9287528e-05 -0.00011769375 -1.7032107e-06
-0.00014601307 -0.000102784375 8.166793e-06 -8.216837e-06 -5.261304e-05 -7.381015e-06 -1.190224e-05 1.31963025e-05
1.46522725e-05 6.407143e-05 -1.3680976e-05 4.3459454e-06 4.7816517e-05 0.00014192179 -0.000211794 -0.00013341542
3.5134086e-05 -0.00012583859 8.090309e-05 -2.7673275e-05 -5.5013614e-05 -0.00012263545 -9.772682e-05 -0.0001295988
3.802214e-05 2.1179847e-05 -4.880433e-05 1.0173443e-05 0.0655671 -0.011713502 0.0001662585 5.6946956e-05
00000000: 88f7 6a36 c246 9e38 787d 02b9 2a44 4538
00000010: 48c2 60bd 1b18 593d 3c0d aeb8 2a64 4138
00000020: 323a 9938 4e41 23b7 4ae4 cebd 86d1 e1bc
00000030: 9a19 94b9 e4ba b2b8 663f 3a38 66b7 b637
00000040: eafa 9739 e0ff 31b7 b8ee 42b8 646f e538
00000050: 30d4 c9b8 5b3e 58b9 4078 4a37 0671 1c38
00000060: 2ce8 8d38 4768 9eb8 f281 ac37 d0a6 9338
00000070: 96c3 a938 de51 a539 24c1 4bb8 8eb5 d438
00000080: 6c88 dcb7 7ddb fc38 3a7d 9038 403b dc35
00000090: 984e b8b7 66ae a2b8 3a7e 083e f322 703d
000000a0: 395e 9338 a421 4839 4ab8 4138 9071 9f36
000000b0: 3095 71b7 f894 2fb9 2cbf 0db7 1820 93b8
000000c0: e774 22b7 0c7f 1f36 40e3 1cb8 a4d9 97b8
000000d0: e853 a6b8 485f 74b7 4632 013e 957a f1bd
000000e0: 764a 3336 d249 80b8 4e9f 8d38 2a74 9539
000000f0: 0048 4633 e66d 9338 a83f 57b7 8c89 2f38
00000100: 2052 6138 f862 6eb7 10bd a238 eb17 fa38
00000110: 0655 beb8 2063 53b6 e82b 49b8 3669 84b9
00000120: 04e4 b7b7 da52 c9b8 6960 c9b8 d70f 0dba
00000130: 56d7 9d37 06ac 39b8 c007 fd34 eadf 9839
00000140: 0fe4 4c38 78cb 15b9 616e 8c39 5868 9ab8
00000150: 5559 18b8 acf7 27b6 00a3 9bb3 86f2 1939
00000160: 0f53 ddb7 0546 b837 fbda 053c 5797 cd3c
00000170: dc11 6b37 f16f ea35 604c 8639 c8ff eab6
00000180: da4e 6d39 8330 2cb8 38d7 b4b7 88fb 06b8
00000190: 4b34 933e 6d87 f83d fd46 1d39 e5e3 16b8
000001a0: 776f 0839 8316 acb7 5af1 1938 c016 ae38
000001b0: 94f4 e038 1349 a439 7d90 1e39 8ffa eab8
000001c0: 22eb f0b8 f895 83b8 267f 8eb8 8fdc 2db9
000001d0: ee4c 94b8 6086 bbb6 8fc2 9837 349a d3b7
000001e0: 4e59 44b8 e1a7 6437 0112 95b8 da83 6ab8
000001f0: 2871 0739 5c8d e7b6 449d 4bb8 405b ddb7
00000200: 9ca8 9d35 4f07 b0b7 82bf 8d38 88ea 34b8
00000210: 40b9 36b8 98cf c834 c9bc acb7 d0c5 5037
00000220: 0068 04b6 9820 c0b7 29fe 40b8 ca2d fc38
00000230: 1706 c8b7 2aec 5339 284a 5c38 2b8c 88b7
00000240: c0f6 3336 a618 e638 0088 e6b4 10e5 2f37
00000250: 2c18 2ab9 92ed b139 3fb0 0ab8 54db b438
00000260: 7b59 d6bc 196c dd3d baee e138 eee2 6d38
00000270: e0a1 2eb6 304c b636 8b38 e6b6 8cb2 7ab9
00000280: 0ef0 fe38 7a01 dab8 8586 3cbe 609a 4abd
00000290: 0eca 0039 4c95 c538 c1a3 c0b8 3d4f 9738
000002a0: 902e a3b8 b83b 5c38 a8d8 2eb9 e98d fe38
000002b0: 7e8d b637 1471 39b9 34b4 a0b7 6bf0 a7b8
000002c0: 43b1 0b3a 4ffe 1dbd 3286 8239 b2b8 1fb8
000002d0: 00ce 3d34 c87a 00b7 868c d337 786e 48b8
000002e0: 40dd 66b9 e986 6839 f8f0 cdb8 3dea ed38
000002f0: 70b5 5339 895b 9cb8 d04d 3737 f2a1 8137
00000300: 5e7c 27b9 071e 3939 3dfd f938 2051 6ab9
00000310: 82c3 f6b8 b462 2539 4d7f 86b9 5878 a6b6
00000320: caa3 1439 f006 c537 68b6 1cb9 0ce6 f438
00000330: 25b5 8f38 50e1 e3b6 46b4 d038 8a23 2eb9
00000340: 503b 17b9 ec76 f0b8 24e4 d4b6 8091 d4b4
00000350: a0f9 083c 38b6 e8bd 76fd 0538 2ebe 0638
00000360: 02d0 6db8 f5bd 85b8 960c b839 f8c9 e538
00000370: eaf5 4f37 7dae f5b7 5ad2 f6b8 e099 e4b5
00000380: 161b 19b9 f18d d7b8 1c04 0937 0cdb 09b7
00000390: d2ac 5cb8 70aa f7b6 bbaf 47b7 b065 5d37
000003a0: 08d3 7537 165e 8638 5887 65b7 63d3 9136
000003b0: 988e 4838 d7d0 1439 0515 5eb9 6ee5 0bb9
000003c0: f05c 1338 8af3 03b9 84aa a938 e823 e8b7
000003d0: 6bbe 66b8 b497 00b9 b0f2 ccb8 eae4 07b9
000003e0: f679 1f38 60ab b137 40b3 4cb8 9bae 2a37
000003f0: 0b48 863d fde9 3fbc ad55 2e39 54da 6e38

encoder.net.0.bias f4 [128]
-0.65839124 0.3209793 -0.32454714 -0.41854343 -0.4090402 0.3897276 0.37471735 0.5033463
0.25741458 -0.23660095 -0.19795564 0.21463685 0.6059553 0.18968171 -0.3323667 -0.3358357
-0.6686665 0.15570645 -0.39723787 -0.6321313 0.6201447 -0.45564222 -0.078264005 0.20315498
0.014031712 -0.47578442 -0.5527708 0.5690519 0.11615869 0.58573395 -0.23642647 0.2010254
-0.15997377 -0.038419977 -0.425596 0.24009319 0.22310744 -0.014321848 -0.16247793 -0.43951038
0.48826683 -0.52822924 0.28638068 -0.24967651 -0.3482289 0.13016133 -0.3659569 0.16368082
0.13491017 -0.5247499 0.11627585 0.3077313 0.3101916 -0.08838535 -0.59454733 -0.111312106
0.2452798 -0.25868618 0.25657588 0.47580424 -0.37831703 0.008289227 0.29155964 0.055488177
0.05923619 0.084709495 -0.5424407 0.058711328 0.4736536 0.62542284 0.4060814 0.09571813
0.3316415 -0.37661317 -0.5847366 -0.6087584 0.7248343 0.45222265 -0.4827026 0.27104324
0.5307179 0.69434327 0.62407345 0.5475479 -0.16305076 -0.24850616 0.58024275 0.3968657
-0.4086638 0.635895 0.3375247 0.3872722 -0.45059016 0.21370569 -0.2505219 0.55320424
-0.11993103 0.2776862 0.12414741 0.27128392 -0.25595677 0.3445017 -0.49412414 0.15827905
-0.48067883 -0.6728119 -0.550864 0.57343197 0.3814847 0.6640754 0.5697628 -0.64901495
-0.48267454 -0.11315953 -0.46064648 0.49685448 -0.49749067 -0.3465216 -0.68466157 -0.40201154
0.57380545 0.58227247 0.50299287 0.5459921 0.6526926 -0.17011298 0.31196573 0.62715644
00000000: 548c 28bf 6657 a43e 0b2b a6be 534b d6be
00000010: b86d d1be 608a c73e f4da bf3e 4edb 003f
00000020: d8cb 833e 8547 72be e2b4 4abe c3c9 5b3e
00000030: e31f 1b3f ec3b 423e f82b aabe a8f2 abbe
00000040: ba2d 2bbf 8371 1f3e c362 cbbe 5bd3 21bf
00000050: cec1 1e3f f049 e9be e148 a0bd dc07 503e
00000060: 44e5 653c 049a f3be 6382 0dbf 63ad 113f
00000070: 9be4 ed3d a9f2 153f c819 72be 9ad9 4d3e
00000080: 2ad0 23be 445e 1dbd b8e7 d9be fdda 753e
00000090: 4776 643e 2fa6 6abc 9d60 26be 8107 e1be
000000a0: 1cfe f93e 083a 07bf 7da0 923e 33ab 7fbe
000000b0: 0f4b b2be 0349 053e b45e bbbe f29b 273e
000000c0: e425 0a3e 0256 06bf 0822 ee3d f58e 9d3e
000000d0: 6fd1 9e3e 6103 b5bd 4134 18bf 9af7 e3bd
000000e0: a12a 7b3e 8472 84be ea5d 833e 9d9c f33e
000000f0: c5b2 c1be 8acf 073c 4e47 953e 9247 633d
00000100: a6a1 723d 2c7c ad3d 65dd 0abf 4a7b 703d
00000110: ba82 f23e b61b 203f e7e9 cf3e de07 c43d
00000120: eacc a93e 71d3 c0be 4cb1 15bf 97d7 1bbf
00000130: be8e 393f ba89 e73e cc24 f7be 2ec6 8a3e
00000140: 21dd 073f 7bc0 313f 47c3 1f3f 192c 0c3f
00000150: c7f6 26be 6678 7ebe ca8a 143f fb31 cb3e
00000160: 623c d1be 04ca 223f 0ad0 ac3e 8b48 c63e
00000170: c1b3 e6be aad5 5a3e 6844 80be cb9e 0d3f
00000180: 669e f5bd e32c 8e3e ff40 fe3d bae5 8a3e
00000190: c40c 83be 8762 b03e d7fd fcbe e713 223e
000001a0: 891b f6be 673d 2cbf 6c05 0dbf 70cc 123f
000001b0: f651 c33e d800 2a3f fadb 113f d825 26bf
000001c0: 1e21 f7be 2fc0 e7bd dbd9 ebbe b663 fe3e
000001d0: 19b7 febe 476b b1be fb45 2fbf 75d4 cdbe
000001e0: eae4 123f cf0f 153f 24c4 003f 23c6 0b3f
000001f0: dd16 273f 1932 2ebe f9b9 9f3e 538d 203f

encoder.net.1.weight f4 [128]
-0.00013779405 -3.643013e-05 0.2643679 5.828184e-05 0.000108879205 0.41866127 1.6064128e-05 -0.00011201506
1.2584132e-06 -3.3066288e-05 0.00010540913 0.00010475329 -8.784831e-05 -0.000101035876 -3.297259e-05 -0.00017047595
-0.00015699914 6.24358e-05 -0.00041894155 0.16584396 0.0003311954 5.7705132e-05 -7.906885e-06 7.252911e-05
-3.7392074e-05 -3.7742066e-06 -0.0004057603 0.44383714 4.9160455e-05 4.4958513e-05 7.258461e-05 -8.3314924e-05
-0.00013393257 -0.00013566417 -0.000108679465 -3.907604e-05 -5.984396e-05 0.00041645791 7.922359e-05 1.9472383e-05
-7.4610536e-05 0.000107066866 -2.233732e-05 -1.6953521e-05 -2.1738357e-05 2.3643788e-05 -4.2987886e-06 8.659808e-06
1.23224545e-05 -9.908694e-05 0.39040762 0.00011318305 9.8572724e-05 0.00013571522 2.054179e-05 -0.00012270693
0.00029987638 -0.00016533125 -0.00010014793 0.00019814452 -5.8391743e-05 0.00021117946 -6.1843806e-05 -0.0001171758
3.3959288e-05 0.00012155282 -2.6924492e-05 1.1699234e-05 -0.00031488715 0.000121061705 0.00030401733 -0.0002880735
4.1698106e-05 -0.00040753983 -7.1441515e-05 -3.5326215e-05 0.4347273 -9.6572374e-05 5.956585e-05 0.0003058642
-2.1579639e-05 0.3117441 0.00017614599 -3.357084e-05 -7.534228e-05 7.641655e-05 2.6709953e-05 0.00013479752
0.091109194 0.00033810694 -6.773678e-05 -0.00014300284 -3.6292447e-05 -0.00025611243 0.00023794778 -5.6193385e-05
7.6824275e-05 -9.404529e-05 -3.9068458e-05 3.436507e-05 0.00023284531 6.278053e-05 2.5909685e-05 5.8831472e-05
-0.00039422317 0.00014898 0.24901915 -7.949311e-05 7.709004e-06 -7.124571e-05 -0.00041767873 -3.13333e-05
-0.00016296112 -9.06903e-06 -0.00013280207 -0.00039818382 0.00017857482 -4.3091495e-05 -2.6466878e-05 -6.205044e-05
0.00016633602 0.0001856282 4.2312706e-05 -6.148566e-05 2.4046392e-05 -0.00014341893 0.1192386 6.613075e-05
00000000: cf7c 10b9 8ecc 18b8 3b5b 873e a673 7438
00000010: 1456 e438 c55a d63e 74c1 8637 a1e9 eab8
00000020: c0e6 a835 a8b0 0ab8 190f dd38 ffae db38
00000030: 343b b8b8 39e3 d3b8 0d4c 0ab8 cac1 32b9
00000040: 23a0 24b9 f7ef 8238 62a5 dbb9 00d3 293e
00000050: 4ba4 ad39 6a08 7238 d0a7 04b7 c51a 9838
00000060: 6fd5 1cb8 6048 7db6 3abc d4b9 9f3e e33e
00000070: a331 4e38 d691 3c38 9138 9838 5cb9 aeb8
00000080: 4070 0cb9 1341 0eb9 d8ea e3b8 94e5 23b8
00000090: f600 7bb8 0958 da39 d724 a638 a058 a337
000000a0: 3a78 9cb8 1689 e038 0861 bbb7 6937 8eb7
000000b0: c45a b6b7 a656 c637 503e 90b6 9849 1137
000000c0: 8abc 4e37 e5cc cfb8 82e3 c73e b05c ed38
000000d0: d4b8 ce38 c74e 0e39 2851 ac37 e4aa 00b9
000000e0: ba38 9d39 c55c 2db9 8306 d2b8 04c5 4f39
000000f0: a8e9 74b8 0e70 5d39 24b2 81b8 47bc f5b8
00000100: 826f 0e38 2cea fe38 e8db e1b7 d447 4437
00000110: 7017 a5b9 82e2 fd38 8464 9f39 9208 97b9
00000120: 00e5 2e38 12ab d5b9 dfd2 95b8 3c2b 14b8
00000130: 9494 de3e e686 cab8 58d6 7938 665c a039
00000140: ec05 b5b7 ec9c 9f3e d4b3 3839 6ace 0cb8
00000150: 1401 9eb8 d341 a038 300f e037 6f58 0d39
00000160: 7597 ba3d f243 b139 e80d 8eb8 08f3 15b9
00000170: b838 18b8 d446 86b9 9f81 7939 30b1 6bb8
00000180: b81c a138 2e3a c5b8 70dd 23b8 3723 1038
00000190: f027 7439 0aa9 8338 a058 d937 d0c1 7638
000001a0: bdaf ceb9 8437 1c39 e0fe 7e3e 8ab5 a6b8
000001b0: ec55 0137 c069 95b8 e4fb dab9 e06b 03b8
000001c0: 8be0 2ab9 3027 18b7 c940 0bb9 54c3 d0b9
000001d0: d03f 3b39 24bd 34b8 3005 deb7 1421 82b8
000001e0: 7c6a 2e39 31a5 4239 ec78 3138 ddf1 80b8
000001f0: 3cb7 c937 ba62 16b9 5e33 f43d adaf 8a38

encoder.net.1.bias f4 [128]
0.007030028 -0.11086052 0.01768804 0.0100535685 0.013855028 0.027504714 0.06434409 -0.036955032
0.009302204 0.01267949 0.054440495 0.05916944 -0.0012722901 -0.02627866 -0.018171802 -0.00093211903
-0.04916917 0.0419799 0.09424998 -0.0016064636 -0.0003764864 0.02575749 -0.036879722 -0.010917656
-0.03124271 -0.0021866623 -0.0073040817 0.011835436 0.14714846 0.019148896 0.06511589 -0.022662425
0.04152941 0.014001843 0.022126244 0.006400838 -0.01675359 -0.052350227 0.09348272 0.060909107
0.1412259 -0.0479856 0.028889202 0.0521207 -0.012945191 -0.03199423 -0.015123614 -0.06059279
-0.04064233 0.01554521 0.033279542 -0.03260814 -0.061726544 -0.010561012 -0.022011692 -0.08572363
-0.011661763 0.06533621 -0.021899844 0.094500326 -0.04341444 0.016430836 0.002514757 0.028167084
0.0065725287 0.011595951 -0.0062100263 0.0021039809 0.033223756 -0.06847155 -0.014693801 -0.007875935
0.005828165 -0.027076539 0.04808152 -0.044173513 0.096227095 -0.033757187 -0.015360982 0.048303228
0.009248515 0.12223565 -0.02774316 0.031880513 -0.025404863 0.028677192 0.03927556 0.0024020283
0.04634597 0.15921025 0.011023498 -0.04237024 -0.052715864 -0.024533639 0.0016764784 0.018232394
-0.06272078 -0.029782346 0.037964743 -0.016439125 -0.0125688 0.02707399 0.12952015 0.024967637
-0.032103725 0.116343915 0.016257664 0.034576673 0.01226741 -0.024303976 -0.023496848 -0.019363025
-0.035051536 0.0341545 0.04652484 -0.028190317 -0.014758461 -0.030032486 0.068765186 0.1207083
0.008228241 -0.07243533 0.018255632 0.08560541 0.026870077 -0.010764692 -0.007876072 -0.0041080797
00000000: 265c e63b d70a e3bd 82e6 903c b9b7 243c
00000010: 3300 633c 9151 e13c d6c6 833d 295e 17bd
00000020: 4568 183c a3bd 4f3c fffc 5e3d a85b 723d
00000030: f9c2 a6ba 5846 d7bc 08dd 94bc 7359 74ba
00000040: 9d65 49bd 1ef3 2b3d 2206 c13d f98f d2ba
00000050: 2663 c5b9 5f01 d33c 310f 17bd f8df 32bc
00000060: b6f0 ffbc 1b4e 0fbb 1457 efbb 6be9 413c
00000070: 16ae 163e 25de 9c3c 7b5b 853d 8da6 b9bc
00000080: be1a 2a3d fc67 653c 1942 b53c 1fbe d13b
00000090: d33e 89bc 316d 56bd de73 bf3d d47b 793d
000000a0: 869d 103e 8c8c 44bd 0ca9 ec3c 847c 553d
000000b0: 1118 54bc 620c 03bd 09c9 77bc 2530 78bd
000000c0: 9278 26bd 56b1 7e3c 2150 083d 1d90 05bd
000000d0: f9d4 7cbd 1808 2dbc dd51 b4bc df8f afbd
000000e0: fb10 3fbc fece 853d 4d67 b3bc 6389 c13d
000000f0: 57d3 31bd f699 863c 9fce 243b a8be e63c
00000100: 5e5e d73b f2fc 3d3c 7a7d cbbb f1e2 093b
00000110: a215 083d d03a 8cbd 45be 70bc 110a 01bc
00000120: 31fa be3b 9ecf ddbc 21f1 443d 49ef 34bd
00000130: b612 c53d fa44 0abd a1ac 7bbc 9bd9 453d
00000140: 1587 173c af56 fa3d a045 e3bc 2495 023d
00000150: dc1d d0bc 6eec ea3c 69df 203d 596b 1d3b
00000160: 46d5 3d3d 0308 233e e79b 343c 6b8c 2dbd
00000170: 97ec 57bd c5fa c8bc 48bd db3a 1a5c 953c
00000180: c173 80bd 1bfa f3bc eb80 1b3d 58ab 86bc
00000190: 5eed 4dbc 46ca dd3c eea0 043e ee88 cc3c
000001a0: 327f 03bd b845 ee3d cb2e 853c 45a0 0d3d
000001b0: 3ffd 483c 2219 c7bc 767c c0bc 359f 9ebc
000001c0: 3392 0fbd 97e5 0b3d d590 3e3d 61ef e6bc
000001d0: 79cd 71bc b006 f6bc c3d4 8c3d ea35 f73d
000001e0: becf 063c f958 94bd d68c 953c e451 af3d
000001f0: a31e dc3c 645e 30bc a40a 01bc 129d 86bb

encoder.net.1.running_mean f4 [128]
-0.65839005 0.32097486 -0.33035073 -0.41854644 -0.40903643 0.38110965 0.37470767 0.50334585
0.25742826 -0.236606 -0.19794711 0.21463509 0.6059623 0.18967834 -0.3323708 -0.33583447
-0.6686693 0.15571123 -0.3972337 -0.6211166 0.6201419 -0.45564216 -0.07826489 0.20315698
0.014030815 -0.47578752 -0.55276936 0.58242095 0.11615819 0.58572817 -0.2364227 0.20101815
-0.15997358 -0.038426008 -0.42559773 0.24009366 0.22310969 -0.01431616 -0.16247648 -0.43951616
0.48826796 -0.52821743 0.28638253 -0.24968083 -0.34822923 0.1304695 -0.3659619 0.16369826
0.13492553 -0.52474993 0.14001402 0.30772108 0.31018785 -0.088391915 -0.59455043 -0.11130717
0.24528657 -0.2586838 0.25655827 0.4758052 -0.3783174 0.008295255 0.29156402 0.055488557
0.05923739 0.084717155 -0.54243845 0.05870928 0.4736541 0.6254245 0.406079 0.09570755
0.33164412 -0.37660566 -0.5847476 -0.60876125 0.7206211 0.4522279 -0.48269907 0.27104798
0.53072494 0.67868066 0.62407947 0.5475518 -0.16305566 -0.24850744 0.58024305 0.39686784
-0.40793458 0.63589716 0.3375248 0.3872747 -0.45060945 0.21370052 -0.25050607 0.55320454
-0.11994806 0.2776898 0.124156415 0.27125886 -0.2559522 0.34449726 -0.4941239 0.15826687
-0.4806752 -0.6728123 -0.5477091 0.57343465 0.38149002 0.6640864 0.5697634 -0.649007
-0.48266694 -0.113160014 -0.46064413 0.49685454 -0.49749014 -0.34652486 -0.6846677 -0.40200758
0.57380414 0.5822742 0.5029879 0.54598975 0.652696 -0.17012322 0.31810924 0.62715906
00000000: 408c 28bf d156 a43e bb23 a9be b84b d6be
00000010: 396d d1be ce20 c33e afd9 bf3e 46db 003f
00000020: a3cd 833e d848 72be a6b2 4abe 4dc9 5b3e
00000030: 5820 1b3f 0a3b 423e 812c aabe 7ff2 abbe
00000040: e92d 2bbf c472 1f3e 3762 cbbe 7f01 1fbf
00000050: 9fc1 1e3f ee49 e9be 5849 a0bd 6208 503e
00000060: 81e1 653c 6c9a f3be 4b82 0dbf 8a19 153f
00000070: 58e4 ed3d 48f2 153f cb18 72be b4d7 4d3e
00000080: 1dd0 23be 9764 1dbd f2e7 d9be 1ddb 753e
00000090: de76 643e 548e 6abc 3c60 26be 4308 e1be
000000a0: 42fe f93e 4239 07bf bba0 923e 55ac 7fbe
000000b0: 1a4b b2be cc99 053e 5c5f bbbe 84a0 273e
000000c0: eb29 0a3e 0356 06bf d65f 0f3e 9e8d 9d3e
000000d0: f1d0 9e3e d206 b5bd 7534 18bf 03f5 e3bd
000000e0: 672c 7b3e 3472 84be 9b5b 833e bd9c f33e
000000f0: d1b2 c1be d2e8 073c e147 953e f847 633d
00000100: e8a2 723d 3080 ad3d 3fdd 0abf 2479 703d
00000110: ca82 f23e d21b 203f 96e9 cf3e 5202 c43d
00000120: 42cd a93e 75d2 c0be 05b2 15bf c7d7 1bbf
00000130: a07a 383f 6a8a e73e 5524 f7be cdc6 8a3e
00000140: 97dd 073f 04be 2d3f acc3 1f3f 5b2c 0c3f
00000150: 10f8 26be bc78 7ebe cf8a 143f 4332 cb3e
00000160: cddc d0be 28ca 223f 0dd0 ac3e df48 c63e
00000170: 48b6 e6be 4fd4 5a3e 5542 80be d09e 0d3f
00000180: 54a7 f5bd 5c2d 8e3e b845 fe3d 71e2 8a3e
00000190: 2b0c 83be f261 b03e cffd fcbe b610 223e
000001a0: 0f1b f6be 6d3d 2cbf aa36 0cbf 9dcc 123f
000001b0: a952 c33e 9101 2a3f 04dc 113f 5325 26bf
000001c0: 1f20 f7be 70c0 e7bd 8cd9 ebbe b863 fe3e
000001d0: 07b7 febe b56b b1be 6246 2fbf f0d3 cdbe
000001e0: d4e4 123f ec0f 153f d1c3 003f fcc5 0b3f
000001f0: 1617 273f c834 2ebe 37df a23e 7f8d 203f

encoder.net.1.running_var f4 [128]
3.6773415e-09 1.6828924e-08 0.0075524324 1.866849e-08 4.651358e-09 0.01274614 5.469322e-08 9.737144e-09
8.443207e-08 2.4856943e-08 4.7510902e-08 5.518765e-09 3.9710375e-08 5.118343e-09 6.681255e-08 1.2174028e-08
1.283202e-08 9.601628e-09 9.364618e-09 0.025357367 4.522636e-08 1.554857e-08 6.733818e-08 3.6127634e-08
2.2775888e-10 1.294644e-08 1.2066818e-08 0.03863711 2.4858828e-09 7.4456025e-08 5.1844893e-09 2.1041783e-08
8.923501e-10 5.7964122e-08 1.6176394e-08 5.5719823e-08 1.0115471e-08 2.8940065e-07 1.11847935e-08 3.5149124e-08
1.663093e-08 1.5464116e-07 1.22094e-09 9.181237e-08 1.9070938e-09 0.001011186 5.7671032e-09 9.777559e-08
8.338469e-08 1.06956e-08 0.11611104 5.7240417e-08 2.1672703e-08 1.2865395e-07 8.311356e-08 1.4946712e-08
1.107306e-07 9.614831e-09 8.006319e-08 2.4052154e-09 8.727108e-09 4.0120835e-08 7.382208e-09 3.6011536e-09
1.7994042e-09 3.566709e-08 3.0102594e-09 2.0780957e-09 1.0096275e-08 3.1282905e-08 2.8202322e-08 4.001897e-08
2.4324395e-08 1.9472722e-08 1.5940479e-07 7.801891e-09 0.017845264 3.64497e-08 1.9611289e-08 2.40111e-08
1.8159348e-08 0.042294085 2.8463822e-08 1.2068092e-08 1.5473914e-08 3.1031416e-08 1.8469438e-08 2.0275483e-08
0.002202138 2.7802425e-08 1.3819732e-08 1.5030962e-07 1.8074839e-07 1.7121481e-08 7.586486e-08 1.5443057e-08
8.368816e-08 4.9212282e-08 3.077943e-08 1.4893327e-07 1.2229029e-08 3.4350673e-08 1.4380197e-08 1.023054e-07
1.4562103e-08 5.665663e-09 0.018968163 4.928849e-09 2.7867403e-08 1.1752552e-07 2.4765119e-09 2.650073e-08
3.9354937e-08 1.5948575e-09 6.188087e-09 3.0696115e-09 5.6513048e-09 2.945534e-09 2.4074984e-08 3.3853627e-08
7.0433206e-09 6.799489e-09 4.2599385e-08 2.0302457e-08 2.7201242e-08 2.9765957e-08 0.0051444396 1.91666e-08
00000000: 7ab4 7c31 328f 9032 657a f73b 725c a032
00000010: c7d1 9f31 30d5 503c d5e7 6a33 6a48 2732
00000020: 0551 b533 ff84 d532 ca0e 4c33 929f bd31
00000030: 058e 2a33 6cdd af31 967a 8f33 f125 5132
00000040: d273 5c32 68f4 2432 07e2 2032 41ba cf3c
00000050: e93e 4233 ab8f 8532 8e9b 9033 c12a 1b33
00000060: 6d6c 7a2f 0c6b 5e32 6d4e 4f32 f241 1e3d
00000070: 1dd4 2a31 a2e4 9f33 4023 b231 5fbf b432
00000080: 8e49 7530 3af4 7833 44f4 8a32 9850 6f33
00000090: 50c8 2d32 ec5e 9b34 3e27 4032 dff6 1633
000000a0: cddb 8e32 700b 2634 02ce a730 622a c533
000000b0: f30d 0331 c689 843a fa27 c631 b3f8 d133
000000c0: 3811 b333 bfbf 3732 a0cb ed3d 81d8 7533
000000d0: c72a ba32 2124 0a34 2a7c b233 2b64 8032
000000e0: cbca ed33 792e 2532 34ef ab33 ff48 2531
000000f0: 3aee 1532 5351 2c33 97a6 fd31 2a78 7731
00000100: e84e f730 6130 1933 0bdd 4e31 3fce 0e31
00000110: e373 2d32 eb5b 0633 9041 f232 53e1 2b33
00000120: e9f1 d032 f844 a732 db28 2b34 1409 0632
00000130: 3b30 923c de8c 1c33 ae75 a832 f840 ce32
00000140: d4fc 9b32 903c 2d3d 9b80 f432 0854 4f32
00000150: 7feb 8432 6747 0533 b9a6 9e32 422a ae32
00000160: bf51 103b 2ed2 ee32 d36b 6d32 cb64 2134
00000170: bd13 4234 8912 9332 26eb a233 a4a7 8432
00000180: 0db8 b333 7a5d 5333 5732 0433 77ea 1f34
00000190: d717 5232 f788 1333 c60c 7732 fdb2 db33
000001a0: ce2c 7a32 b3ab c231 1f63 9b3c 9d5a a931
000001b0: 1161 ef32 5762 fc33 422f 2a31 b9a3 e332
000001c0: 3607 2933 0f32 db30 fd9e d431 2df1 5231
000001d0: 672d c231 626a 4a31 73cd ce32 7566 1133
000001e0: b401 f231 f0a0 e931 85f6 3633 9365 ae32
000001f0: 2aa8 e932 08b0 ff32 b092 a83b cda3 a432

encoder.net.3.weight f4 [128, 128]
-8.5505184e-05 5.61072e-05 -0.00025076017 -0.000107807085 0.00012317812 -8.044284e-06 7.6788536e-05 -3.829343e-05
7.712317e-05 0.00015364624 -8.009531e-05 0.00014247888 -9.9926576e-05 -0.0006203629 -0.00019775738 -2.957246e-05
-0.00017950033 0.00015749085 -0.0001832294 -3.5714183e-06 -0.00012662496 -3.4002536e-05 0.00014003404 0.00023090003
0.00017467134 5.5577482e-05 3.5891248e-05 -0.00012840844 -1.3005176e-05 9.101088e-05 2.9436189e-05 -9.702752e-05
3.2045937e-05 -8.573673e-05 -6.342971e-05 0.00020309944 0.00023255254 -0.00012836952 0.00047621236 7.6405915e-05
-6.947058e-05 0.00041480485 0.0001880331 0.00011674116 0.00022012477 -0.00028379614 6.7319197e-06 2.1770205e-05
4.746676e-05 8.9853915e-05 5.1636198e-05 -3.107192e-05 -0.00016803519 0.00018558119 0.00017023334 0.00012502033
1.29852415e-05 0.00046946423 8.3330415e-05 -4.5265573e-05 -4.8203045e-05 -2.7514223e-05 -5.264165e-05 -3.5544417e-06
-0.00015390784 -4.6217952e-05 2.1865588e-05 1.1390433e-05 0.00024084456 -0.0001259034 -9.31185e-05 -6.151838e-05
-4.8732334e-05 -0.00020775224 0.00023464076 0.00031635517 8.480587e-06 4.1588137e-05 0.0001844175 0.00013349732
-1.2302211e-05 -4.7077774e-05 -0.0001142113 -8.983842e-05 -8.983842e-06 5.661686e-05 -4.4787314e-05 -0.0001970031
0.0001229629 -0.00016267246 -0.00012347863 -0.00012541545 1.7855062e-05 -2.197448e-05 -0.00012699996 0.00010401276
0.00021069124 -0.00024389454 4.132515e-05 4.4317647e-05 8.7538836e-05 0.00012575861 -4.7708483e-05 -0.00012020439
-7.248485e-05 -0.00024416516 -0.0005273671 -5.120819e-05 5.6128927e-05 0.00013694513 6.758752e-05 -0.00020444844
3.206743e-05 -6.824043e-05 8.185638e-06 9.799992e-05 0.00013632618 -0.0002635629 -0.00012040967 -6.28389e-05
2.2376335e-06 -6.4104825e-08 -9.869793e-05 0.0004280228 -5.3565927e-05 6.4099484e-05 -0.00017003581 -3.104822e-06
0.00041820706 0.0004271363 0.00020927485 -0.00012882483 2.6203208e-05 -0.00018937301 1.27443345e-05 -1.4381934e-05
-4.8026322e-06 6.315301e-05 2.5198795e-05 -5.2083065e-05 -0.00014367633 6.250198e-05 0.00024103792 0.0003378897
-1.5330079e-07 -0.00011006216 0.00010182134 0.0001525275 -4.925922e-05 0.00011928047 -6.6485525e-05 -0.00047963206
0.00011099236 -0.00018620855 1.2479264e-05 6.267839e-05 8.995194e-06 9.0663e-05 0.00033757451 0.0003161524
-3.9960833e-05 9.973938e-05 -0.00010256466 -5.1302297e-05 -9.1208254e-05 -0.0001348462 -5.4913795e-05 -0.00016199157
-0.00033359628 0.00063046475 -9.373406e-05 0.00011297598 -7.3909476e-05 5.2305542e-05 -0.00017218804 -2.8438863e-06
-2.7331444e-05 -0.00031612683 -0.00042878708 -9.854208e-06 -3.9376126e-05 -6.5747496e-05 -0.00012543451 0.00013746964
-4.3367414e-05 -5.326689e-05 5.262466e-05 -8.225593e-05 -0.00020873951 2.7360773e-05 0.00019273207 -0.00032299978
6.4816413e-06 -0.00021845479 0.00022864313 -0.00015189449 -0.00023458111 8.1531834e-05 -6.0944054e-05 -0.00011429828
-0.00010557707 -7.699447e-05 -0.00010757237 -1.8347084e-05 9.965534e-05 -8.945775e-05 0.00011847024 0.00017800825
-3.9182974e-05 0.0003365354 -3.4995664e-05 8.4362946e-05 -1.139061e-05 -4.82591e-06 -8.560259e-06 -0.000114677256
-8.151087e-05 -5.8733123e-05 -5.949186e-05 -1.0360462e-05 -0.0002013368 0.00015278616 6.0905266e-05 0.00013830763
-8.906267e-05 8.5323845e-06 2.5427726e-06 -0.00012007788 -0.0001299278 0.00011911443 8.501363e-05 -2.7854912e-05
0.00032423539 7.872863e-06 -0.00022433905 -0.00016822148 0.00014050685 -0.00017245425 0.00016853318 -1.5676771e-05
0.00023875419 -0.0003459591 0.00014259928 6.0357357e-05 -0.00031529262 -9.615043e-05 -0.00020924571 0.00017021608
0.00025002923 0.00014019862 0.00010050398 -0.0004403162 0.00010864184 -5.1285268e-05 -3.123108e-05 0.00010927682
00000000: 3f51 b3b8 a654 6b38 7678 83b9 7d16 e2b8
00000010: 6029 0139 f0f5 06b7 8809 a138 429d 20b8
00000020: 30bd a138 191c 2139 d8f8 a7b8 6266 1539
00000030: ac8f d1b8 d99f 22ba 185d 4fb9 6012 f8b7
00000040: 4138 3cb9 2124 2539 4421 40b9 80ac 6fb6
00000050: a1c6 04b9 f29d 0eb8 1ad6 1239 c11d 7239
00000060: fb27 3739 de1b 6938 ef89 1638 61a5 06b9
00000070: ce30 5ab7 18dd be38 bced f637 417b cbb8
00000080: 1069 0638 8ecd b3b8 9105 85b8 17f7 5439
00000090: 59d9 7339 ee9a 06b9 24ac f939 1d3c a038
000000a0: bcb0 91b8 2a7a d939 c02a 4539 efd2 f438
000000b0: 4bd1 6639 79ca 94b9 c0e2 e136 299f b637
000000c0: 0c17 4738 f46f bc38 f293 5838 3853 02b8
000000d0: 9a32 30b9 9298 4239 aa80 3239 e417 0339
000000e0: 30db 5937 6c22 f639 adc1 ae38 8adb 3db8
000000f0: a02d 4ab8 58ce e6b7 8bcb 5cb8 d888 6eb6
00000100: 5262 21b9 26da 41b8 fe6b b737 8a19 3f37
00000110: 388b 7c39 f004 04b9 9d48 c3b8 6e03 81b8
00000120: f265 4cb8 11d8 59b9 e609 7639 79dc a539
00000130: d847 0e37 ec6e 2e38 3260 4139 6afb 0b39
00000140: 9865 4eb7 6075 45b8 ba84 efb8 a267 bcb8
00000150: 4fb9 16b7 e477 6d38 03da 3bb8 9e92 4eb9
00000160: 9aef 0039 0e93 2ab9 0b7a 01b9 f481 03b9
00000170: 74c7 9537 d655 b8b7 4b2b 05b9 6d21 da38
00000180: 00ed 5c39 f1bd 7fb9 8b54 2d38 b6e1 3938
00000190: 0e95 b738 12de 0339 981a 48b8 3e16 fcb8
000001a0: 0203 98b8 4b03 80b9 023f 0aba 60c8 56b8
000001b0: fa6b 6b38 ee98 0f39 c6bd 8d38 3661 56b9
000001c0: 2480 0638 4d1c 8fb8 0c55 0937 4e85 cd38
000001d0: c8f2 0e39 d02e 8ab9 7384 fcb8 61c8 83b8
000001e0: 402a 1636 00aa 89b3 0cfc ceb8 3f68 e039
000001f0: faab 60b8 266d 8638 a44b 32b9 705c 50b6
00000200: cd42 db39 44f1 df39 ca70 5b39 2715 07b9
00000210: f6ce db37 6e92 46b9 80d0 5537 f049 71b7
00000220: 4c26 a1b6 0471 8438 0062 d337 c473 5ab8
00000230: d2a7 16b9 7f13 8338 20bf 7c39 ca26 b139
00000240: 009b 24b4 2cd1 e6b8 ea88 d538 caef 1f39
00000250: af9b 4eb8 3726 fa38 256e 8bb8 2077 fbb9
00000260: 92c4 e838 fa40 43b9 085e 5137 3472 8338
00000270: 10ea 1637 5422 be38 7cfc b039 42c1 a539
00000280: 9e9b 27b8 2c2b d138 fc17 d7b8 6c2d 57b8
00000290: 0f47 bfb8 8065 0db9 3d53 66b8 48dc 29b9
000002a0: 89e6 aeb9 c645 253a 1793 c4b8 84ed ec38
000002b0: d9ff 9ab8 a662 5b38 608d 34b9 98d9 3eb6
000002c0: d445 e5b7 d3bd a5b9 d4ce e0b9 8053 25b7
000002d0: cb27 25b8 ebe1 89b8 1287 03b9 ba25 1039
000002e0: 68e5 35b8 e36a 5fb8 4cb9 5c38 d180 acb8
000002f0: 16e1 5ab9 d084 e537 1f18 4a39 4c58 a9b9
00000300: e07c d936 0311 65b9 ecbf 6f39 de45 1fb9
00000310: e3f9 75b9 12fc aa38 2e9e 7fb8 6cb3 efb8
00000320: 4269 ddb8 1778 a1b8 7a98 e1b8 10e8 99b7
00000330: 0efe d038 449b bbb8 3a73 f838 baa7 3a39
00000340: 6658 24b8 0471 b039 4fc8 12b8 03ec b038
00000350: 4c1a 3fb7 40ee a1b6 089e 0fb7 e27e f0b8
00000360: d1f0 aab8 3658 76b8 e686 79b8 d8d1 2db7
00000370: f01d 53b9 3935 2039 8874 7f38 ac06 1139
00000380: 28c7 bab8 5026 0f37 80a4 2a36 52d2 fbb8
00000390: 3a3d 08b9 13cd f938 5849 b238 f8a9 e9b7
000003a0: 23fe a939 b015 0437 8e3c 6bb9 9c64 30b9
000003b0: 0555 1339 d6d4 34b9 48b8 3039 9c81 83b7
000003c0: 175a 7a39 d861 b5b9 b486 1539 3828 7d38
000003d0: dc4d a5b9 5ea4 c9b8 f868 5bb9 087c 3239
000003e0: 5b16 8339 4802 1339 aac5 d238 3dda e6b9
000003f0: a5d6 e338 231b 57b8 1efe 02b8 8c2b e538

encoder.net.3.bias f4 [128]
-0.013776719 -0.049286395 -0.03138423 -0.042545374 0.08226784 -0.008244891 0.073855326 -0.056955423
0.042139724 -0.080053695 -0.028952723 -0.040074553 -0.08633832 -0.0664004 -0.0323444 -0.014445387
-0.03086913 -0.121276155 0.013304092 0.03844927 0.016646666 0.06874795 -0.0070720864 0.06971608
-0.006837853 -0.0024062674 -0.0028320248 -0.034914445 -0.033695653 0.026483051 -0.04814358 0.028454201
-0.07633054 -0.011097998 -0.013423486 -0.03961157 0.06396965 -0.070454024 0.0605191 -0.07513538
0.054982174 0.08650691 -0.020430868 -0.007863525 -0.002644604 0.051493738 0.0057921656 -0.01830884
0.10660722 0.06699739 -0.0064736726 -0.04171107 0.04773819 -0.036694556 -0.04952676 -0.057157055
0.0062097553 -0.036132798 0.05492932 0.060671676 -0.04086099 -0.032820802 0.06433164 -0.04692347
0.058272883 -0.0072779483 0.083869696 0.04508449 -0.0626981 -0.0654655 0.057203766 -0.04630938
0.00829635 0.01721481 -0.06853805 -0.004596299 0.060641233 -0.0001265192 -0.055768177 0.07710019
0.073542394 0.022596503 -0.053526532 0.039364778 0.02394987 -0.053945526 -0.06327345 -0.0348907
0.08198824 -0.0011121494 -0.0006715738 0.042637303 -0.05032319 -0.029263131 0.013509802 0.076078616
-0.008955787 0.019490058 -0.07566264 -0.08052354 0.023051433 -0.0007749632 0.06340459 0.02203144
0.077359125 -0.021020442 -0.025296418 -0.0053908518 -0.037482608 0.0062033464 -0.07613348 0.01163774
-0.0060685566 0.027415114 0.08616704 0.031312674 0.013943491 -0.056392692 -0.028191768 -0.034564663
-0.12519042 0.044885002 0.08165499 0.056395832 0.0724403 -0.048896644 -0.035857856 -0.028133202
00000000: bfb7 61bc 88e0 49bd c08c 00bd 0f44 2ebd
00000010: 0b7c a83d 9415 07bc 7641 973d 174a 69bd
00000020: b49a 2c3d 31f3 a3bd 432e edbc 3725 24bd
00000030: 25d2 b0bd effc 87bd 907b 04bd 58ac 6cbc
00000040: 42e1 fcbc a25f f8bd 68f9 593c fb7c 1d3d
00000050: 975e 883c bacb 8c3d f6bc e7bb 4ec7 8e3d
00000060: 1210 e0bb 78b2 1dbb 7e99 39bb 7302 0fbd
00000070: 7404 0abd fcf2 d83c 3432 45bd c918 e93c
00000080: 3053 9cbd 61d4 35bc 2eee 5bbc be3f 22bd
00000090: 8502 833d 334a 90bd e0e2 773d 94e0 99bd
000000a0: fd34 613d 892a b13d a35e a7bc 04d6 00bc
000000b0: 1851 2dbb 19eb 523d 35cc bd3b 6cfc 95bc
000000c0: e354 da3d ed35 893d 1a21 d4bb 3ad9 2abd
000000d0: 1f89 433d 084d 16bd 92dc 4abd 841d 6abd
000000e0: 347b cb3b fcff 13bd 91fd 603d dd82 783d
000000f0: da5d 27bd 1b6f 06bd 4fc0 833d d332 40bd
00000100: 8caf 6e3d db7b eebb e0c3 ab3d 84aa 383d
00000110: dd67 80bd c712 86bd 7f4e 6a3d e8ae 3dbd
00000120: 6aed 073c 1306 8d3c ad5d 8cbd 8d9c 96bb
00000130: f162 783d 3daa 04b9 2c6d 64bd b4e6 9d3d
00000140: 659d 963d 4d1c b93c a33e 5bbd f63c 213d
00000150: 8532 c43c fcf5 5cbd 8395 81bd 8de9 0ebd
00000160: 73e9 a73d 8bc5 91ba 8e0c 30ba 74a4 2e3d
00000170: b01f 4ebd 3cb9 efbc 3758 5d3c 1bcf 9b3d
00000180: 4bbb 12bc 9da9 9f3c 04f5 9abd 87e9 a4bd
00000190: 5cd6 bc3c e626 4bba 44da 813d 477b b43c
000001a0: 766e 9e3d 1033 acbc 6f3a cfbc bea5 b0bb
000001b0: 5d87 19bd 7145 cb3b dfeb 9bbd 38ac 3e3c
000001c0: beda c6bb a995 e03c 5878 b03d b841 003d
000001d0: 3d73 643c 06fc 66bd 6cf2 e6bc ad93 0dbd
000001e0: eb31 00be 56d9 373d bb3a a73d 51ff 663d
000001f0: 945b 943d d947 48bd b0df 12bd 9a77 e6bc

encoder.net.4.weight f4 [128]
0.00025359058 -3.8278282e-05 -3.919418e-05 -0.00013240683 -0.0002761907 -4.8925904e-05 0.00032693677 0.4144029
0.00023753523 7.042908e-05 0.00011035713 0.4439614 -0.0001886164 2.7007583e-05 0.35093468 -1.996038e-05
-0.00012124053 0.19112524 -2.8124894e-05 0.00012943089 9.773718e-05 0.00021139703 0.00016549815 0.00015450723
0.00016698508 0.000112401 7.94549e-05 0.00014465203 6.0164763e-05 0.4040247 -0.00028049725 -0.00026586422
0.00012552671 0.00019694593 4.396093e-05 -4.6818444e-05 8.827596e-05 -9.651749e-05 0.39885738 0.40342465
0.39317903 -9.108403e-05 -8.2685176e-05 -0.0002060408 -0.000107756736 -0.00024339328 0.00016975858 0.0002554915
0.3270497 -0.0001751655 9.822759e-06 -0.00016735637 -0.00013018075 2.4046793e-05 0.00023925363 0.00010601002
-0.0001587374 0.000191284 3.482252e-05 -8.4811705e-05 0.00014438808 0.00024102675 0.0001680633 3.8701546e-06
5.43561e-05 -5.671516e-05 0.37716922 1.0122829e-05 0.00016619748 1.7244613e-05 0.59295624 2.788409e-06
0.00015576745 -0.0002770675 0.0003445133 -4.532434e-06 -0.00011943783 -4.1427767e-05 0.00013012788 -8.075186e-05
0.00049699476 -0.0001172987 -8.899989e-05 0.00024124209 0.47133625 0.0002804657 0.00024020586 -8.890732e-05
9.294767e-05 0.10307688 -0.00027447264 -4.307748e-05 -0.00018382576 -0.00018687132 1.4572823e-05 6.094997e-05
0.00010677079 -0.00018264436 -0.00023213965 0.00011117663 -1.9865962e-05 0.00032679894 0.00022276127 0.00011842458
-9.641722e-05 2.8753248e-05 0.00023792962 0.24423282 6.6738794e-06 0.00013552846 0.00012400125 0.0002359618
4.4790966e-05 -0.00018142669 0.00043963833 7.0598806e-05 -5.6952354e-05 -0.00011048833 -5.2121904e-05 -9.797678e-05
0.5081395 -0.00010113893 7.0669666e-06 4.3057196e-05 0.00015503092 -9.880561e-06 -7.5042866e-05 -2.365066e-05
00000000: 5af4 8439 fe8c 20b8 6e64 24b8 b0d6 0ab9
00000010: b0cd 90b9 ca35 4db8 b668 ab39 9e2c d43e
00000020: e112 7939 53b3 9338 886f e738 e94e e33e
00000030: 54c7 45b9 588e e237 b6ad b33e 9770 a7b7
00000040: 8442 feb8 56b6 433e c0ed ebb7 d7b7 0739
00000050: 40f8 cc38 75aa 5d39 9289 2d39 3803 2239
00000060: b718 2f39 d4b8 eb38 06a1 a638 bcad 1739
00000070: 6c59 7c38 53dc ce3e b40f 93b9 b163 8bb9
00000080: d29f 0339 4583 4e39 b062 3838 ec5e 44b8
00000090: cc20 b938 6f69 cab8 0937 cc3e ad8d ce3e
000000a0: c34e c93e 5e04 bfb8 4467 adb8 a80c 58b9
000000b0: 75fb e1b8 6337 7fb9 3901 3239 7df3 8539
000000c0: 0f73 a73e a2ac 37b9 6ecc 2437 627c 2fb9
000000d0: 2181 08b9 18b8 c937 28e0 7a39 b251 de38
000000e0: bf72 26b9 6893 4839 650e 1238 f0dc b1b8
000000f0: e166 1739 20bc 7c39 263a 3039 60dc 8136
00000100: 6bfc 6338 70e1 6db8 531c c13e 38d5 2937
00000110: 4c45 2e39 86a8 9037 fbcb 173f 8020 3b36
00000120: 8255 2339 5f43 91b9 cb9f b439 5015 98b6
00000130: b27a fab8 bac2 2db8 f072 0839 5359 a9b8
00000140: c148 023a 43fe f5b8 74a5 bab8 eef5 7c39
00000150: fc52 f13e 780b 9339 c5df 7b39 c173 bab8
00000160: e6ec c238 f919 d33d 18e7 8fb9 18ae 34b8
00000170: 5ac1 40b9 e3f2 43b9 cc7d 7437 88a4 7f38
00000180: 22ea df38 3984 3fb9 836a 73b9 8027 e938
00000190: d4a5 a6b7 3656 ab39 0695 6939 b65a f838
000001a0: 9a33 cab8 2133 f137 bf7c 7939 2b18 7a3e
000001b0: 30f0 df36 a51c 0e39 5506 0239 836c 7739
000001c0: efdd 3b38 5b3d 3eb9 427f e639 720e 9438
000001d0: 20e0 6eb8 f8b5 e7b8 789d 5ab8 e278 cdb8
000001e0: 6e15 023f 8d1a d4b8 c820 ed36 5098 3438
000001f0: cc8f 2239 b0c4 25b7 5560 9db8 6865 c6b7
