Mixture_of_latest_Koopman_NN/results_double_pendulum/final_model.pth (torch, 210653 bytes, 30 tensors)

A_f f4 [40, 40]
0.988928 0.021724751 0.06587391 -0.008025107 -0.013010297 0.027766164 0.040398914 0.03815227
0.035132065 -0.0053636204 -0.028882394 -0.003084181 -0.008444713 -0.03648087 -0.0062329764 0.005286113
-0.0120931445 0.0076678484 0.018140748 0.02746435 0.040834226 0.0058234753 -0.010884193 0.034587547
0.006616351 -0.005598578 0.0029494455 0.016200144 0.04404516 0.024433373 0.020618021 0.017779034
0.026015278 0.021933308 0.0041845865 0.00450761 0.018470591 0.0032884977 -0.027908104 0.033228565
-0.0258827 1.0014361 -0.060474314 -0.0060055847 -0.026707862 -0.016255982 0.042603042 0.008269203
0.010280518 0.017575251 0.045999866 0.013262756 -0.014146762 0.007812446 0.013300582 -0.0062105674
-0.00074205734 0.02311234 -0.03876446 0.010279758 -0.023881994 -0.029406622 -0.00922275 0.007744026
-0.026851961 0.0027307412 0.012320633 0.05553819 0.008043458 0.00052037986 0.046089433 -0.031952746
-0.015729805 -0.052023042 0.033338085 0.020176526 0.010715218 -0.020494452 -0.028192777 0.031710934
-0.0040106494 -0.0011025133 0.9827808 0.0068557435 0.0034690981 0.014376754 0.0043783546 0.0033576526
0.003281612 -0.010563185 -0.0010993303 -0.0019891527 -0.021847093 0.0091216685 0.0014421733 0.0009745537
0.0025137484 -0.004511547 0.010618518 -0.047197048 -0.008593838 -0.016239844 -0.004750228 -0.0002908956
0.0043112924 0.0030623518 -0.0030591148 0.010672678 -0.0021201314 -0.0058904802 0.005016564 -0.0060291016
0.011233463 -0.0037268505 0.0004231194 0.0027671326 -0.00431194 0.005664183 0.0023768381 -0.0064351587
-0.015754424 -0.023856748 -0.078501314 0.99526817 -0.014318394 -0.018659286 0.0060247006 -0.01796161
0.0023563663 0.013707446 0.041553307 0.014165125 -0.01489458 0.017439513 0.005044677 -0.019657372
-0.012234112 0.016519118 -0.027776334 -2.5502544e-05 -0.019276882 -0.062978916 0.00014961329 0.00094936334
-0.01247806 0.0071410784 -0.004385926 0.034196876 -0.02399631 -0.0045603462 0.017793315 -0.03692633
-0.015975282 -0.040031042 0.0008532379 0.029384216 0.00077513524 -0.04542445 -0.0048253466 0.0012580177
-0.0101448 0.015515736 0.01884513 -0.009308562 0.9733497 -0.0028859768 0.03092262 0.020825798
0.0041287076 0.008772232 -0.008103289 0.0021401849 -0.0047786 -0.0063373274 0.0045968955 0.012179691
0.0047315094 0.014145497 -0.008477371 0.054096013 -0.004716877 0.0032151702 -0.0060371826 0.017736081
-0.012061341 -0.0038637933 0.010549996 0.004827007 0.01839455 0.0012594702 0.0119343465 0.009127397
-0.0013506772 -0.02012035 0.019395325 -0.0065396074 -0.0065201516 0.012077259 -0.002330768 0.025612593
0.020585082 -0.003980666 0.019342814 0.007789201 0.038479272 1.0123882 -0.041164625 -0.011545624
-0.00088433136 -0.009376942 -0.01463638 -0.0045389533 0.02154642 -0.009307537 -0.012906795 -0.0065370095
0.008559475 -0.023803985 0.03370706 -0.02335934 0.026616411 0.02988318 0.006572037 -0.017150464
0.028306508 -0.001467439 -0.012570779 -0.021510864 -0.005637658 0.0052002086 -0.034885205 0.009610704
0.007189605 0.048229255 -0.017343244 -0.0032626288 0.026618846 0.016227057 -6.155991e-05 -0.024359683
-0.01608855 -0.0041276705 -0.056111593 -0.01240779 0.016124513 0.008108483 1.012462 0.007954177
0.008800113 -0.00086918415 0.015706545 0.009521384 -0.011440378 0.034252223 0.0039342064 -0.008447051
00000000: 632a 7d3f 1bf8 b13c e7e8 863d bd7b 03bc
00000010: 2429 55bc de75 e33c 5579 253d 8e45 1c3d
00000020: a4e6 0f3d 4fc1 afbb c59a ecbc f91f 4abb
00000030: b25b 0abc f76c 15bd ff3d ccbb 2137 ad3b
00000040: 5322 46bc 9342 fb3b e89b 943c ebfc e03c
00000050: ca41 273d dad2 be3b 9d53 32bc acab 0d3d
00000060: facd d83b 4774 b7bb 7c4b 413b 2ab6 843c
00000070: b368 343d 7f28 c83c 20e7 a83c 56a5 913c
00000080: fe1d d53c 7bad b33c db1e 893b 93b4 933b
00000090: a34f 973c d683 573b 899f e4bc ad1a 083d
000000a0: f507 d4bc 0f2f 803f eab3 77bd 7fca c4bb
000000b0: 72ca dabc 442b 85bc 8780 2e3d 8d7b 073c
000000c0: 9e6f 283c f9f9 8f3c 5b6a 3c3d 084c 593c
000000d0: d2c7 67bc 8cff ff3b afea 593c 0482 cbbb
000000e0: a086 42ba 1756 bd3c 7bc7 1ebd 6e6c 283c
000000f0: 2ca4 c3bc 28e6 f0bc 041b 17bc 99c1 fd3b
00000100: a5f8 dbbc 3cf6 323b 7bdc 493c 037c 633d
00000110: b5c8 033c 1a6a 083a 46c8 3c3d e2e0 02bd
00000120: cbdb 80bc 1d16 55bd 848d 083d 3e49 a53c
00000130: e28e 2f3c fbe3 a7bc 8af4 e6bc 53e3 013d
00000140: c46b 83bb 3582 90ba 8697 7b3f 25a6 e03b
00000150: cf59 633b 7a8c 6b3c 4d78 8f3b 100c 5c3b
00000160: 5010 573b 3611 2dbc 6717 90ba 725c 02bb
00000170: adf8 b2bc 0d73 153c 4e07 bd3a 3179 7f3a
00000180: b3bd 243b 99d5 93bb 4bf9 2d3c b151 41bd
00000190: 2bcd 0cbc 6c09 85bc cda7 9bbb 5983 98b9
000001a0: be45 8d3b bdb1 483b 6e7b 48bb 75dc 2e3c
000001b0: e7f1 0abb ee04 c1bb fd61 a43b c58f c5bb
000001c0: 8f0c 383c 2d3e 74bb 20d6 dd39 c858 353b
000001d0: 2d4b 8dbb 9c9a b93b bac4 1b3b 06de d2bb
000001e0: 6c0f 81bc 3a6f c3bc 4cc5 a0bd e5c9 7e3f
000001f0: b297 6abc 5cdb 98bc da6a c53b 3a24 93bc
00000200: 446d 1a3b 3295 603c cd33 2a3d d714 683c
00000210: 6508 74bc 4fdd 8e3c d14d a53b 7f08 a1bc
00000220: 9671 48bc 1a53 873c 328b e3bc 4cee d5b7
00000230: 8dea 9dbc 17fb 80bd 83e1 1c39 b2de 783a
00000240: c770 4cbc b5ff e93b d0b7 8fbb 0612 0c3d
00000250: e993 c4bc f56e 95bb 49c3 913c 1040 17bd
00000260: 98de 82bc 97f7 23bd d4ab 5f3a 2bb7 f03c
00000270: 7232 4b3a fd0e 3abd f11d 9ebb 12e4 a43a
00000280: 6036 26bc b735 7e3c 1a61 9a3c f082 18bc
00000290: 722d 793f a822 3dbb 6f51 fd3c dd9a aa3c
000002a0: 1c4a 873b 68b9 0f3c a8c3 04bc 5842 0c3b
000002b0: cd95 9cbb 5ba9 cfbb 8ea1 963b 548d 473c
000002c0: c70a 9b3b 84c2 673c ace4 0abc c893 5d3d
000002d0: 0890 9abb 9bb5 523b 8fd3 c5bb 424b 913c
000002e0: ee9c 45bc b237 7dbb e4d9 2c3c df2b 9e3b
000002f0: 2bb0 963c cf14 a53a 4788 433c 148b 153c
00000300: 3509 b1ba 6fd3 a4bc f2e2 9e3c 344a d6bb
00000310: ffa6 d5bb b2df 453c ccbf 18bb 80d1 d13c
00000320: 0ca2 a83c 3f70 82bb d274 9e3c 8e3c ff3b
00000330: 719c 1d3d f095 813f 3d9c 28bd db29 3dbc
00000340: 79d2 67ba bfa1 19bc 6dcd 6fbc 80bb 94bb
00000350: 1e82 b03c a47e 18bc 0677 53bc 6934 d6bb
00000360: 0a3d 0c3c 9300 c3bc 6a10 0a3d 165c bfbc
00000370: a90a da3c 92cd f43c 3e5a d73b 217f 8cbc
00000380: 0de3 e73c 1557 c0ba abf5 4dbc 8d37 b0bc
00000390: 1abc b8bb 8366 aa3b cae3 0ebd 3776 1d3c
000003a0: c796 eb3b 0a8c 453d 6b13 8ebc d4d1 55bb
000003b0: c40f da3c 9bee 843c ba19 81b8 f58d c7bc
000003c0: 23cc 83bc 6941 87bb 45d5 65bd 0b4a 4bbc
000003d0: 8e17 843c 71d9 043c 5b98 813f 3d52 023c
000003e0: 592e 103c f6d9 63ba 03ab 803c 94ff 1b3c
000003f0: 6c70 3bbc 0f4c 0c3d 84ea 803b 8065 0abc

A_b f4 [40, 40]
1.010923 -0.022470713 -0.073067464 0.0099970205 0.012266132 -0.025866363 -0.038361058 -0.036916997
-0.03404967 0.005639771 0.029752279 0.0022911865 0.0065774983 0.038969044 0.0066162627 -0.0047550327
0.013090669 -0.008017134 -0.016776016 -0.033492614 -0.045618884 -0.011355067 0.010779954 -0.034956384
-0.008139457 0.006403402 -0.0027064045 -0.013156871 -0.04565568 -0.024930382 -0.015151989 -0.018605953
-0.023887062 -0.02393998 -0.0029260824 -0.0024314146 -0.018781373 -0.0032138687 0.026468553 -0.03284295
0.025817528 0.9984207 0.06131399 0.0040303385 0.02779025 0.015142027 -0.044540863 -0.009109808
-0.011082121 -0.017712405 -0.047182553 -0.012553061 0.014453543 -0.0075180302 -0.013184355 0.0063668564
0.0017473733 -0.023416918 0.039400257 -0.009366358 0.028352512 0.028804699 0.012196783 -0.009035105
0.027126478 -0.0028893757 -0.013004174 -0.0560427 -0.008183031 -0.0005277123 -0.047175657 0.031746347
0.0146943135 0.052127127 -0.034038354 -0.021383837 -0.012119059 0.019680245 0.029082162 -0.032322057
0.0039018611 0.00074237114 1.0175296 -0.0074058003 -0.0028809877 -0.014975477 -0.0052101887 -0.003794616
-0.0036608586 0.010455721 0.00074109825 0.002551702 0.023095168 -0.009373326 -0.0010588841 -0.0010254862
-0.0028924178 0.004689247 -0.011286045 0.049601473 0.008962057 0.01599121 0.00512612 -0.00021395739
-0.0041584587 -0.0034760872 0.003123416 -0.011443265 0.0019063717 0.0059589227 -0.007479573 0.0055972706
-0.011690655 0.003502718 -0.00058324245 -0.0033328424 0.004242469 -0.0065981327 -0.0018310535 0.006396466
0.015712753 0.023712851 0.082811765 1.0023637 0.014512738 0.016226256 -0.0073322966 0.01687712
-0.0036731786 -0.01353894 -0.04208239 -0.012592248 0.015815753 -0.018015267 -0.004568014 0.019357705
0.012316674 -0.016054045 0.026322704 0.0058012046 0.023259794 0.065626964 0.0018680709 -0.0013352307
0.012885166 -0.0074708695 0.0044358578 -0.0357028 0.02442653 0.004517305 -0.021004308 0.036862344
0.013843996 0.039923336 -0.0012163493 -0.03136962 -0.002036666 0.043407727 0.0055352263 -0.0008079667
0.010577186 -0.015184631 -0.021558745 0.00947654 1.0264927 0.0030464535 -0.03030271 -0.02031342
-0.0038613533 -0.008009021 0.00821748 -0.003095834 0.004999364 0.0068930695 -0.0052763266 -0.011768247
-0.0038787555 -0.0145282345 0.009040635 -0.05655576 0.0045434157 -0.0038652616 0.0066281357 -0.017965062
0.010797818 0.0041295406 -0.010697866 -0.004084249 -0.019697085 -0.0012372937 -0.009877303 -0.008489864
0.0017823626 0.020239571 -0.019331371 0.0068630795 0.0062911296 -0.011562868 0.0016569472 -0.025939438
-0.02071965 0.003901889 -0.019136416 -0.0065126666 -0.038555615 0.9890285 0.041606374 0.011636156
0.0018206255 0.008222601 0.015305578 0.004386094 -0.022780757 0.009555142 0.0130394185 0.006375438
-0.009868678 0.023662094 -0.033349756 0.021727502 -0.028974202 -0.030975014 -0.008402829 0.017714623
-0.02747777 0.0017066029 0.012560565 0.02180172 0.0065470245 -0.005604603 0.03637887 -0.010262689
-0.0060108253 -0.0485252 0.017707147 0.004334401 -0.025883455 -0.016036525 0.00017891014 0.024423627
0.015849253 0.0038903302 0.05847379 0.011193893 -0.015815461 -0.0097246785 0.9861313 -0.008813845
-0.009883567 0.00096225913 -0.01630706 -0.00857323 0.014546689 -0.035183743 -0.0032058777 0.008612683
00000000: ed65 813f 8014 b8bc 65a4 95bd 8bca 233c
00000010: e3f7 483c b2e5 d3bc 7c20 1dbd 4736 17bd
00000020: ab77 0bbd d4cd b83b 0dbb f33c bb27 163b
00000030: 0e88 d73b 019e 1f3d 3ccd d83b 1bd0 9bbb
00000040: 3f7a 563c 4c5a 03bc db6d 89bc 8d2f 09bd
00000050: deda 3abd 9a0a 3abc 679e 303c 6d2e 0fbd
00000060: 5b5b 05bc a1d3 d13b ef5d 31bb eb8f 57bc
00000070: 7301 3bbd cd3a ccbc 0c40 78bc 836b 98bc
00000080: cdae c3bc c71d c4bc 84c3 3fbb 5e58 1fbb
00000090: 65db 99bc c59f 52bb 94d4 d83c 5486 06bd
000000a0: 487f d33c 8098 7f3f 6124 7b3d ee10 843b
000000b0: 61a8 e33c 4416 783c 7b70 36bd 4e41 15bc
000000c0: c991 35bc 9b19 91bc 7e42 41bd 5bab 4dbc
000000d0: 8ece 6c3c cf59 f6bb 3103 58bc 10a1 d03b
000000e0: 1e08 e53a d6d4 bfbc 2a62 213d 5a75 19bc
000000f0: 8743 e83c d5f7 eb3c 04d5 473c fa07 14bc
00000100: 5938 de3c ae5b 3dbb 760f 55bc 088d 65bd
00000110: 1f12 06bc 2c56 0aba 433b 41bd 7508 023d
00000120: 6bc0 703c 4183 553d cd6b 0bbd 282d afbc
00000130: 058f 46bc 7738 a13c b73d ee3c 2264 04bd
00000140: 5eb6 7f3b af9b 423a 693e 823f 5bac f2bb
00000150: f4ce 3cbb b45b 75bc 3bba aabb 18af 78bb
00000160: 04eb 6fbb 794e 2b3c 4346 423a 753a 273b
00000170: 1432 bd3c 9492 19bc 41ca 8aba 9b69 86ba
00000180: b88e 3dbb 41a8 993b 1be9 38bc ea2a 4b3d
00000190: 97d5 123c ffff 823c 03f9 a73b c059 60b9
000001a0: ae43 88bb 11cf 63bb 3ab2 4c3b 887c 3bbc
000001b0: 38df f93a 1143 c33b 3517 f5bb 4f69 b73b
000001c0: 298a 3fbc db8d 653b bde4 18ba d16b 5abb
000001d0: 6904 8b3b 2635 d8bb f6ff efba 7299 d13b
000001e0: 08b8 803c 7441 c23c 3799 a93d 744d 803f
000001f0: d6c6 6d3c edec 843c c343 f0bb e341 8a3c
00000200: b6b9 70bb 6ed2 5dbc 965e 2cbd b74f 4ebc
00000210: 0a90 813c c194 93bc 47af 95bb 0d94 9e3c
00000220: e0cb 493c c683 83bc b6a2 d73c 0818 be3b
00000230: 538b be3c 6e67 863d 0fda f43a e802 afba
00000240: 4e1c 533c 32ce f4bb ac5a 913b 193d 12bd
00000250: 251a c83c e705 943b 3a11 acbc f8fc 163d
00000260: eed1 623c a786 233d e96d 9fba 6e7d 00bd
00000270: 9679 05bb 4dcc 313d d860 b53b bacd 53ba
00000280: ef4b 2d3c f5c8 78bc f79b b0bc 7d43 1b3c
00000290: 1d64 833f 02a7 473b 643d f8bc 5468 a6bc
000002a0: c20e 7dbb 4538 03bc 9ca2 063c 7ae3 4abb
000002b0: b4d1 a33b 42df e13b 09e5 acbb 9bcf 40bc
000002c0: b832 7ebb d507 6ebc 2c1f 143c 03a7 67bd
000002d0: efe0 943b 5450 7dbb d530 d93b 772b 93bc
000002e0: 55e9 303c 1951 873b 1a46 2fbc 2ad5 85bb
000002f0: c85b a1bc b02c a2ba 69d4 21bc 1219 0bbc
00000300: 2a9e e93a 75cd a53c d35c 9ebc afe3 e03b
00000310: d225 ce3b 2f72 3dbc ec2d d93a f27e d4bc
00000320: 41bc a9bc d6b6 7f3b f9c3 9cbc 3568 d5bb
00000330: 7eec 1dbd f930 7d3f 726b 2a3d 93a5 3e3c
00000340: 0ea2 ee3a 17b8 063c 3fc4 7a3c 39b9 8f3b
00000350: b69e babc 2c8d 1c3c 49a3 553c 0de9 d03b
00000360: 3cb0 21bc 02d7 c13c c199 08bd e0fd b13c
00000370: 4e5b edbc 50bf fdbc 05ac 09bc 421e 913c
00000380: 0f19 e1bc 17b0 df3a d4ca 4d3c 8599 b23c
00000390: 6c88 d63b d1a6 b7bb 0302 153d d624 28bc
000003a0: 75f6 c4bb 5cc2 46bd 940e 913c 9707 8e3b
000003b0: 8a09 d4bc 085f 83bc d399 3b39 0f14 c83c
000003c0: 4bd6 813c e9f4 7e3b 3682 6f3d 9766 373c
000003d0: 6d8f 81bc 4254 1fbc 1a73 7c3f f267 10bc
000003e0: afee 21bc 1e40 7c3a 6296 85bc bc76 0cbc
000003f0: 3c55 6e3c d41c 10bd b419 52bb 361c 0d3c

encoder.net.0.weight f4 [128, 4]
5.1621973e-06 0.00025134053 8.845198e-05 1.771752e-05 -0.031411286 0.08246559 -0.004095043 0.11493721
-0.038599472 0.13309827 -0.08432362 -0.14949626 -0.19578643 -0.40673694 -0.16544089 0.0010554402
-0.00022558817 0.2045387 -0.07554391 -0.14230448 0.0048874943 0.28940824 -0.090267055 0.274168
0.03414087 -0.0014529293 0.36813265 -0.46239033 -0.18535745 -0.0032174126 -0.2190997 0.41426614
-0.1792135 -0.20620817 -0.24551168 -0.49336275 -0.16426034 0.3386065 0.12354375 0.15145653
0.008906047 0.03078038 0.03508867 -0.21654014 -0.23028922 -0.06389888 0.13927352 0.069035254
-0.04856286 -0.00071598927 0.13086589 0.3890346 0.1354509 -0.0016716203 0.22633377 -0.30332348
-0.0010079921 -0.39362827 -0.233985 -0.26439002 0.23667881 0.074975334 -0.1798324 0.1371715
0.12606388 -0.0015214365 -0.00011918237 0.03932755 3.8425613e-05 0.33129 -0.11362441 7.3976116e-06
0.12025245 0.30400732 0.28797376 0.38616654 0.044842307 -0.3052627 0.036369372 -0.15323934
-0.28468937 0.35509259 0.37575987 -0.38462868 -0.0024227255 -0.07458497 -0.091685735 -0.21482098
0.16441734 -0.24054465 0.15978414 0.21558231 0.14266884 0.00063345814 -0.12784295 0.0004512937
0.25664198 0.000404453 -0.14437698 -0.22196563 0.36288851 0.26100552 -0.20256402 0.023609089
-0.29277676 -0.00647883 -0.26030675 -0.47442794 0.0017172436 0.06603625 -0.18196368 0.2686552
-0.22393653 0.4159239 0.3065153 -0.28633162 -0.00031318795 0.0002941402 0.02301941 0.16037627
0.1454833 0.000747509 -0.1730868 0.17449293 -0.18861024 -0.31471512 -0.13603286 -0.21873717
-0.051881056 -0.40162224 -0.14580505 0.0669385 -0.40085366 0.00038208297 0.19658127 -0.019868966
0.038937848 0.012449274 0.1044296 0.2991864 0.31348976 0.2690301 0.25737417 -0.022090565
-0.48369655 -0.21888 0.25430804 -0.042410117 -0.15677458 -0.43606898 -0.3236189 -0.3601862
0.059633404 0.19882596 0.28492007 -0.4293716 0.28683272 -0.19763325 -0.11250651 0.0027187949
0.00039603206 -0.037873305 -0.24699678 -0.389069 -0.04827995 0.023835871 -0.18065865 0.18300611
-0.52262557 0.0029674629 0.29555112 -0.10129674 0.48007706 0.008023381 -0.31075248 0.1526871
0.008451723 -0.10413609 0.337553 -0.36091202 0.016900478 -0.007380095 0.17100939 0.006188486
0.06016983 0.04564576 -0.011859828 -3.0643743e-05 -0.32598087 -0.0015651905 0.15748209 0.08118534
-0.18365486 -0.00011907338 -0.23557146 -0.3227686 -0.09694871 0.23092413 -0.1335294 0.043262202
-0.012339198 0.23611614 -0.20077012 -0.3606423 -0.2315118 0.3866116 -0.20141855 0.3138268
0.022622462 -0.00076750235 -0.0023689312 -0.00044537307 -3.830024e-06 6.344726e-06 3.1051093e-06 -1.4993338e-06
-0.49820837 -0.12716901 0.34282288 -0.28069583 0.020252528 0.4557589 0.18700644 -0.0053441576
-0.19126464 0.3697881 -0.17476887 -0.23504876 -0.0002679273 -0.05366699 -0.032475512 0.19453272
0.12661679 0.4358111 0.26001492 -0.21771803 0.08904176 -0.35472873 -0.194924 0.17344098
0.10487361 0.36105302 -0.13038434 -0.00046400365 0.22799206 -0.4543552 0.32063556 -0.37646142
0.0016402679 0.010152403 -0.16646768 0.058919284 0.47557133 -0.07348716 -0.14921086 -0.071477786
00000000: f036 ad36 5bc6 8339 4c7f b938 16a0 9437
00000010: 1fa9 00bd b8e3 a83d b62f 86bb 3364 eb3d
00000020: 7b1a 1ebd ea4a 083e ddb1 acbd 8c15 19be
00000030: 3d7c 48be d33f d0be 5669 29be b256 8a3a
00000040: dd8b 6cb9 9872 513e c4b6 9abd 44b8 11be
00000050: 4627 a03b 512d 943e efdd b8bd c05f 8c3e
00000060: 4cd7 0b3d 3870 beba e27b bc3e 6dbe ecbe
00000070: 58ce 3dbe 3adb 52bb ac5b 60be b11a d43e
00000080: be83 37be 3c28 53be 6a67 7bbe 0b9a fcbe
00000090: dd33 28be d55d ad3e 8104 fd3d 6c17 1b3e
000000a0: abea 113c 2327 fc3c 23b9 0f3d b3bc 5dbe
000000b0: f0d0 6bbe 6add 82bd b89d 0e3e 5b62 8d3d
000000c0: d9e9 46bd 3ab1 3bba b501 063e 8b2f c73e
000000d0: a4b3 0a3e 451a dbba 0ac4 673e 374d 9bbe
000000e0: 9a1e 84ba a589 c9be c499 6fbe 215e 87be
000000f0: ee5b 723e ab8c 993d fc25 38be b076 0c3e
00000100: e416 013e f06a c7ba 8cf1 f9b8 ed15 213d
00000110: 302b 2138 d89e a93e eab3 e8bd 0039 f836
00000120: eb46 f63d d9a6 9b3e 4c71 933e 9fb7 c53e
00000130: 91ac 373d 654b 9cbe 0df8 143d c6ea 1cbe
00000140: cec2 91be b2ce b53e 9963 c03e 0dee c4be
00000150: 97c6 1ebb 01c0 98bd bbc5 bbbd 08fa 5bbe
00000160: 055d 283e 5651 76be 749e 233e 9cc1 5c3e
00000170: c817 123e a80e 263a 43e9 02be 9d9b ec39
00000180: 9466 833e c30c d439 8fd7 13be f54a 63be
00000190: 86cc b93e 84a2 853e f16c 4fbe d967 c13c
000001a0: d6e6 95be 5d4c d4bb ed46 85be 38e8 f2be
000001b0: 2215 e13a 033e 873d b054 3abe 2d8d 893e
000001c0: 9e4f 65be faf3 d43e 93ef 9c3e 0f9a 92be
000001d0: 6033 a4b9 d436 9a39 3493 bc3c ad39 243e
000001e0: 93f9 143e 7bf4 433a ab3d 31be 46ae 323e
000001f0: 0b23 41be 5722 a1be 334c 0bbe a3fc 5fbe
00000200: 3b81 54bd 6ea1 cdbe eb4d 15be 0d17 893d
00000210: b13c cdbe 4f52 c839 9a4c 493e 3ec4 a2bc
00000220: 4b7d 1f3d 0af8 4b3c 30df d53d f62e 993e
00000230: bb81 a03e 50be 893e 8cc6 833e 46f7 b4bc
00000240: 13a7 f7be 1422 60be aa34 823e 3bb6 2dbd
00000250: 8489 20be 6f44 dfbe 60b1 a5be 536a b8be
00000260: 2842 743d 0899 4b3e 0be1 913e 98d6 dbbe
00000270: bddb 923e 5f60 4abe d069 e6bd cf2d 323b
00000280: 86a2 cf39 0a21 1bbd b9ec 7cbe 0d34 c7be
00000290: 32c1 45bd 7243 c33c 95fe 38be f465 3b3e
000002a0: caca 05bf c479 423b 7a52 973e aa74 cfbd
000002b0: a9cc f53e 8074 033c f31a 9fbe 025a 1c3e
000002c0: 1879 0a3c 4d45 d5bd bfd3 ac3e 76c9 b8be
000002d0: df72 8a3c b9d4 f1bb 161d 2f3e c8c8 ca3b
000002e0: a474 763d 0cf7 3a3d b94f 42bc 7887 00b8
000002f0: f7e6 a6be 1427 cdba fc42 213e 8044 a63d
00000300: 0510 3cbe 09b7 f9b8 a539 71be ed41 a5be
00000310: 0c8d c6bd 6077 6c3e eebb 08be b533 313d
00000320: 592a 4abc 6ec8 713e af96 4dbe 1ca6 b8be
00000330: 6e11 6dbe f5f1 c53e aa40 4ebe e8ad a03e
00000340: be52 b93c 3632 49ba 1240 1bbb f680 e9b9
00000350: a883 80b6 c8e4 d436 5f61 5036 b83c c9b5
00000360: 2b15 ffbe 9838 02be 7b86 af3e 5db7 8fbe
00000370: a1e8 a53c 3b59 e93e 9e7e 3f3e 0b1e afbb
00000380: e1da 43be de54 bd3e 9cf6 32be 9fb0 70be
00000390: 9878 8cb9 ebd1 5bbd 0b05 05bd 9633 473e
000003a0: d5a7 013e a222 df3e ad20 853e 7af1 5ebe
000003b0: 875b b63d 019f b5be 289a 47be 839a 313e
000003c0: fac7 d63d f1db b83e 7983 05be 8445 f3b9
000003d0: c076 693e 3fa1 e8be 582a a43e 8dbf c0be
000003e0: 42fe d63a 4456 263c 8176 2abe 5955 713d
000003f0: 167e f33e 7080 96bd bbca 18be f262 92bd

encoder.net.0.bias f4 [128]
-0.13846819 -0.18764192 0.12618202 0.17615834 -0.24349529 0.04641315 0.2900045 -0.05250037
0.15224063 -0.1208617 0.17783278 -0.3627483 -0.29467854 -0.2553112 0.4594511 -0.1356186
-0.0005868729 -0.24199785 0.4976624 0.4885767 -0.37746763 -0.4043603 -0.37514082 -0.0019129392
-0.12661365 -0.32489797 -0.17848575 0.09228996 -0.2615898 0.111608386 -0.11419382 -0.24340723
0.06558167 0.41360244 -0.33891508 0.022483468 -0.18085657 0.4908685 -0.47562617 -0.47457018
0.49288338 -0.3166159 0.09602767 -0.044266194 -0.10617868 -0.114706 0.314815 0.023040611
-0.48464105 -0.3008314 -0.17165378 0.2536507 -0.3230076 0.4646334 -0.11056637 -0.08973711
0.39176956 0.25265387 0.42187813 0.28555465 -0.15128872 -0.33305565 -0.039383832 0.41431856
-0.17064488 -0.46367753 0.204334 0.48516393 -0.14111683 -0.41308486 -0.45182437 0.12982468
-0.039146297 -0.25365424 0.09991745 0.19118369 0.4009916 0.39064512 -0.07507177 -0.44669062
-0.45383188 0.46350202 0.22250454 0.21833771 -0.4331102 0.46361148 0.47280523 0.44992244
-0.4227897 -0.1871168 -0.3445881 0.47161946 -0.21392758 -0.22979175 0.26240665 -0.23316205
-0.24813588 -0.042957358 -0.049210973 -0.38954788 0.4184029 -0.22124358 0.17998612 0.4339723
0.25162947 0.07186816 0.4225015 0.0669391 -0.23343821 0.47425744 0.11710815 -0.48594856
-0.14417438 -0.33953145 0.4390986 -0.08368367 -0.45896015 -0.032798216 0.3131748 0.13215524
0.15828162 0.046676427 0.18877421 -0.12501201 -0.19800138 -0.46309683 -0.37889433 0.21879259
00000000: 9bca 0dbe 3425 40be dc35 013e da62 343e
00000010: d456 79be b71b 3e3d 787b 943e a10a 57bd
00000020: f8e4 1b3e 5786 f7bd cc19 363e 25ba b9be
00000030: 1be0 96be 26b8 82be 2d3d eb3e 9adf 0abe
00000040: 60d8 19ba 49ce 77be 9bcd fe3e ba26 fa3e
00000050: 7043 c1be 5008 cfbe 7512 c0be 97bb faba
00000060: 02a7 01be 0759 a6be f8c4 36be 8502 bd3d
00000070: 19ef 85be f092 e43d 73de e9bd bf3f 79be
00000080: af4f 863d b3c3 d33e 4786 adbe 402f b83c
00000090: 7732 39be 1e53 fb3e 4685 f3be ddfa f2be
000000a0: 365b fc3e 7b1b a2be 28aa c43d 7850 35bd
000000b0: 3574 d9bd fbea eabd 6f2f a13e aabf bc3c
000000c0: df22 f8be 9306 9abe 02c6 2fbe 81de 813e
000000d0: 4161 a5be 6ee4 ed3e 9f70 e2bd 17c8 b7bd
000000e0: 0596 c83e d95b 813e 6900 d83e 3834 923e
000000f0: 6eeb 1abe 4586 aabe f150 21bd 9021 d43e
00000100: 88bd 2ebe 2467 edbe ef3c 513e 6867 f83e
00000110: ee80 10be dc7f d3be 8655 e7be c3f0 043e
00000120: de57 20bd f8de 81be 85a1 cc3d a8c5 433e
00000130: c54e cd3e a302 c83e 3abf 99bd a2b4 e4be
00000140: a75c e8be 2350 ed3e 3bd8 633e ec93 5f3e
00000150: 9fc0 ddbe 7c5e ed3e 8713 f23e 3c5c e63e
00000160: e477 d8be 8c9b 3fbe da6d b0be 1b78 f13e
00000170: d50f 5bbe 874e 6bbe 2a5a 863e 08c2 6ebe
00000180: 5517 7ebe 0ef4 2fbd 7291 49bd d272 c7be
00000190: e838 d63e ad8d 62be 484e 383e 9e31 de3e
000001a0: 94d5 803e 9d2f 933d 1e52 d83e 5e17 893d
000001b0: 6d0a 6fbe dfd1 f23e 66d6 ef3d 40ce f8be
000001c0: 73a2 13be 11d7 adbe 88d1 e03e 5862 abbd
000001d0: d3fc eabe 6c57 06bd 7358 a03e b453 073e
000001e0: 9414 223e c82f 3f3d 074e 413e 2603 00be
000001f0: e0c0 4abe 071b edbe 70fe c1be 2a0b 603e

encoder.net.1.weight f4 [128]
4.1169653e-05 0.45195147 0.75821334 0.9329518 0.35638437 0.7370387 0.70559627 0.9107219
0.9667914 0.55039823 0.59213454 0.41876066 0.26270112 0.63525015 0.85556406 0.511044
0.4503503 0.14233615 0.95869756 0.67508066 0.7086672 0.60416895 0.9241618 0.4811329
0.4861968 0.7708191 0.90877634 0.52611244 0.6529553 0.18232128 0.54347503 0.7839245
0.9516726 0.9220823 0.92637163 0.85956687 1.0026641 0.96944237 0.9330591 0.47788784
0.4816379 0.7043813 0.8841218 0.8823678 0.7112322 0.8575633 0.17791699 0.49787217
0.82642275 0.6839858 0.7390373 1.035726 0.17384888 0.0067775864 1.0279061 0.9838325
0.8062214 0.6629051 1.0050339 0.94270015 0.6539823 0.96946955 0.816571 0.8499142
0.92454994 0.8075831 0.8388277 0.8783972 0.7398677 5.823096e-05 0.99406636 0.8213917
0.38011384 0.8047859 1.0847552 0.84448606 0.8868356 0.68353176 0.86931264 1.0407159
0.6872995 0.96188307 0.58776045 1.0155357 0.8711488 0.6785645 0.1892945 0.70093817
0.73655146 0.77401185 0.9108687 1.0113026 0.63886833 0.89861625 0.90406084 1.0178959
0.8457886 0.501037 0.92334324 0.64448005 0.6870563 0.7494884 0.88767946 0.62564033
0.5130518 0.48233452 0.7145256 0.9602334 0.8092358 1.0792676 0.7593594 0.8813768
0.7965207 0.99076986 0.47317904 0.5622662 0.9864151 0.841565 0.93945557 0.71031576
0.4536671 0.71724933 0.6075909 1.0047854 0.55122906 0.90298665 0.9244002 0.8829355
00000000: 94ad 2c38 2f66 e73e 451a 423f eed5 6e3f
00000010: 0378 b63e 91ae 3c3f f5a1 343f 1225 693f
00000020: a47f 773f e6e6 0c3f 2196 173f cc67 d63e
00000030: c380 863e c19f 223f 3f06 5b3f c8d3 023f
00000040: 5194 e63e 91c0 113e 346d 753f 16d2 2c3f
00000050: 376b 353f d1aa 1a3f de95 6c3f 0d57 f63e
00000060: c9ee f83e 6754 453f 91a5 683f 4eaf 063f
00000070: 1428 273f 6eb2 3a3e 2e21 0b3f 47af 483f
00000080: d1a0 733f 960d 6c3f b126 6d3f 930c 5c3f
00000090: 4c57 803f 602d 783f f6dc 6e3f b7ad f43e
000000a0: 3e99 f63e 5552 343f ce55 623f dbe2 613f
000000b0: 5013 363f 4589 5b3f df2f 363e 1ae9 fe3e
000000c0: 7190 533f b219 2f3f 8c31 3d3f ab92 843f
000000d0: 7105 323e 8416 de3b 6d92 833f 72dc 7b3f
000000e0: 8764 4e3f 26b4 293f f3a4 803f cc54 713f
000000f0: 626b 273f 282f 783f cc0a 513f fa93 593f
00000100: 4eaf 6c3f c4bd 4e3f 6abd 563f a4de 603f
00000110: f867 3d3f 043d 7438 227b 7e3f ba46 523f
00000120: 489e c23e 7306 4e3f 42d9 8a3f 3d30 583f
00000130: a807 633f f0fb 2e3f 468b 5e3f 2e36 853f
00000140: dcf2 2f3f f83d 763f 7877 163f 13fd 813f
00000150: 9c03 5f3f 67b6 2d3f 6bd6 413e af70 333f
00000160: a38e 3c3f a425 463f b12e 693f 5d72 813f
00000170: e08c 233f b70b 663f 8870 673f 6a4a 823f
00000180: 9a85 583f f643 003f 3960 6c3f a5fc 243f
00000190: ece2 2f3f 79de 3f3f f63e 633f f729 203f
000001a0: 5d57 033f 8df4 f63e 26eb 363f dbd1 753f
000001b0: 142a 4f3f 7125 8a3f 6165 423f e9a1 613f
000001c0: c8e8 4b3f 18a3 7d3f 8644 f23e adf0 0f3f
000001d0: b385 7c3f ce70 573f 2980 703f 41d7 353f
000001e0: 0e47 e83e a79d 373f 148b 1b3f cf9c 803f
000001f0: 591d 0d3f 222a 673f 7ea5 6c3f 1008 623f

encoder.net.1.bias f4 [128]
-0.33397615 -0.30798143 0.13045594 0.028347734 -0.25262842 -0.09012901 0.0950869 0.30004197
0.076811686 -0.113138616 -0.122432254 -0.2062833 -0.1370856 -0.025296247 0.04774966 -0.022794515
-0.20584874 -0.20824404 0.07152211 -0.0817026 0.041386954 -0.012430033 0.14314389 -0.3160399
0.026398664 0.0047293073 -0.022915341 -0.036549665 -0.023512108 -0.13806225 -0.062280513 -0.002380573
0.111666344 -0.22764716 0.15777443 0.051173646 0.13026446 0.08996684 0.10392101 -0.014801525
0.09219582 -0.06900356 0.045262255 -0.047343206 0.03393818 0.13977647 -0.3343019 -0.41287223
0.14136527 0.030043447 0.0073393267 0.30042586 -0.1702219 -0.3189312 0.09497489 0.09907182
0.055367213 -0.25248095 0.1690427 0.07515412 -0.02474838 0.17912114 0.12030995 -0.042652983
-0.057950508 0.041589685 -0.025891272 0.0534492 0.022207465 -0.28976092 0.30134058 0.20432192
-0.3174532 0.14855942 0.09540129 0.11562597 0.14830984 0.1774805 0.107196935 0.18323089
0.1875391 0.13649443 0.07527833 -0.0315804 -0.06935109 0.06971734 -0.04756816 0.08397411
0.044315934 -0.015979294 0.1339695 0.074812524 -0.13872871 0.2227322 -0.03587101 0.09568253
-0.07181416 -0.2103092 0.21973151 -0.031846564 -0.008069744 0.009233902 0.11408982 -0.06324372
0.026042497 -0.012129866 0.025654374 0.06804905 0.049948245 0.28453696 0.0765399 0.09485205
0.12702136 0.0057923985 -0.040760495 -0.13761589 0.24223141 0.077614136 0.13076086 0.0054974756
-0.35700762 -0.03512774 0.022243824 0.10773147 -0.02807572 0.12181248 0.054246493 0.269346
00000000: ecfe aabe beaf 9dbe 3e96 053e 8239 e83c
00000010: 8358 81be 8f95 b8bd ecbc c23d 1a9f 993e
00000020: 724f 9d3d 38b5 e7bd c3bd fabd ee3b 53be
00000030: 2b60 0cbe 133a cfbc 2695 433d 90bb babc
00000040: 03ca 52be ed3d 55be 2f7a 923d b153 a7bd
00000050: 5e85 293d 56a7 4bbc 5094 123e fbcf a1be
00000060: 0342 d83c 4ef8 9a3b f4b8 bbbc 1ab5 15bd
00000070: 779c c0bc 3160 0dbe da19 7fbd 6303 1cbb
00000080: 53b1 e43d 561c 69be 9f8f 213e 759b 513d
00000090: 0c64 053e 8940 b83d 8ad4 d43d 1882 72bc
000000a0: 29d1 bc3d bd51 8dbd ea64 393d f3ea 41bd
000000b0: c302 0b3d 9021 0f3e 9e29 abbe fd63 d3be
000000c0: 0fc2 103e ad1d f63c bc7e f03b 6bd1 993e
000000d0: a64e 2ebe f34a a3be 3282 c23d 2be6 ca3d
000000e0: bbc8 623d 2f45 81be 8819 2d3e 67ea 993d
000000f0: 1dbd cabc 886b 373e 1065 f63d e5b4 2ebd
00000100: 835d 6dbd f259 2a3d ef19 d4bc 8ced 5a3d
00000110: 6eec b53c 8b5b 94be 5049 9a3e c439 513e
00000120: 3a89 a2be f61f 183e c061 c33d 4fcd ec3d
00000130: 89de 173e 73bd 353e 118a db3d e1a0 3b3e
00000140: 400a 403e 32c5 0b3e 862b 9a3d 735a 01bd
00000150: f207 8ebd f7c7 8e3d d5d6 42bd 9efa ab3d
00000160: a084 353d 02e7 82bc 4d2f 093e 4f37 993d
00000170: e60e 0ebe e913 643e 7bed 12bd 34f5 c33d
00000180: 4d13 93bd 4c5b 57be 4c01 613e 8b71 02bd
00000190: f636 04bc cb49 173c eca7 e93d ec85 81bd
000001a0: 1357 d53c 58bc 46bc 1f29 d23c 4d5d 8b3d
000001b0: 8896 4c3d d4ae 913e f3c0 9c3d cb41 c23d
000001c0: e311 023e 29ce bd3b 7af4 26bd 2eeb 0cbe
000001d0: 830b 783e 29f4 9e3d 2de6 053e 2b24 b43b
000001e0: b4c9 b6be 1be2 0fbd ae38 b63c 51a2 dc3d
000001f0: 0dff e5bc d278 f93d 9231 5e3d b8e7 893e

encoder.net.1.running_mean f4 [128]
-0.13839468 -0.1957447 0.17005047 0.3309664 -0.22201933 0.021255167 0.20205033 0.038273666
0.36093888 -0.15691774 0.18232757 -0.33766156 -0.3630871 -0.34368822 0.60147554 -0.17061612
-0.044482425 -0.23377219 0.2950191 0.5052692 -0.40716413 -0.34406143 -0.48131913 -0.0042853905
-0.13637811 -0.39746234 0.051145416 0.11968499 -0.30266196 0.087493576 -0.11958283 -0.08671587
0.16082506 0.47652042 -0.41820097 -0.18603823 -0.08933992 0.7261718 -0.56501687 -0.5096014
0.6191734 -0.26097408 0.17195651 -0.10763144 -0.17664996 -0.17778838 0.2954643 0.06524342
-0.31405365 -0.25000715 -0.08471187 0.32803914 -0.32951912 0.4646307 -0.028303606 -0.2002933
0.5017847 0.24832797 0.27660903 0.33746096 -0.1731531 -0.43417385 0.009682178 0.32816127
-0.0031666232 -0.5811552 0.20203732 0.38349116 0.04099948 -0.41310567 -0.34045535 0.15023093
-0.0052070795 -0.22934365 0.015860459 0.25434726 0.3650776 0.4287778 -0.17713921 -0.3951634
-0.40811163 0.25426966 0.35842103 0.1065429 -0.6593428 0.39884466 0.39954227 0.5180074
-0.48556817 -0.13598953 -0.1876767 0.31529993 -0.13176224 -0.013716096 0.037993763 -0.4273943
-0.39748967 -0.05614964 0.08763179 -0.4584824 0.38088682 -0.32928017 0.238187 0.33090633
0.24012408 0.008309286 0.49407923 0.14177598 -0.33873248 0.38024315 0.27980524 -0.4005998
-0.20752835 -0.46745694 0.46318725 0.031777155 -0.5625705 0.016502783 0.20319301 0.19308332
0.19899929 -0.06576707 0.23103626 -0.2221813 -0.21649227 -0.3962353 -0.5122127 0.26717895
00000000: 56b7 0dbe 4c71 48be b621 2e3e 6e74 a93e
00000010: 0959 63be 511f ae3c 48e6 4e3e d9c4 1c3d
00000020: fbcc b83e 0baf 20be 14b4 3a3e fae1 acbe
00000030: 8de6 b9be e7f7 afbe 4dfa 193f feb5 2ebe
00000040: 3433 36bd fa61 6fbe be0c 973e 5359 013f
00000050: d177 d0be d228 b0be 766f f6be 766c 8cbb
00000060: b4a6 0bbe 2f80 cbbe db7d 513d 671d f53d
00000070: 82f6 9abe d52f b33d d8e7 f4bd 1798 b1bd
00000080: 53af 243e 7cfa f33e 701e d6be ce80 3ebe
00000090: d9f7 b6bd 65e6 393f f2a4 10bf 3d75 02bf
000000a0: 2682 1e3f 659e 85be 5e15 303e df6d dcbd
000000b0: bae3 34be 280e 36be 1947 973e 589e 853d
000000c0: a4cb a0be f000 80be 6b7d adbd bff4 a73e
000000d0: bbb6 a8be 13e4 ed3e f7dc e7bc b019 4dbe
000000e0: f674 003f b049 7e3e b39f 8d3e afc7 ac3e
000000f0: 0c4f 31be 094c debe ffa1 1e3c c104 a83e
00000100: 1f87 4fbb 96c6 14bf dfe2 4e3e f458 c43e
00000110: 12ef 273d 9682 d3be 2a50 aebe 23d6 193e
00000120: 26a0 aabb 10d9 6abe cbed 813c ce39 823e
00000130: 74eb ba3e c488 db3e fb63 35be db52 cabe
00000140: 02f4 d0be a22f 823e f682 b73e 2a33 da3d
00000150: b1ca 28bf 5e35 cc3e ce90 cc3e 229c 043f
00000160: 649c f8be d740 0bbe 522e 40be fe6e a13e
00000170: aeec 06be 7ab9 60bc 599f 1b3d 6dd3 dabe
00000180: c483 cbbe 2afd 65bd 4c78 b33d 35be eabe
00000190: 9903 c33e 6997 a8be 4be7 733e 8e6c a93e
000001a0: 16e3 753e ac23 083c f4f7 fc3e b92d 113e
000001b0: 586e adbe 3baf c23e a242 8f3e 6b1b cdbe
000001c0: 5082 54be 8456 efbe e126 ed3e c328 023d
000001d0: 9f04 10bf d830 873c d411 503e a2b7 453e
000001e0: 78c6 4b3e e3b0 86bd c594 6c3e 7f83 63be
000001f0: 26b0 5dbe 5adf cabe 5f20 03bf aecb 883e

encoder.net.1.running_var f4 [128]
6.952074e-07 0.2792231 1.3600549 4.341242 1.3996438 1.9046997 8.696751 5.1007066
11.874396 2.427309 0.8742568 1.4473614 4.784495 3.9220386 6.9503202 1.7156061
0.19393541 1.7082984 11.238795 1.1202286 9.124824 1.7665552 4.2968693 0.83909345
2.7233071 3.1965067 12.849616 2.2783518 6.8593473 0.60142064 1.5745498 4.3177967
3.0455549 2.4930553 3.0517955 6.8883615 4.5233183 13.536444 6.877241 1.2881144
8.223425 1.9731824 4.966528 5.109519 6.5577946 1.7180682 0.059063066 1.9778309
7.729448 1.5731299 6.986891 4.6759825 0.0047232606 6.2216534e-09 6.515555 4.2145123
5.8503895 0.738759 6.7802515 3.3963265 2.1197975 8.4867525 1.4411241 2.576937
8.620438 6.680268 1.3023633 2.608658 8.820123 1.2319025e-07 8.800775 2.8381813
1.0466458 2.4351206 3.684169 2.542481 2.2881763 1.2619394 4.606773 1.6271054
0.96188235 6.9868236 9.119959 4.9484396 10.09339 2.7669754 3.0671391 3.4230711
1.7567532 2.569982 10.378046 10.58427 4.594191 10.335411 7.4157467 8.658808
6.038919 0.6586524 8.08733 3.8160634 4.423663 6.3623137 3.146665 2.0968733
1.509224 1.3999513 3.8998444 3.9676232 2.5705547 6.330915 3.1003585 4.2334185
7.3252397 6.462023 0.47080153 1.8960572 3.076674 5.038426 5.3470316 3.4711432
0.6186994 4.62152 0.87448955 5.0399947 6.1284323 4.12708 4.2135954 2.4964418
00000000: 4a9e 3a35 55f6 8e3e 4716 ae3f 74eb 8a40
00000010: 8727 b33f 33cd f33f e425 0b41 fd38 a340
00000020: 87fd 3d41 0859 1b40 4bcf 5f3f 2343 b93f
00000030: 951a 9940 ae02 7b40 0669 de40 fb98 db3f
00000040: 0197 463e 86a9 da3f 1bd2 3341 a763 8f3f
00000050: 47ff 1141 7b1e e23f f47f 8940 d4ce 563f
00000060: aa4a 2e40 9193 4c40 0798 4d41 84d0 1140
00000070: c67f db40 b4f6 193f d98a c93f 642b 8a40
00000080: 5fea 4240 388e 1f40 9e50 4340 756d dc40
00000090: 06bf 9040 4695 5841 5c12 dc40 efe0 a43f
000000a0: 2693 0341 3e91 fc3f cced 9e40 2e81 a340
000000b0: 74d9 d140 a9e9 db3f 1dec 713d 9029 fd3f
000000c0: a357 f740 525c c93f 9c94 df40 a6a1 9540
000000d0: 95c5 9a3b 3ec6 d531 6d7f d040 49dd 8640
000000e0: 6436 bb40 4f1f 3d3f d2f7 d840 6a5d 5940
000000f0: c3aa 0740 bdc9 0741 c176 b83f 89ec 2440
00000100: 50ed 0941 c1c4 d540 d7b3 a63f 41f4 2640
00000110: 391f 0d41 4746 0434 f9cf 0c41 c3a4 3540
00000120: 7df8 853f 04d9 1b40 6dc9 6b40 02b8 2240
00000130: 7b71 1240 3b87 a13f af6a 9340 fd44 d03f
00000140: ec3d 763f 0f94 df40 5aeb 1141 9e59 9e40
00000150: 877e 2141 2016 3140 024c 4440 9913 5b40
00000160: 4add e03f 967a 2440 7a0c 2641 2b59 2941
00000170: 9d03 9340 d85d 2541 cc4d ed40 7a8a 0a41
00000180: d33e c140 729d 283f b465 0141 623a 7440
00000190: a68e 8d40 1398 cb40 f662 4940 2c33 0640
000001a0: 412e c13f 9b31 b33f 0d97 7940 8aed 7d40
000001b0: f883 2440 db96 ca40 466c 4640 2a78 8740
000001c0: 5d68 ea40 e4c8 ce40 e60c f13e 01b2 f23f
000001d0: 3ae8 4440 c93a a140 e21a ab40 3627 5e40
000001e0: 1563 1e3f 7ee3 9340 8cde 5f3f a347 a140
000001f0: 1e1c c440 0a11 8440 c6d5 8640 b4c5 1f40

encoder.net.3.weight f4 [128, 128]
-2.746072e-06 0.00064079365 -0.00017120571 -0.001051466 0.000104951505 0.000624865 -0.02310876 -0.00031026916
-0.0008875288 0.0008080399 -0.00021001638 0.0008815964 0.00092403183 0.00025521175 -0.023963673 0.0005452838
0.0012188366 9.078772e-05 0.00047825783 -0.00047796883 -0.0013528289 -0.0005608267 0.010605837 0.00026651216
-5.7906225e-05 0.0015626664 -0.0002306796 4.1561994e-05 0.00036756968 0.0004966554 0.00022643716 -0.0013071352
-0.00043261074 0.00014366722 0.00033356767 0.0009418386 -0.0009950049 -0.0012033102 -0.0046083974 0.001111541
-0.00034922187 -1.2783541e-05 -0.0006263305 0.0005803885 -0.0027371629 0.0005785837 1.834089e-05 0.00080638006
-0.000496315 -7.6859775e-05 7.767455e-05 -0.0006082356 1.591249e-05 2.3117835e-05 -0.0057791546 -0.021726225
0.00014167899 0.001146706 -0.0036475973 9.003276e-05 0.0008308062 0.0003895444 -0.15437755 0.0019521306
0.00015814634 0.00022773317 0.0005055892 0.0015054333 -0.00031881066 1.3483275e-05 -0.00047641786 9.246964e-06
0.0002289352 -0.00064390915 0.00086371 -0.07923746 0.0011453012 -0.014602442 0.0007824024 -0.00059247465
-4.8058275e-05 0.00051929196 -0.0003424113 0.0018189822 0.0005545539 0.00065314793 0.00078366254 7.210414e-05
0.00035093742 -9.577161e-05 -0.00035934732 -0.0017459034 6.163655e-05 -0.0011458762 0.00094568805 0.023216901
0.00030999075 0.0005630627 -0.0005795341 0.000968744 0.0008350627 0.0007610799 -4.415105e-05 0.0011054073
0.00034684537 0.0011602638 -0.0016115336 -0.024384119 0.0018228712 -0.00094285037 0.00019557803 -0.00027821725
0.00059076987 0.0014475095 9.789808e-05 -0.00012690268 0.0003282729 -0.0005107953 6.621617e-05 -0.0001898343
-0.00015327263 0.00031546806 -0.00028960203 0.0011643271 0.00034196518 0.00017806453 0.0017003617 -0.00040316366
-1.4328702e-05 -0.0008323147 0.095388025 -0.015704783 0.047414497 0.04331235 0.031284086 0.0018439923
0.21595137 -0.0024314069 -0.000950796 0.00014567556 -0.066812806 0.016345637 0.00011539176 -0.0001364432
-0.002566291 -0.00027648066 -0.031118834 -0.0007788918 0.00025655917 0.15633668 -0.011195173 -0.00041929632
0.08439109 0.00046047114 0.07343273 -5.940329e-05 -9.85947e-06 -0.032023657 3.675827e-05 -0.00055300957
4.581535e-05 -0.00024354215 -0.11637987 -0.0020622609 0.0010384154 0.06522642 0.0038187993 -6.354443e-06
0.058678314 -0.0005503234 -6.2064675e-05 -0.0072609247 0.027631471 -0.0012682275 -0.0007013705 0.00037619408
0.009703223 0.0019053016 0.09763221 0.029111413 -0.00088739814 8.57733e-06 0.021111635 -0.0009275496
0.00025030365 0.018428693 5.3761523e-05 0.0020882573 0.0039980174 0.02065869 -0.021316132 -0.00017980508
0.09032385 -0.079168715 0.0028164396 0.0027335354 0.17430757 1.1563818e-05 0.0013704749 0.019817505
-0.00062234944 0.23025446 0.009006625 -0.025819287 -0.0005783686 -0.0019969991 -0.09587423 -0.0010051108
-0.0035132843 -0.002063808 0.05793012 -5.56225e-05 -0.0038485108 -0.02481235 -0.0005042044 0.0012773786
-0.038442016 -0.00026657165 0.01891526 0.00049105764 -0.0004920934 0.052277938 -0.0039431266 -0.08649326
-0.0048233736 -0.0014972956 0.0005117537 0.00015854838 0.00058152166 -0.010605304 0.0005419869 -0.0005659458
-0.1267982 -0.088846885 -0.00022423937 -0.0038332772 -0.0003928394 0.070254564 -0.0012692625 -0.000607388
-0.0010199314 -0.007000307 -3.8088976e-05 -0.00073709775 -0.0006547335 -0.0011285678 2.3977023e-05 -0.015677765
-0.000948712 -0.0033957742 0.000169111 0.00012820789 -0.00076554477 -0.0010136832 -0.0029935562 0.038937412
00000000: 2849 38b6 effa 273a af85 33b9 58d1 89ba
00000010: 6919 dc38 fbcd 233a 954e bdbc 9fab a2b9
00000020: 0da9 68ba a4d2 533a d837 5cb9 ef1a 673a
00000030: ba3a 723a f1cd 8539 774f c4bc 60f1 0e3a
00000040: 5fc1 9f3a 4965 be38 aebe fa39 e497 fab9
00000050: 6851 b1ba 7104 13ba 1bc4 2d3c a8ba 8b39
00000060: 56e0 72b8 62d2 cc3a 95e2 71b9 da52 2e38
00000070: 5eb6 c039 fb31 023a c36f 6d39 2e54 abba
00000080: 08d0 e2b9 60a5 1639 b2e2 ae39 b8e5 763a
00000090: d36a 82ba 64b8 9dba 0a02 97bb 20b1 913a
000000a0: c417 b7b9 e478 56b7 5430 24ba 3725 183a
000000b0: f961 33bb 18ac 173a c3da 9937 4063 533a
000000c0: 231b 02ba c72f a1b8 35e5 a238 0072 1fba
000000d0: d07b 8537 2ced c137 105f bdbb 32fb b1bc
000000e0: aa8f 1439 124d 963a 870c 6fbb f8cf bc38
000000f0: 76ca 593a c43b cc39 2615 1ebe a2de ff3a
00000100: 16d4 2539 a8cb 6e39 8489 043a f651 c53a
00000110: 0b26 a7b9 3a36 6237 b9c7 f9b9 6823 1b37
00000120: 530e 7039 03cc 28ba 996a 623a 4047 a2bd
00000130: ee1d 963a 153f 6fbc 231a 4d3a 4d50 1bba
00000140: 2e92 49b8 1821 083a ab85 b3b9 ea6a ee3a
00000150: 7b5f 113a 0438 2b3a b46e 4d3a 9e36 9738
00000160: 06fe b739 fed8 c8b8 c866 bcb9 ccd6 e4ba
00000170: df42 8138 3a31 96ba 0de8 773a 5f31 be3c
00000180: 4186 a239 809a 133a e0eb 17ba 4ff3 7d3a
00000190: 1ce8 5a3a 3583 473a d42e 39b8 50e3 903a
000001a0: ccd8 b539 fe13 983a 183a d3ba 34c1 c7bc
000001b0: 68ed ee3a 9e29 77ba 1414 4d39 b0dd 91b9
000001c0: e5dd 1a3a 5cba bd3a a24e cd38 2e11 05b9
000001d0: 0b1c ac39 e4e6 05ba 89dd 8a38 420e 47b9
000001e0: cfb7 20b9 6865 a539 bad5 97b9 569c 983a
000001f0: ca49 b339 d5b6 3a39 acde de3a b65f d3b9
00000200: 4e65 70b7 b22f 5aba cc5a c33d 51a7 80bc
00000210: b435 423d 4a68 313d be23 003d 1db2 f13a
00000220: 5b22 5d3e 3d58 1fbb d73e 79ba 7cc0 1839
00000230: 27d5 88bd 49e7 853c 7bfe f138 3112 0fb9
00000240: 382f 28bb 9bf4 90b9 edec febc 8b2e 4cba
00000250: ca82 8639 b916 203e f56b 37bc 00d5 dbb9
00000260: 3cd5 ac3d 646b f139 e663 963d cc27 79b8
00000270: 1a6a 25b7 3d2b 03bd e42c 1a38 d8f7 10ba
00000280: dc29 4038 595f 7fb9 9258 eebd ff26 07bb
00000290: 701b 883a 6e95 853d d244 7a3b 4038 d5b6
000002a0: ac58 703d 9443 10ba b828 82b8 0ded edbb
000002b0: 655b e23c a73a a6ba 2ddc 37ba ea3b c539
000002c0: 44fa 1e3c 50bb f93a 65f3 c73d 0f7b ee3c
000002d0: 48a0 68ba 5ae7 0f37 4ff2 ac3c cd26 73ba
000002e0: 303b 8339 c5f7 963c ff7d 6138 25db 083b
000002f0: cd01 833b 6a3c a93c 2b9f aebc 0f8a 3cb9
00000300: b6fb b83d 3523 a2bd 0494 383b 1d25 333b
00000310: af7d 323e 3802 4237 82a1 b33a 5258 a23c
00000320: 2a25 23ba d3c7 6b3e 8690 133c f882 d3bc
00000330: a99d 17ba 16e0 02bb b559 c4bd ecbd 83ba
00000340: 213f 66bb f440 07bb 2248 6d3d 344c 69b8
00000350: 4c37 7cbb 4543 cbbc 962c 04ba b76d a73a
00000360: 6075 1dbd a4c2 8bb9 2df4 9a3c 52ba 003a
00000370: d4ff 00ba 6421 563d 5835 81bb 6123 b1bd
00000380: 640d 9ebb e740 c4ba 3627 063a 0240 2639
00000390: 4271 183a dec1 2dbc 2014 0e3a fb5b 14ba
000003a0: 63d7 01be 5bf5 b5bd cc21 6bb9 b837 7bbb
000003b0: 03f6 cdb9 a0e1 8f3d 625d a6ba 1e39 1fba
000003c0: 38af 85ba d562 e5bb bac1 1fb8 cb39 41ba
000003d0: 6ca2 2bba 74ec 93ba 4422 c937 a86e 80bc
000003e0: fcb2 78ba a38b 5ebb 6353 3139 8b6f 0639
000003f0: d7ae 48ba 90dd 84ba 8a2f 44bb d67c 1f3d

encoder.net.3.bias f4 [128]
-0.00850823 0.08960883 -0.057155933 0.016282836 0.027919803 -0.080839135 0.053520586 0.055163335
0.06770586 0.06449693 0.0604439 -0.048654515 0.059163682 -0.025774809 0.027545499 -0.06563506
-0.0082688285 -0.061568286 -0.03803541 -0.061268583 0.0036832588 -0.061301246 -0.04795694 -0.0947629
0.0551035 0.06632292 -0.0062553687 0.042946357 0.02781373 -0.051923867 -0.01815452 0.028265152
-0.006112796 -0.0014701375 -0.015332286 0.06459222 -0.07028274 -0.0019187107 -0.05964524 0.04772497
-0.009692162 -0.070170514 -0.05337151 -0.016109506 0.012073706 0.04955974 -0.020056907 -0.05720995
-0.077089906 -0.0030352208 0.07494605 -0.07804622 -0.010202948 0.063508295 0.07197629 -0.063682646
-0.08856318 0.07646237 0.005050473 0.02401497 -0.08282975 0.064528 -0.006416364 -0.017429173
-0.043066688 0.031299595 -0.03107607 -0.035843037 -0.05128389 0.06894902 0.0059670587 -0.007466594
0.016552884 0.05245631 -0.06177909 0.05479749 0.045421537 0.043546375 -0.019613726 -0.05103843
-0.0040479065 0.07796164 -0.042521454 -0.06715147 -0.02218305 0.031733066 -0.07237425 0.00090261636
0.018549444 -0.030479811 -0.07710818 -0.037057817 -0.03333147 0.03105091 -0.09114174 0.020116648
-0.011577129 0.058607753 -0.040691085 0.06403623 0.0017285852 0.028362064 -0.07850479 -0.013337343
-0.051806275 0.060075104 -0.08066662 0.077614605 -0.06610709 0.055488873 -0.03595772 -0.082413435
0.009470472 -0.0822193 0.03652544 0.08738723 -0.0035103194 -0.05390132 0.052652013 0.0052072294
0.006309258 0.036013104 -0.087154485 -0.040874623 0.026114037 -0.0013092357 -0.03319524 -0.058634967
00000000: 1a66 0bbc d684 b73d 571c 6abd 9563 853c
00000010: 12b8 e43c fd8e a5bd 6738 5b3d f3f2 613d
00000020: 5fa9 8a3d f716 843d 0694 773d f549 47bd
00000030: 9e55 723d b125 d3bc 19a7 e13c ad6b 86bd
00000040: fb79 07bc 072f 7cbd 05cb 1bbd c4f4 7abd
00000050: d462 713b 0417 7bbd 7f6e 44bd 0d13 c2bd
00000060: 35b4 613d 50d4 873d d6f9 ccbb 85e8 2f3d
00000070: 9fd9 e33c 1fae 54bd cab8 94bc 528c e73c
00000080: d94d c8bb a1b1 c0ba 4534 7bbc ed48 843d
00000090: 66f0 8fbd 3f7d fbba 914e 74bd 427b 433d
000000a0: e0cb 1ebc 8fb5 8fbd 169c 5abd 15f8 83bc
000000b0: cbd0 453c 27ff 4a3d 624e a4bc fb54 6abd
000000c0: 50e1 9dbd 8eea 46bb 517d 993d b2d6 9fbd
000000d0: 442a 27bc a310 823d 4e68 933d 0c6c 82bd
000000e0: 9d60 b5bd 4e98 9c3d 707e a53b 0bbb c43c
000000f0: a5a2 a9bd 4227 843d 5d40 d2bb a0c7 8ebc
00000100: b266 30bd 0134 003d 3e93 febc 26d0 12bd
00000110: 0e0f 52bd 2535 8d3d 5187 c33b 55aa f4bb
00000120: ea99 873c 6ddc 563d 120c 7dbd 5573 603d
00000130: ef0b 3a3d af5d 323d f7ac a0bc ac0d 51bd
00000140: 4da4 84bb 5aaa 9f3d fa2a 2ebd b686 89bd
00000150: 3ab9 b5bc 88fa 013d f338 94bd 8f9d 6c3a
00000160: 01f5 973c ccb0 f9bc e5ea 9dbd f0c9 17bd
00000170: 9486 08bd 7a5e fe3c 85a8 babd abcb a43c
00000180: 00ae 3dbc af0e 703d b2ab 26bd 6d25 833d
00000190: b291 e23a 8f57 e83c 1fc7 a0bd df84 5abc
000001a0: d132 54bd 5011 763d 8a34 a5bd 68f4 9e3d
000001b0: 2763 87bd 4d48 633d 6748 13bd 60c8 a8bd
000001c0: 0a2a 1b3c 9862 a8bd b39b 153d 13f8 b23d
000001d0: 630d 66bb a1c7 5cbd a3a9 573d 68a1 aa3b
000001e0: e4bd ce3b 7a82 133d 0d7e b2bd 266c 27bd
000001f0: 1bed d53c a99a abba bbf7 07bd 382b 70bd

encoder.net.4.weight f4 [128]
0.4631274 0.76656586 0.6833116 0.9177166 0.8459052 0.89672226 0.55663913 0.11891397
0.00029175048 0.28392276 0.6821506 0.4046241 0.5123692 0.78906816 -5.532916e-05 0.87034446
0.19650723 0.88707113 0.80789876 0.525808 0.6814468 0.4824234 -6.398429e-05 0.23228592
-1.8815212e-05 0.735113 1.5644711e-05 0.59136814 0.8935719 0.8376474 0.00025002306 0.33450702
0.75637937 3.7961276e-05 0.9455087 0.3378701 0.74359685 0.63989365 0.75819886 0.55258334
0.7781533 0.92087036 0.8577348 0.8458822 0.8182032 0.13505751 0.94704306 0.6607555
0.6990017 1.0119568 0.5044302 0.16752777 0.65710837 0.8127653 0.19476348 0.7766247
0.9348848 0.6375485 0.9922859 0.6331532 0.959692 0.9563655 0.6211282 0.70173174
0.9291477 0.80719197 0.7565777 3.2888776e-05 0.80278635 0.6940782 0.7336967 0.00010749628
0.1812232 0.7894197 0.8443519 7.686089e-05 0.75883764 0.007391311 0.47174683 0.7053401
0.7436939 0.8719766 0.7935934 0.8258926 4.7015164e-05 0.76393384 0.16695471 0.4411886
0.5513433 0.8360851 0.5200004 0.34689465 0.7890522 0.32829624 0.69609016 0.60246885
0.61354065 0.11048087 0.8015483 0.68264496 0.52139884 0.15465425 0.81378585 -3.038505e-05
0.8162849 0.707816 0.75438994 0.79031956 0.8786525 0.9312757 0.8714212 0.77821195
4.9928938e-05 0.29297656 0.817953 0.7143418 0.21523064 0.00010691475 0.8288185 0.7282179
0.28552344 0.62209916 -0.00011906223 0.3296676 0.6995564 0.00013183885 5.7272366e-05 0.37103778
00000000: 091f ed3e a93d 443f 82ed 2e3f 7aef 6a3f
00000010: 3e8d 583f 978f 653f e77f 0e3f 2b89 f33d
00000020: 16f6 9839 535e 913e 6ca1 2e3f e42a cf3e
00000030: a12a 033f 5f00 4a3f 3c11 68b8 e5ce 5e3f
00000040: 3139 493e 1817 633f 74d2 4e3f 5a9b 063f
00000050: 4c73 2e3f 3300 f73e 4e2f 86b8 5cdc 6d3e
00000060: 5cd5 9db7 5e30 3c3f c33c 8337 e763 173f
00000070: 21c1 643f 0f70 563f 8715 8339 8144 ab3e
00000080: 14a2 413f 9c38 1f38 dc0c 723f 4ffd ac3e
00000090: 5d5c 3e3f 12d0 233f 5219 423f 1a76 0d3f
000000a0: 0e35 473f 29be 6b3f 8294 5b3f bc8b 583f
000000b0: c475 513f 844c 0a3e 6a71 723f 4627 293f
000000c0: c7f1 323f cd87 813f 5622 013f 668c 2b3e
000000d0: 4138 283f 6311 503f 1470 473e e0d0 463f
000000e0: 9c54 6f3f 6136 233f 7306 7e3f 5416 223f
000000f0: 60ae 753f 5fd4 743f 4202 1f3f b1a4 333f
00000100: a0dc 6d3f 22a4 4e3f 13af 413f 0ef2 0938
00000110: 6883 4d3f 1caf 313f 8cd3 3b3f a06f e138
00000120: 9392 393e 6917 4a3f 7227 583f 6030 a138
00000130: 2f43 423f d032 f23b cd88 f13e 2b91 343f
00000140: b962 3e3f dc39 5f3f f028 4b3f b36d 533f
00000150: 2632 4538 2b91 433f 2df6 2a3e 79e3 e13e
00000160: d624 0d3f ac09 563f bf1e 053f 2d9c b13e
00000170: 53ff 493f 7216 a83e f732 323f 663b 1a3f
00000180: 0011 1d3f cb43 e23d 4532 4d3f d2c1 2e3f
00000190: 657a 053f af5d 1e3e 4554 503f 66e3 feb7
000001a0: 0cf8 503f 6e33 353f b31f 413f 6252 4a3f
000001b0: 5fef 603f 1668 6e3f 7615 5f3f e638 473f
000001c0: ca6a 5138 0601 963e 5e65 513f 1bdf 363f
000001d0: 6c65 5c3e 6b37 e038 732d 543f 7d6c 3a3f
000001e0: 2130 923e e441 1f3f 0cb1 f9b8 31ca a83e
000001f0: 2116 333f 393e 0a39 bc37 7038 aaf8 bd3e

encoder.net.4.bias f4 [128]
-0.17854105 0.076449595 -0.15368061 -0.17336616 0.19520025 -0.0647319 -0.111924864 -0.18698934
-0.2913659 -0.104907155 -0.0015840416 -0.12979431 -0.1325388 0.025052663 -0.14818245 0.09648103
-0.26942953 -0.15549657 0.13435006 -0.10857195 -0.030968357 -0.14682166 -0.15828913 -0.27502316
-0.29351923 -0.35146946 -0.24763693 -0.2706519 0.052724175 0.14853933 -0.21558395 -0.28015092
0.23779383 -0.34224007 0.04024251 -0.052844554 0.0034158882 -0.07135342 -0.03068137 -0.28348526
0.16188604 0.15067567 0.18776043 0.10285304 -0.04234031 -0.32918453 -0.2517946 -0.48192358
-0.082302615 0.2193876 0.0610116 -0.2462542 0.010173422 0.17557028 -0.22221562 0.030255415
0.37864745 0.13112397 0.06364384 -0.33408317 0.10979962 0.05012381 0.12166946 0.03398607
0.185232 0.12767552 -0.089516036 -0.22947349 0.033114105 -0.31180912 0.019897262 -0.38748434
-0.22204438 -0.037811514 -0.039566334 -0.33453467 0.020448415 -0.17963633 -0.06026697 -0.38061264
0.3151182 0.005232706 0.15721585 -0.03244804 -0.2826282 -0.0065083727 -0.26884532 -0.18183596
-0.28317443 -0.028073087 0.10640904 -0.19886096 -0.18412696 -0.03572998 -0.014233097 -0.0562829
-0.1411345 -0.29741168 0.06673348 -0.046418376 -0.18011326 -0.24138983 -0.25413528 -0.2587766
0.06987137 -0.0686377 -0.03506073 -0.0062598516 0.075143464 0.09496241 0.028373986 0.049598698
-0.27850166 -0.10411595 -0.1306695 0.04676931 -0.23242317 -0.2707126 0.10472238 -0.15047114
-0.13093151 0.054366346 -0.3211214 -0.054578405 -0.008282187 -0.20226549 -0.3240776 -0.1304956
00000000: 77d3 36be 9b91 9c3d 735e 1dbe e686 31be
00000010: 93e2 473e 2992 84bd dd38 e5bd 227a 3fbe
00000020: e92d 95be 90d9 d6bd 9e9f cfba cde8 04be
00000030: 40b8 07be 3e3b cd3c 24bd 17be d997 c53d
00000040: abf2 89be 7e3a 1fbe 1093 093e f85a debd
00000050: 5ab1 fdbc 6b58 16be 8c16 22be d6cf 8cbe
00000060: 2748 96be cef3 b3be 8994 7dbe e392 8abe
00000070: 4ef5 573d b21a 183e 0ac2 5cbe f16f 8fbe
00000080: 3a80 733e 173a afbe 55d5 243d 8873 58bd
00000090: 18dd 5f3b be21 92bd 7f57 fbbc fb24 91be
000000a0: 74c5 253e b94a 1a3e 4544 403e 9da4 d23d
000000b0: 086d 2dbd e08a a8be 39eb 80be b0be f6be
000000c0: 468e a8bd 25a7 603e 4de7 793d 102a 7cbe
000000d0: 6dae 263c b2c8 333e 7e8c 63be 34da f73c
000000e0: 14de c13e 5d45 063e b457 823d f30c abbe
000000f0: a0de e03d a04e 4d3d d62d f93d fa34 0b3d
00000100: 75ad 3d3e 5fbd 023e 2f54 b7bd 19fb 6abe
00000110: a8a2 073d 72a5 9fbe 95ff a23c 5964 c6be
00000120: 9a5f 63be 3fe0 1abd 4f10 22bd 2148 abbe
00000130: 6f83 a73c 96f2 37be 80da 76bd a9df c2be
00000140: 2c57 a13e 1f77 ab3b 31fd 203e 3ce8 04bd
00000150: a5b4 90be 3044 d5bb 18a6 89be 3533 3abe
00000160: 3dfc 90be 88f9 e5bc fcec d93d 35a2 4bbe
00000170: c78b 3cbe 9959 12bd f031 69bc e688 66bd
00000180: 9085 10be 5846 98be 90ab 883d 3221 3ebd
00000190: 9c6f 38be e52e 77be 051e 82be 5e7e 84be
000001a0: b918 8f3d ec91 8cbd d79b 0fbd 711f cdbb
000001b0: d1e4 993d a77b c23d 9070 e83c 0128 4b3d
000001c0: c597 8ebe be3a d5bd 3ace 05be 2d91 3f3d
000001d0: 5700 6ebe d89a 8abe b078 d63d 1b15 1abe
000001e0: e912 06be 3faf 5e3d 066a a4be 9b8d 5fbd
000001f0: 03b2 07bc af1e 4fbe 80ed a5be a3a0 05be
