Mixture_of_latest_Koopman_NN/results_lorenz/final_model.pth (torch, 193693 bytes, 30 tensors)

A_f f4 [30, 30]
000000 56 a5 81 3f 9e 40 f2 3c c6 74 a7 bd 54 e9 19 be
       1.0128582 0.029571828 -0.0817657 -0.15030414
000010 2a f7 2f 3d b2 6c 5d 3d f7 b0 3a 3d 63 2c 89 bc
       0.042960323 0.054058738 0.045578923 -0.016744798
000020 f7 17 c2 bd f1 51 64 3d f0 46 d0 bb 18 a1 93 3d
       -0.09477227 0.055742208 -0.0063561127 0.072084606
000030 a8 f2 86 3d 54 bd 39 3c c1 66 fe bd 0e 0d dc bc
       0.06589252 0.011336643 -0.124219425 -0.026861694
000040 74 da 0d 3d 30 ad 26 3d 42 39 0b bc 3f 51 41 3b
       0.03463216 0.04069251 -0.008497538 0.002949789
000050 fb 2c 6b bc e0 70 19 3e b4 70 18 bd 1f 50 7b bd
       -0.014353986 0.14984465 -0.037216857 -0.061355706
000060 8d b6 a6 3d 17 c2 81 3c da d4 c3 3d 3f e5 06 3d
       0.081402875 0.01583962 0.095620826 0.03293347
000070 21 51 dc bd 0f 4f 6d bd 1d 89 49 3d c0 79 83 3f
       -0.107576616 -0.057936724 0.049203027 1.027153
000080 67 0c c2 3c 2b 76 05 3e 8c a0 9f 3c 5e 1f f1 bc
       0.023687555 0.13033359 0.019485734 -0.029433902
000090 3e b0 c3 bc 58 82 e4 3c 10 46 00 3d cf b4 9f 3c
       -0.02388775 0.027894184 0.031316817 0.019495396
0000a0 a6 d0 f2 3b 31 6a 2f bd a6 0a 5d bd f0 0b 68 3d
       0.0074101267 -0.04282588 -0.053965233 0.05665201
0000b0 bc a3 28 3d 84 9f 36 3c 9b ac 04 3a c4 6f a8 3d
       0.041171774 0.01114643 0.00050611206 0.082244426
0000c0 b5 ec b3 bc 16 e1 be bc 9a ba 8e 3c 69 f9 73 bd
       -0.021963457 -0.023300689 0.017422963 -0.059564028
0000d0 65 75 05 bb 92 a0 dd bb 1a a0 f5 3b f5 50 86 3b
       -0.0020364162 -0.0067635262 0.0074958922 0.0040990063
0000e0 69 4a c6 bc 57 ce 17 bc 20 76 0a 3d 24 cc 17 3c
       -0.024205403 -0.009265504 0.03380406 0.0092649795
0000f0 03 cc aa 3d f1 1b 1e ba ac e0 61 3f e5 ca 2c 3b
       0.083396934 -0.0006031385 0.8823345 0.0026366052
000100 d9 65 61 bd 5f 98 65 3d ef 9d 4d 3c 16 86 87 bb
       -0.05502877 0.056053516 0.012549861 -0.0041358573
000110 79 35 b3 bd bc 51 09 3e 9f 8c 72 bd 0c ed 6e bd
       -0.087504335 0.13410085 -0.059216138 -0.058331534
000120 47 0f 4b bd 3b 60 72 3d ad 53 fc bd 76 eb 5c 3d
       -0.049575116 0.059173804 -0.123206474 0.05393549
000130 05 81 67 3d 76 29 da 3c 4c 75 b3 bd ce 44 a8 bd
       0.056519527 0.026631098 -0.08762607 -0.082162485
000140 06 0c 1e 3c 91 cb 86 bd ec 7a e9 3c b0 83 83 bd
       0.009646421 -0.06581796 0.028500997 -0.06421602
000150 82 fd 67 bd ce ff ba 3c b5 39 bc bd 78 ec d8 bc
       -0.05663825 0.022827055 -0.09190694 -0.026479945
000160 00 9b bc bc 8b 08 25 bd ad af 9a bd 21 be d7 bd
       -0.023023129 -0.04029135 -0.07553039 -0.10534311
000170 0c f3 df 3d 0c 3a 6c 3f 45 90 a9 3b 14 f7 78 bc
       0.109350294 0.9227607 0.005174669 -0.015195627
000180 d9 09 0e be 2d 07 84 bd d8 a2 81 bb 62 ab 0d 3d
       -0.13870944 -0.06446681 -0.00395618 0.03458727
000190 06 c9 03 3b 52 b7 4b 3c 90 31 2a 3e fc ac 21 bd
       0.0020108833 0.012433844 0.16620469 -0.03947161
0001a0 b8 c6 83 3d 28 f4 3a 3d 31 98 aa bd 21 d1 15 be
       0.06434387 0.045643 -0.083298095 -0.14630558
0001b0 2f 09 85 bd ae 6b d3 3d 31 1f 15 3d 4a 31 c6 bd
       -0.06495892 0.10323273 0.0364067 -0.0967737
0001c0 86 90 11 3d 67 36 61 3c 56 e0 b9 ba 2a 92 60 bc
       0.03553822 0.013745881 -0.0014181237 -0.013706723
0001d0 d4 d3 9c 3d db e8 52 3d 1b cf 74 bd 2e a4 6f 3c
       0.076575905 0.0514916 -0.059767824 0.014626546
0001e0 e5 bc c3 bc 5c 67 2e be f1 30 77 bb 5a 66 11 bd
       -0.023893783 -0.17031616 -0.003771838 -0.035498
0001f0 4e 70 69 3f fb 28 30 3d 79 4f 6e bd aa f6 be bd
       0.9118699 0.043007832 -0.05818126 -0.09324391
000200 05 55 86 3d bf a0 1b 3c 6e 3c 90 bd b2 e7 17 3c
       0.06559185 0.009498774 -0.07042776 0.009271549
000210 de 61 1d bd ee 5d 63 bd bf a4 a5 bd 5e d6 92 3d
       -0.03842341 -0.0555095 -0.080880634 0.071697935
000220 fc 88 79 3c 1b d7 0c be 91 f2 08 be 6c 61 bf 3d
       0.0152304135 -0.13753931 -0.13373782 0.093447536
000230 19 53 46 3d 32 1f d8 bd c6 c9 44 bd 34 28 0f be
       0.04841909 -0.10552825 -0.04804399 -0.1398018
000240 64 25 45 bd a5 f7 4e 3d d7 6d c9 bc 39 5a aa bd
       -0.04813136 0.05052914 -0.024588509 -0.0831799
000250 71 ea cb bc c1 da 4a 3c 14 e3 6f bd fc 96 20 bd
       -0.024892064 0.012381257 -0.058566168 -0.03920649
000260 13 29 f8 3d 37 93 d8 3b df 83 b2 3c ca 1b 84 3f
       0.12117209 0.0066093463 0.021791397 1.032098
000270 f5 f0 d7 bd 2c 29 d7 bd af cb a4 3d 88 59 82 bd
       -0.10544006 -0.105059 0.08046662 -0.06364733
000280 d6 08 a2 3d ad 20 b8 3d a4 dd 18 3c f8 69 14 bd
       0.079118416 0.089906074 0.009330187 -0.036233872
000290 30 a9 83 3d 08 2a 17 3e 1b 5a 1a bd 48 44 1a bd
       0.06428754 0.14762127 -0.037683588 -0.037662774
0002a0 e9 8d 33 3b 52 23 07 3e ed 32 c1 3c f5 11 95 bc
       0.0027397817 0.13197067 0.023583854 -0.01819704
0002b0 bd 2f e0 bd 68 ac 84 3b 88 83 e4 3c 5c 7a 07 bd
       -0.10946605 0.0040488727 0.02789475 -0.033075675
0002c0 dc 31 d6 3c d3 92 88 3d 24 5c 1c bd 4d 45 88 3d
       0.026146822 0.066686295 -0.03817381 0.06653843
0002d0 53 fc 0d 3d 4d 3a 20 3c 09 88 72 bd a0 4e 5e bd
       0.034664463 0.009779525 -0.059211764 -0.0542742
0002e0 3c 41 6a bc bf 03 8d 3c 0b f8 7b 3f 9a ca 51 3c
       -0.01429778 0.0172137 0.9842536 0.012804652
0002f0 71 ff d9 bc ae e6 48 3d 48 8a 50 bd e2 5e c1 bc
       -0.026611062 0.04904812 -0.050913125 -0.023604814
000300 e6 e8 1d 3d e6 25 30 3c a8 72 6a bd 79 d8 83 3c
       0.038552187 0.010751223 -0.05723825 0.016094433
000310 e0 ab 17 bb 5a e1 dc bc df 94 08 bd 68 08 8f bb
       -0.0023143217 -0.026962925 -0.0333451 -0.004365016
000320 bf 9f d9 bb 5d 48 8c bc 72 59 5e 3d 68 b6 b9 bb
       -0.0066413577 -0.01712435 0.05428452 -0.0056674965
000330 18 94 34 bd 34 10 39 3d a7 a3 0d bc 50 fc 85 39
       -0.044086546 0.045181468 -0.008644975 0.00025555724
000340 0a 99 86 bd 97 b6 08 bd 52 1f ad 3b 7f 6e ec 3b
       -0.06572159 -0.033377256 0.0052832747 0.0072153206
000350 d7 d2 61 3c 42 fc 61 3d c9 89 c1 3b 39 37 02 bd
       0.013783178 0.055172212 0.005906318 -0.031790946
000360 ff 87 8a bc e9 63 67 3f e2 01 9c 3c ee 69 3a 3c
       -0.016910551 0.90386826 0.019043867 0.011377795
000370 4d ab 12 bd 0d e4 4a 3b b0 a0 a5 bc 84 bb 77 3d
       -0.035807896 0.0030958683 -0.020218223 0.060481563
000380 9e 94 6a bc fa 97 16 bd 1c 63 07 bd 88 1c e6 3c
       -0.01431766 -0.03676603 -0.033053502 0.028089777
000390 22 2f ed 3c b7 7d 01 bd f6 97 d2 bc ed 20 5a bc
       0.028953139 -0.03161403 -0.025707226 -0.013313514
0003a0 d7 ed bf bb c6 7f d9 3b d8 f2 1e 3d e5 45 93 3b
       -0.00585721 0.0066375462 0.038805813 0.004494416
0003b0 be 48 49 3d 1d 39 17 3c a0 f1 02 3d 98 af 4f bd
       0.049141638 0.009229925 0.031968713 -0.05070457
0003c0 d4 e3 bc bb e1 d3 91 bd fc f6 7b 3c 77 08 9d 3c
       -0.005764464 -0.07120491 0.01537871 0.019169075
0003d0 f7 12 43 bd 1f 81 80 3d a1 6b 55 bb d5 80 c1 bd
       -0.04762551 0.06274628 -0.0032565373 -0.09448401
0003e0 ea 93 84 3f 11 6d 37 bc eb 43 03 bd 03 7d 8e 3c
       1.035764 -0.011195437 -0.032047193 0.017393595
0003f0 da 75 a0 bd 82 d8 67 bc 0f 86 70 bd 8b 98 cf 3d
       -0.078349784 -0.014150741 -0.0587216 0.10136517

A_b f4 [30, 30]
000000 37 35 7a 3f d7 60 77 bb f7 11 e5 3d 70 54 1c 3e
       0.9773745 -0.003774693 0.11185067 0.15266585
000010 20 56 03 bd 3f 92 82 bd a6 17 fd bb f0 e5 89 3d
       -0.032064557 -0.063755505 -0.0077237664 0.0673331
000020 78 52 bf 3d 21 d4 b2 bd 0b f7 f4 ba dc d9 9b bd
       0.093419015 -0.08731867 -0.0018689347 -0.07609913
000030 0b 49 4c bd 42 67 a1 bc 2f 0c 29 3e 25 ab 8e bc
       -0.049874347 -0.019702557 0.16508554 -0.017415592
000040 cc b0 58 bd 44 5f 01 bd e6 31 25 3d d9 2d 31 bd
       -0.05290298 -0.031584993 0.04033079 -0.043256614
000050 26 32 87 bb da 07 f1 bd 57 a8 0d 3d 3a 6b 96 3d
       -0.004125851 -0.11769076 0.03458437 0.073446706
000060 11 78 a9 bd 00 d2 45 bd 48 3c 94 bd cb 1e a1 bc
       -0.08274854 -0.048295975 -0.0723806 -0.019668004
000070 28 5d ff 3d b7 9f 82 3d dc 7f 49 bd 8d b0 75 3f
       0.1246894 0.063781194 -0.0491942 0.9597252
000080 29 b7 15 bd 56 70 06 be f8 ac ae bc c2 b8 ff 3c
       -0.03655163 -0.1312879 -0.021322712 0.03121603
000090 54 34 ef 3b 7b 10 54 bd 9f 1a 03 bd a4 fa a0 3a
       0.007299939 -0.05177353 -0.03200781 0.0012281728
0000a0 e0 f9 0e bc 09 d7 2a 3d 36 f6 4c 3d 17 7e 5b bd
       -0.008726567 0.04170898 0.050039493 -0.053587046
0000b0 2f e9 62 bd 97 8e a7 ba 47 11 08 3b 3b 8c c1 bd
       -0.055398162 -0.0012783584 0.0020762251 -0.09450575
0000c0 a3 f1 85 3c 9a dc 11 3d a1 a9 81 bc 50 af 33 3d
       0.016350573 0.035610773 -0.015827956 0.043868363
0000d0 76 ec 23 3c ce 46 58 3c 3d 1e c5 3a cf 5f 36 3c
       0.010005107 0.013200475 0.0015038919 0.011131241
0000e0 8c 46 b4 3c da 95 36 3c 11 6e 21 bd 38 97 8e bc
       0.022006296 0.011144126 -0.039411608 -0.017406091
0000f0 0e 77 aa bd c6 4a c5 3b e9 5c 8f 3f ec 30 01 bc
       -0.08323489 0.0060208766 1.1200229 -0.007885199
000100 4f bb 7a 3d cd e1 37 bd 12 01 47 bc 28 d4 82 3c
       0.061213788 -0.044893075 -0.012146251 0.015970305
000110 dd 1b 9c 3d d1 18 10 be 00 6d 92 3d b0 d6 8e 3d
       0.07622502 -0.14071967 0.07149696 0.06974542
000120 79 14 84 3d 4e 90 2f bd 4a 99 ea 3d a0 3b 98 bd
       0.06449217 -0.04286223 0.11455019 -0.074332476
000130 ce a8 8a bd 7b 63 82 3b d6 73 dd 3d d8 9b b1 3d
       -0.06770478 0.003979144 0.108131096 0.08672303
000140 51 59 78 bc 67 84 b6 3d a0 68 31 bd d1 aa 90 3d
       -0.015158013 0.089119725 -0.04331267 0.07063831
000150 f8 29 9c 3d e3 cf db bc 5d c3 e1 3d f9 c6 32 3d
       0.076251924 -0.026832527 0.11023591 0.043646786
000160 01 62 0a 3d 69 ef fc 3c b0 6f 8c 3d e4 7b 99 3d
       0.03378487 0.030875878 0.0685724 0.074943334
000170 68 6d d5 bd a1 28 86 3f 53 69 0e bd e8 a4 ba 3c
       -0.10421258 1.0481149 -0.034768414 0.022783712
000180 92 b3 0e 3e 9b c2 8a 3d d7 11 2c 3c 10 22 4b bd
       0.13935688 0.06775399 0.0105023 -0.04959303
000190 da 98 e8 bb 34 cf 5c bb 62 78 1e be 8c 77 c6 3c
       -0.0070982995 -0.0033692839 -0.1547561 0.024226926
0001a0 93 cd 97 bd 65 21 28 bd 9a d4 a8 3d 04 d9 07 3e
       -0.07412257 -0.041047473 0.082436755 0.13266379
0001b0 71 5f 67 3d fb e6 d2 bd a5 ca d5 bc 00 2c d6 3d
       0.056487504 -0.10297962 -0.026097605 0.10457611
0001c0 83 3a 08 bd e5 96 1c bd 8b 24 c6 bc 1a 34 7b 3b
       -0.033258926 -0.03822984 -0.024187347 0.0038330615
0001d0 75 19 af bd 55 ae 91 bd a5 51 88 3d be 77 65 bc
       -0.085497774 -0.07113329 0.066561975 -0.0140056
0001e0 3d 90 ed 3c 48 d5 3c 3e 59 72 85 3b a8 da 82 3c
       0.028999442 0.18440735 0.004072469 0.015973404
0001f0 44 1f 8b 3f d7 cf 52 bd a8 96 6b 3d dc 16 da 3d
       1.0868917 -0.051467743 0.057516724 0.10648891
000200 cc d6 aa bd 1a b1 3b bc 7d 50 9f 3d b2 ff 3b bc
       -0.083417505 -0.0114557985 0.07779024 -0.011474537
000210 f6 a2 af 3c ee b4 78 3d 70 22 7c 3d 16 55 8a bd
       0.02144001 0.060719423 0.06155628 -0.0675451
000220 d3 ad 39 bc 67 59 23 3e f0 8b 14 3e d4 7e da bd
       -0.011332947 0.15952073 0.14506507 -0.10668722
000230 02 a5 41 bd 3e 37 01 3e f1 7e b9 3c 04 b6 f3 3d
       -0.047276504 0.1261873 0.022643538 0.11899951
000240 6a 13 29 3d 6d a3 61 bd fd 5d be 3c e9 ca b9 3d
       0.04127828 -0.055087496 0.023238176 0.09071905
000250 b4 c8 19 3d 48 1f dc bc 0d 00 5b 3d 50 e9 ba 3c
       0.03754492 -0.026870385 0.053466845 0.02281633
000260 4b c8 08 be 95 5c d5 bc 83 83 10 bd cc f5 75 3f
       -0.13357656 -0.026045123 -0.03528167 0.9607818
000270 c0 5d d8 3d b4 6e cf 3d b5 93 98 bd 70 db 9e 3d
       0.105647564 0.10128537 -0.07450048 0.07756698
000280 94 5e 9b bd af c0 a0 bd 82 a6 92 bc c5 94 94 3c
       -0.07586399 -0.078492515 -0.017901663 0.018137345
000290 f8 6b 71 bd 7d dc 05 be df 62 62 3d 4e 64 3b 3c
       -0.058940858 -0.13072391 0.055270072 0.011437489
0002a0 4d f4 92 bc 60 c7 eb bd f2 4f b7 bc 25 c6 b6 3c
       -0.017938757 -0.11512637 -0.022376988 0.02231128
0002b0 cb bc f0 3d 07 c8 54 bc 58 02 0f bd 3e bb 09 3d
       0.117547594 -0.012987143 -0.034914345 0.033625834
0002c0 97 64 01 bd c5 37 94 bd 17 d6 c9 3c 65 80 74 bd
       -0.03159007 -0.072372 0.024638219 -0.05969276
0002d0 c0 31 fd bc 7a 10 15 bc 53 56 97 3d df 30 50 3d
       -0.030907512 -0.009098167 0.07389512 0.050827857
0002e0 a1 2e 84 3c 06 23 46 bc 6d 1b 82 3f 0e 86 51 bb
       0.016135516 -0.012093311 1.016462 -0.0031970772
0002f0 68 76 c6 3c 57 89 81 bd 42 f9 4a 3d 4e e1 e9 3c
       0.024226382 -0.063250236 0.049554117 0.028549816
000300 46 52 f6 bc 81 85 31 bb d4 30 66 3d 69 90 d2 bc
       -0.030068528 -0.0027087631 0.05619891 -0.025703626
000310 d9 f4 13 bc b7 38 3d 3d 56 1a 0f 3d 8f c8 b1 3a
       -0.009030544 0.046196666 0.034937225 0.00135638
000320 9e a7 06 3c 76 8e ff 3c c5 10 95 bd 70 6f 7a bc
       0.008218674 0.03119586 -0.07278589 -0.015285358
000330 d4 74 3b 3d 37 a4 58 bd 48 cf c7 3c e7 e6 31 3b
       0.045765713 -0.052890982 0.024390832 0.0027145685
000340 3d ee 93 3d 96 19 df 3c 21 f6 11 bc d1 eb 54 bc
       0.07223175 0.02723388 -0.008908779 -0.012995676
000350 1d 65 2e bc d4 b5 7f bd 59 c2 8b bb 84 b1 f1 3c
       -0.0106442245 -0.062429264 -0.0042651114 0.029503591
000360 20 4d 21 3c 28 89 8c 3f 95 f6 b2 bc de 33 3c bc
       0.009845048 1.0979357 -0.021846095 -0.0114869755
000370 b3 0a 42 3d 91 9b 16 bb 64 98 0f 3d 24 f3 98 bd
       0.047373485 -0.0022980908 0.03505744 -0.074682504
000380 51 01 c8 3c 97 a0 41 3d e6 87 f8 3c 3b cb 23 bd
       0.02441469 0.04727229 0.030338239 -0.039988738
000390 e1 0e f6 bc b6 0b 2c 3d dd 94 eb 3c ee 60 89 3c
       -0.030036392 0.042003356 0.028757507 0.016769852
0003a0 38 5d 79 3c 28 2c ba 3b 4d 5d 17 bd 81 33 07 bb
       0.015219979 0.0056815334 -0.036954213 -0.0020630064
0003b0 25 09 44 bd ca 81 c5 bb b7 2d 25 bd 12 56 66 3d
       -0.047860283 -0.006027435 -0.0403268 0.056234427
0003c0 83 a7 42 3c 4f b8 ac 3d 07 82 70 bc c4 a6 e7 bc
       0.011880758 0.084335916 -0.014679438 -0.028277762
0003d0 6e a4 5a 3d 2c 84 a3 bd 39 18 69 bb cc 4a d2 3d
       0.05337947 -0.07984194 -0.0035567416 0.102681726
0003e0 2a f2 73 3f 34 98 cf 3c 23 eb 12 3d 57 3c b0 bc
       0.9529139 0.02534113 0.035868775 -0.021513147
0003f0 97 85 6c 3d 7c ca 9e 3c b8 56 6f 3d 16 54 be bd
       0.05774459 0.019383661 0.05843231 -0.09293382

encoder.net.0.weight f4 [128, 3]
000000 b9 4e 1e 3d c4 0e a0 3e 8d 08 cb be cd 14 be be
       0.038649295 0.31261265 -0.3965496 -0.37125245
000010 24 95 69 be 7a 63 21 bb 17 73 b3 bd 12 f9 cf 3e
       -0.22810799 -0.0024625943 -0.08762186 0.40619713
000020 2e 60 6e bd 98 ee 55 3e 18 ae 0d be 38 0c f7 bd
       -0.058197193 0.20891798 -0.13835943 -0.120628774
000030 58 ca f6 be 2d 93 2c be af 8a 7a be f0 0c 2f bd
       -0.4820125 -0.16853018 -0.24466966 -0.042736948
000040 2f f9 0f 3e 5f d6 d0 3e c8 59 b9 be 1d a4 79 be
       0.140599 0.40788552 -0.3620131 -0.2437901
000050 4a ce d4 3d b1 12 ea 3e f1 85 e0 bd 15 ea c6 3e
       0.10390909 0.45717385 -0.10963047 0.38850465
000060 a1 d3 6c bd a8 47 80 3d 8f 33 15 3f 6d 4f da be
       -0.057819013 0.06263667 0.582818 -0.42638722
000070 09 77 b3 be 6c 27 03 be e3 0d d9 be b1 79 c9 3e
       -0.35051754 -0.12808007 -0.42393407 0.39350656
000080 fd a1 89 be a5 e2 96 be 9b e5 b2 be b6 f8 ef be
       -0.268814 -0.2946979 -0.349408 -0.4686944
000090 8a 1b de be 95 6d cd 3e 56 f5 59 3e bf 9c b6 3e
       -0.43380386 0.40122667 0.21284994 0.35666463
0000a0 eb 7e 2d bd 41 ce 58 be b1 e0 ff 3d 95 c1 00 bf
       -0.042357367 -0.2117243 0.12494028 -0.5029538
0000b0 7e f5 b8 be f3 5b 92 be a6 3c b3 3e cd f6 c3 3e
       -0.36124796 -0.28585777 0.3500721 0.38274232
0000c0 df c8 7c be 9b f3 1a bd 19 ed b4 3e 7f 6d 04 3f
       -0.24686001 -0.037829977 0.3533714 0.5172958
0000d0 11 bc 59 3e 0c 48 d5 3b 90 0a d5 3e 39 b8 98 be
       0.21263148 0.006508833 0.4160962 -0.2982805
0000e0 4e c6 10 3e 7a 92 d1 be 06 c6 8e be 7c 88 8d be
       0.14138147 -0.40932065 -0.27885455 -0.27643192
0000f0 b7 03 b5 3e 8c 0f 46 3e 6f 36 84 be b9 0f 02 3e
       0.35354397 0.19341868 -0.2582278 0.1270131
000100 94 fe 8b 3e 9a 23 b6 bd 8c 58 e5 bb 2f 60 b6 3d
       0.27342665 -0.08893509 -0.006999081 0.08905064
000110 67 f6 d2 3e 16 22 10 3f 1a 82 d5 be f0 da 81 be
       0.41203615 0.5630201 -0.41700822 -0.2536235
000120 1d d8 5b 3e 52 1b ec 3e 03 3d e9 3e 6c 91 0f 3f
       0.2146916 0.46114594 0.4555436 0.5608127
000130 52 df 59 3d da 3d d9 be 57 03 be 3c 59 24 88 be
       0.05319149 -0.42430001 0.023194952 -0.2659023
000140 66 21 04 bf 7e af 16 3f f7 68 d3 3e bb 32 dc be
       -0.5161346 0.5886153 0.4129102 -0.43007454
000150 5c 30 20 3e e8 dd 8e bd c2 27 d7 bd 7b d7 91 be
       0.15643448 -0.06975919 -0.1050563 -0.2848471
000160 46 b5 3a 3e 09 10 36 be 57 e9 20 3e 43 86 a5 3e
       0.18233213 -0.17779554 0.15714012 0.32328996
000170 20 0f b2 3e be 86 85 3e 80 80 fe be 32 2e bc be
       0.34777164 0.26079363 -0.49707413 -0.36753994
000180 b2 64 b7 3e 21 54 d3 3c 03 7b a8 be de e8 a3 be
       0.35819012 0.025796952 -0.3290635 -0.320136
000190 21 2e 07 3f ca d4 d5 3e 49 b1 89 be 14 1d c0 bd
       0.5280476 0.41763908 -0.2689307 -0.09380546
0001a0 fb a5 00 bf 58 42 ae bb 49 84 db be 63 76 c1 be
       -0.50253266 -0.0053179674 -0.42874363 -0.37785634
0001b0 21 be 09 bd 7a ba 89 3d b8 ca 7a be 43 24 9b 3e
       -0.033628587 0.06725021 -0.24491394 0.30301103
0001c0 f6 05 c4 be 71 7b 06 3f de d4 e3 3e bf fa ce be
       -0.38285798 0.52532107 0.44498342 -0.4042568
0001d0 d2 bf 58 be 73 da bc ba 22 0c e1 3d 9d 2b 1b 3e
       -0.21166924 -0.0014408365 0.10988642 0.15153356
0001e0 29 bb 99 3e fa 00 e0 bc 37 86 55 be 85 64 59 3e
       0.30025604 -0.027344216 -0.2085198 0.21229751
0001f0 0e 30 0c bf 10 50 90 be d2 2c 3a be 70 a0 87 be
       -0.54760826 -0.28186083 -0.1818116 -0.26489592
000200 f0 49 f5 bd 7a 25 f3 be a1 ab a3 bd 48 4d 35 3d
       -0.11976993 -0.4748953 -0.0799172 0.044263154
000210 75 4f bb be dc 50 b0 bc 11 95 bc 3e c4 8f 0c be
       -0.36584058 -0.021522932 0.3683248 -0.13726717
000220 f2 22 94 bd b2 3c 56 bc d1 27 aa 3d 7a 17 ab 3e
       -0.07233228 -0.013075994 0.083083756 0.3341635
000230 50 22 f5 3e 01 a9 a1 3e 34 14 f0 3e 83 d7 89 bc
       0.4787774 0.31574252 0.46890414 -0.016826397
000240 5a 3e c0 be 39 b8 8e be 28 79 8a 3e bf af a5 b9
       -0.3754757 -0.27874926 0.2704556 -0.00031602193
000250 bd 7d 86 be 73 4c c6 be 58 47 cf be 3a 40 c5 be
       -0.26267806 -0.387302 -0.40484118 -0.38525563
000260 96 74 f7 bd e9 e2 a8 3e e8 9e 89 3e dd 72 e9 be
       -0.12082784 0.3298562 0.26879048 -0.45595446
000270 e0 5a cc 3e 16 bc dc be da 8c b6 bd ce 29 50 be
       0.39913082 -0.43112248 -0.08913584 -0.20328447
000280 df 5a 1f be 42 a7 d4 bd f6 fb dc be 72 42 e5 be
       -0.15562008 -0.103834644 -0.4316098 -0.44777256
000290 8a 8b fe bc d9 5c 76 ba 1f 70 8f be 0e 0d 31 3e
       -0.031072397 -0.00093979907 -0.2801523 0.17290136
0002a0 43 a6 f7 be 3f 6a 5c bd 2c 26 f3 3e f3 2f a1 be
       -0.48369035 -0.05381226 0.4749006 -0.31481895
0002b0 8e 5e d4 3e 45 1f 9d 3e 64 bf fc be 07 32 ca 3e
       0.4147839 0.3068792 -0.4936477 0.39491293
0002c0 73 75 ee bd 9a 5b b2 be af 8d ba 3e 36 b6 d1 be
       -0.116434954 -0.3483551 0.3643622 -0.40959328
0002d0 c5 f4 94 3d ad f7 09 be 3f 94 d0 3e 48 a0 22 3e
       0.072732486 -0.13473387 0.40738103 0.15881455
0002e0 c6 06 a5 3e 46 94 f0 3d cd f7 0a be a4 a6 cb bd
       0.3223173 0.11747031 -0.13571091 -0.099438936
0002f0 b0 bd da be 98 a7 55 3e 9b fc f3 3e a6 75 a9 3e
       -0.42722845 0.20864713 0.4765366 0.3309757
000300 10 e5 eb be be 1e 38 3d bb c9 96 be 9b 18 92 be
       -0.46073198 0.044951193 -0.29450783 -0.28534397
000310 ec ae a7 be 92 fa 03 3e ac d9 c5 be c9 60 46 bb
       -0.32750642 0.12888554 -0.38642633 -0.003027009
000320 68 7e fb bb e4 c4 e6 3e 6c 1d cd be d7 9a 93 be
       -0.007674981 0.4507209 -0.4006151 -0.2882907
000330 f1 ed cd be 9f cc c6 3e 1d bb a3 bd 5c 39 c4 3e
       -0.40220597 0.38827989 -0.079946734 0.38325012
000340 d6 2e 7f 3e 9b 6e 52 3c aa 94 d0 3b ed 1e 37 be
       0.2492021 0.012843753 0.0063653784 -0.17882891
000350 09 f9 27 3d 85 40 b8 bd 6a a6 7b 3c c9 be 13 3e
       0.041008983 -0.08996681 0.0153595 0.14428248
000360 36 0f dd be 6a 9c 75 be a2 97 ba 3e e0 8c ee be
       -0.43175668 -0.23985448 0.36443812 -0.46591854
000370 f9 6f 7c bd 14 af 01 3f f9 8a 31 3e 84 00 a9 bb
       -0.061630223 0.50657773 0.1733817 -0.005157532
000380 ea af d9 be d9 a9 b6 3e 34 f6 b6 be bf ae 2a be
       -0.42517024 0.35676458 -0.35734713 -0.16668223
000390 5c e0 4e be e8 61 fd bd 4d c0 a4 bb 2b 8b d6 3e
       -0.20202774 -0.1237219 -0.005027807 0.41903052
0003a0 aa 24 92 3d 8a 18 05 3f 95 91 a1 3e 4d ff d8 be
       0.07135899 0.5199057 0.31556383 -0.4238228
0003b0 85 ad 2d 3e 6d 4e 9d be 57 2f 77 be 03 b6 08 3e
       0.16960724 -0.30723897 -0.24139152 0.13350682
0003c0 e1 2e 47 3e af 51 bf 3e 36 96 bf bd b7 72 fc bc
       0.19451477 0.37367007 -0.09354822 -0.030816419
0003d0 48 a8 8f 3e b1 1c 04 bf 5a 39 03 3f b7 5c c1 be
       0.28058076 -0.5160628 0.51259387 -0.37766048
0003e0 67 25 88 bc c3 8a ea bd f0 7e 96 be 5c a8 19 3c
       -0.016619397 -0.11452248 -0.2939372 0.009378519
0003f0 3c f5 f9 3e 05 11 4c be e7 8a 9c be e5 90 c2 bd
       0.4881991 -0.19928367 -0.30574724 -0.09500293

encoder.net.0.bias f4 [128]
000000 4e 54 3e 3e 7a dd 13 3f 80 6e 9b 3e 20 56 b2 3e
       0.18586847 0.5775982 0.30357742 0.34831333
000010 c9 b6 4d be 86 dd 8a 3e ad dc 8b 3d 91 9a 07 be
       -0.20089258 0.27122134 0.068292 -0.13242556
000020 df fe a4 be f3 1d a6 be 86 15 e6 be 59 c8 c6 3e
       -0.322257 -0.32444724 -0.44938296 0.38824728
000030 20 69 cc 3e 1f aa 89 bd 5e ce a7 be fd f7 e3 3e
       0.39923954 -0.06721901 -0.32774633 0.44525138
000040 d4 4d be 3e 48 88 37 3d 2d 78 8b be 44 e4 07 3f
       0.37168753 0.044807702 -0.27240124 0.5308268
000050 d5 25 72 3e b4 ce de be 85 d4 10 3f 53 eb df 3e
       0.23647244 -0.43517077 0.5657428 0.43734226
000060 ee a1 5a be c7 ad a9 3e df 7e a7 be eb 7e b7 bd
       -0.21350834 0.33140394 -0.32713982 -0.089597546
000070 96 d6 ea 3e 8c a2 ba 3c a5 f4 d0 be 6f 6b 48 be
       0.4586684 0.022782587 -0.4081165 -0.19572233
000080 db a1 1d be 4c ab 01 be a0 2f 5b 3d 1a 13 09 3f
       -0.15393774 -0.12663001 0.053512216 0.5354477
000090 dc 4c ba 3c dd 17 b0 be 5a aa 85 3c 49 c1 8c 3e
       0.022741728 -0.34393206 0.016316582 0.27491215
0000a0 75 b9 91 3e 5c 04 06 bf 13 e9 ca bd 3c 78 da be
       0.28461805 -0.523504 -0.09907737 -0.42669857
0000b0 7b d4 7f be 3e 65 53 3e f5 fd d4 be 02 32 5f 3e
       -0.24983399 0.2064409 -0.41600004 0.2179642
0000c0 66 63 fa 3e e3 21 22 3d 2a 46 c3 be c6 2a 57 be
       0.4890396 0.0395831 -0.38139468 -0.2101241
0000d0 fc e6 0e 3e e5 7d e3 be 88 e4 93 3e 6d 2b 05 bf
       0.13955301 -0.44431987 0.28885293 -0.5201939
0000e0 8a fd 0c bf ac 95 12 bf bd 8b 05 be 56 d4 c8 3e
       -0.5507437 -0.5725963 -0.13041587 0.392245
0000f0 59 6e 0d bf bc 46 f7 3e c3 f0 68 be 99 03 28 3e
       -0.552465 0.48296154 -0.22748093 0.16407622
000100 33 fa a5 3c 4c 3e 04 bf 63 da f4 3e d6 0e 9d 3e
       0.020260906 -0.5165756 0.47822866 0.3067538
000110 12 9f 12 3f 2e 4f 93 3e 27 73 ce be a8 e3 02 3f
       0.5727397 0.28771347 -0.4032223 0.51128626
000120 b3 07 f4 3c f2 0d 89 3e 98 af ec be f5 a7 3c be
       0.029788828 0.26768452 -0.46227717 -0.18423446
000130 b2 2e 13 bf 6b c2 67 be d4 a0 0b 3e 05 ca e8 be
       -0.57493126 -0.22632758 0.1363557 -0.4546663
000140 a0 5f 3b 3e 0f f1 9a 3e 7c 49 9d 3d fa b6 c2 be
       0.18298197 0.30262038 0.07680032 -0.38030225
000150 d8 9c e9 be 31 50 37 be 08 f3 81 3e bf 4e 12 3f
       -0.45627475 -0.17901684 0.2538073 0.57151407
000160 98 f0 9f 3e d1 e1 86 bd 99 22 52 3e e0 68 11 bf
       0.31238246 -0.0658604 0.2052101 -0.5680065
000170 6b 9c f5 be 96 d9 85 3e 80 15 a3 be f6 42 8b 3e
       -0.479709 0.26142567 -0.3185234 0.27199525
000180 7b aa d4 be e4 47 92 be 19 e6 f7 be 94 c4 aa 3e
       -0.41536316 -0.28570473 -0.48417738 0.33353102
000190 1b 48 82 bd 65 6a e3 3e 75 2e b5 3e 38 7d a4 3e
       -0.06361409 0.4441711 0.35387006 0.32126784
0001a0 25 1c 2a 3d cd 7e 1c be 1e 09 06 be 8d b2 8f 3d
       0.041530747 -0.15282746 -0.13089415 0.07016478
0001b0 78 29 92 3e 56 c9 ca be a6 c1 f6 3e f1 a8 7e bd
       0.28547263 -0.39606732 0.48194617 -0.062172834
0001c0 33 f6 f7 be d5 f3 9b be f6 93 02 3f 62 b9 05 3f
       -0.48430023 -0.30459467 0.5100702 0.52235997
0001d0 4b 72 0a bf 2d 08 cd 3e d7 ff 90 3e fb b5 a6 3e
       -0.5408065 0.400453 0.2832019 0.32560715
0001e0 dc 3a fa 3e 5d 3b 9d be b2 ee 3e 3e 64 9e 7d 3e
       0.4887303 -0.30709353 0.18645743 0.24767452
0001f0 9a 0c 2f be 62 0a 4d 3e e2 f7 29 be 49 82 b3 3e
       -0.17094651 0.20023492 -0.16598466 0.35060337

encoder.net.1.weight f4 [128]
000000 a4 dd 4c 3f 4c 33 6e 3f 0b cd 75 3f 58 cd 85 3f
       0.80025697 0.9304702 0.96015996 1.0453291
000010 30 a6 66 3f 02 57 40 3f 5f 4e 6f 3f 00 7c 55 3f
       0.9009733 0.75132763 0.9347896 0.83392334
000020 b3 36 7c 3f db 7c 6f 3f d1 1d 6c 3f b5 a5 65 3f
       0.98520964 0.9354989 0.92232996 0.89705974
000030 5f 39 78 3f 8b 50 77 3f 34 a4 5b 3f 86 ab 60 3f
       0.9696254 0.96607274 0.8579743 0.87761724
000040 22 2a 61 3f 37 f6 78 3f e2 4b 8a 3f a6 8f 6e 3f
       0.87954915 0.97250694 1.0804408 0.9318794
000050 34 9e 6c 3f 45 24 5e 3f 26 0a 71 3f 16 49 8c 3f
       0.924289 0.8677409 0.9415611 1.0959804
000060 5e 74 67 3f 8b d7 7d 3f ba 7a 46 3f f0 66 73 3f
       0.9041194 0.9915702 0.77531016 0.95078945
000070 57 b7 84 3f 7b 75 46 3f cc 04 5c 3f b5 f4 6a 3f
       1.0368451 0.7752301 0.8594482 0.91779643
000080 68 9f 3b 3f c3 77 6d 3f 07 82 65 3f 36 3a 5a 3f
       0.7329011 0.92760867 0.8965153 0.8524507
000090 d6 c2 48 3f bc e3 85 3f 44 ec 93 3f d9 47 55 3f
       0.78422296 1.0460124 1.1556478 0.83312756
0000a0 65 61 6e 3f 9d 0c 5b 3f 60 01 62 3f 20 50 80 3f
       0.9311736 0.8556612 0.8828335 1.0024452
0000b0 ff 0d 6b 3f fc c4 7a 3f 80 7c 14 3f c8 b8 76 3f
       0.9181823 0.97956824 0.5800247 0.96375704
0000c0 3b d3 45 3f 70 61 4e 3f af 23 76 3f 5b 06 58 3f
       0.7727544 0.8061743 0.961482 0.843847
0000d0 01 6c 84 3f 3f be 65 3f df 5a 75 3f 12 c5 52 3f
       1.034546 0.8974342 0.95841783 0.82331955
0000e0 b3 c0 73 3f 97 f6 67 3f 1a f6 a1 3f 55 89 48 3f
       0.9521591 0.9061064 1.2653229 0.7833455
0000f0 59 cb 83 3f 42 5c 67 3f 37 30 5b 3f 6a 75 57 3f
       1.0296432 0.9037515 0.85620445 0.84163535
000100 a0 85 63 3f ea 3f 67 3f 61 dc 7f 3f 4b 82 82 3f
       0.8887577 0.903319 0.99945647 1.0196012
000110 59 fe 8f 3f aa c1 75 3f 74 6c 51 3f d6 cd 5a 3f
       1.1249496 0.9599863 0.8180611 0.8547033
000120 c1 cb 6b 3f bb f7 6a 3f b6 38 40 3f fa 38 85 3f
       0.9210778 0.91784257 0.75086534 1.0408013
000130 70 7d 80 3f 3b 96 5e 3f da 25 68 3f 34 40 76 3f
       1.003828 0.86947984 0.90682757 0.96191716
000140 a4 94 5d 3f 6c ee 74 3f b0 bc 82 3f 0d 3f 6a 3f
       0.8655493 0.956763 1.0213833 0.9150246
000150 ab c4 92 3f 44 eb 54 3f f2 3a 7d 3f bf d2 56 3f
       1.1466268 0.83171487 0.9891807 0.83915323
000160 ac ef 8c 3f 7d 16 6f 3f 9f 66 61 3f 27 8c 5f 3f
       1.1010642 0.9339369 0.8804721 0.8732323
000170 67 6f 80 3f 86 44 67 3f 4a ae 87 3f 56 7b 84 3f
       1.0033997 0.90338933 1.0600064 1.0350139
000180 45 1a 5a 3f 73 d3 6b 3f 00 2e 67 3f 96 83 9a 3f
       0.85196334 0.9211952 0.90304565 1.2071407
000190 c5 1b 6a 3f 35 85 27 3f f6 8e 6d 3f e2 65 7a 3f
       0.9144862 0.6543763 0.92796266 0.9781171
0001a0 fa f4 70 3f 4d b8 86 3f 65 d7 4d 3f 52 9d 58 3f
       0.94123805 1.0524994 0.8040679 0.8461505
0001b0 bf f0 7a 3f 5f 31 61 3f 6c bc 72 3f 09 4c 85 3f
       0.980236 0.8796596 0.9481876 1.0413829
0001c0 5f 9e 62 3f 55 3b 77 3f 40 a1 5c 3f d4 1f 75 3f
       0.88522905 0.9657491 0.8618355 0.9575169
0001d0 c4 87 ac 3f 2a 8f 79 3f a8 af 75 3f 95 de 42 3f
       1.3478932 0.97484076 0.95971155 0.76120883
0001e0 e8 1c 72 3f 80 a5 72 3f 00 b7 78 3f 57 9b 68 3f
       0.9457536 0.9478378 0.97154236 0.9086203
0001f0 8f 9a 77 3f 07 9e 6e 3f 74 97 5f 3f ae 7e 78 3f
       0.9672021 0.9320988 0.87340474 0.970683

encoder.net.1.bias f4 [128]
000000 95 ea 3c be 6e 5f 6d ba 75 71 21 3c 43 28 cd bd
       -0.18448861 -0.00090550527 0.00985371 -0.10017445
000010 e1 4b 01 3c 73 10 86 3d f7 23 ce 3d af 48 1c bc
       0.007891626 0.06546106 0.100654535 -0.0095388135
000020 c0 57 86 3d 36 51 1c 3d 88 66 09 bd bc 79 43 be
       0.06559706 0.038163386 -0.033545047 -0.19089407
000030 47 8c 27 bd b1 4f 01 be 16 89 29 be 98 80 2a 3e
       -0.040905263 -0.12628056 -0.165562 0.16650617
000040 b4 2d ab bc 66 3d 81 bc ae 46 ab 3b 0b f7 14 be
       -0.020895816 -0.015776347 0.0052269315 -0.14547364
000050 87 e6 a3 bd 4e a1 29 be 3f bb 80 3e 96 3c c0 bc
       -0.08002954 -0.16565439 0.25142857 -0.02346639
000060 5b ff 09 3e 89 f6 cb 3d 6e 93 fe bb a6 8f ac bd
       0.13476317 0.09959132 -0.00776904 -0.08425836
000070 21 52 bf bc 9e 3d d3 bd 74 23 12 bc 57 e8 91 bd
       -0.023354592 -0.10314487 -0.0089195855 -0.071243934
000080 44 4d 90 be 9b d5 4e 3e 30 f3 cb bd da e2 69 bd
       -0.2818395 0.20198672 -0.09958494 -0.057101108
000090 52 89 d9 bd 54 91 15 3e c2 aa 0d 3d 71 96 a8 3d
       -0.10621895 0.1460622 0.034586675 0.082318194
0000a0 76 19 2c 3d c6 0f f2 bd 3b 94 b8 be c6 32 c1 3d
       0.04201647 -0.11819415 -0.3605059 0.094335124
0000b0 2f 15 4a 3c 03 09 70 be 08 88 3c bd 1e e7 00 be
       0.012334152 -0.23440938 -0.046028167 -0.12588164
0000c0 fe 3d 11 3e c2 94 fa bd 00 e4 f5 3d f4 e9 aa be
       0.14183804 -0.122354046 0.12006378 -0.33381617
0000d0 24 90 8d 3d 95 9a fe bd 54 ea f5 3d 80 37 0e be
       0.06912258 -0.12431828 0.12007585 -0.13888359
0000e0 d8 85 8f 3e 13 e9 9e 3e 2b f4 d0 3d b1 04 1d be
       0.28031802 0.31037197 0.10202821 -0.15333821
0000f0 de f4 06 3e d4 67 a4 3d 19 f0 41 bc 97 92 c0 3d
       0.13179347 0.08027616 -0.011837029 0.0940296
000100 f1 0c df bd 3e 82 c9 3d 99 34 0e 3d ff 28 aa 3d
       -0.1089114 0.09839295 0.03471813 0.08308601
000110 10 68 95 3d 45 4f ae 3d 4b 84 a6 3d 18 f9 1b 3e
       0.07295239 0.08511213 0.08130702 0.1523174
000120 16 32 25 3e db 48 e0 3d b6 2d 34 be 57 67 de 3c
       0.16132388 0.10951396 -0.17595562 0.027148886
000130 0e c7 e6 bd a1 56 84 bd 88 69 9f 3e a4 6e bd 3d
       -0.112684354 -0.06461836 0.311352 0.09249619
000140 70 d5 08 be e3 f5 80 3d a0 63 57 3d 3e 40 b5 bc
       -0.1336267 0.06296899 0.052585244 -0.02212536
000150 ee d5 eb bd d2 e8 9c 3d 53 b5 76 bd b8 36 8b bd
       -0.11515413 0.076615945 -0.060231518 -0.06797546
000160 39 87 90 bd dc 41 08 bd a2 2f 63 be d2 d1 83 bd
       -0.07057042 -0.033265933 -0.22186139 -0.064365044
000170 5f cc 6e be 9d a2 21 bd 83 51 a2 3e 02 00 fb 3c
       -0.23320149 -0.03946172 0.31702814 0.030639652
000180 5f 9f 52 3d 27 82 39 be 98 d7 9b 3e a1 cf 02 be
       0.05142152 -0.18116055 0.30437922 -0.12774517
000190 d7 97 81 3d 44 ce 46 be f0 76 24 3d 9c 6d be 3d
       0.06327789 -0.19414622 0.04015249 0.0929825
0001a0 42 5e 62 3e ce 79 ca 3b 2b 2b c4 3d b6 68 22 3e
       0.22106269 0.006179071 0.09578546 0.15860257
0001b0 7e a3 f5 3d 4f bc 9f bd cf 19 60 3e d0 92 49 3e
       0.11994074 -0.07799589 0.21884845 0.19684911
0001c0 69 de 22 bd 63 7d 75 be cc 38 4e be 03 0d 17 3e
       -0.039762888 -0.23973612 -0.20138854 0.14751057
0001d0 6c f5 3f 3d f5 3f f6 bc 80 30 ba bd 23 cc 24 3e
       0.046864912 -0.030059794 -0.09091282 0.16093497
0001e0 30 2c 11 be 06 06 ab 3d 3e 23 ee 3d d0 7f 15 3b
       -0.14177012 0.08350758 0.11627816 0.0022811778
0001f0 84 eb 8e bd e1 05 bc 3c 80 42 9c 3c ea 31 79 3d
       -0.06978515 0.022952022 0.019074678 0.060838617

encoder.net.1.running_mean f4 [128]
000000 38 70 1a c1 7d 74 85 3f a5 02 b4 bf 21 4d 25 c0
       -9.652397 1.0426174 -1.4063307 -2.5828326
000010 f9 9e b0 c0 d0 1e 1f 41 a6 c5 45 40 17 e8 0e 41
       -5.519406 9.945023 3.0901885 8.931663
000020 be 1b 5a 41 ce 96 2d c0 e1 9f dd c0 6d 98 24 c1
       13.631773 -2.7123294 -6.9257665 -10.287213
000030 ee b6 ad 40 cd b1 ac c0 f1 c3 09 c1 54 2a 18 41
       5.4285803 -5.396704 -8.610337 9.510334
000040 17 45 11 41 00 43 d7 be 06 79 45 40 0e 04 b0 c0
       9.079368 -0.42043304 3.0855117 -5.500495
000050 2b b6 cd c0 35 15 3c c0 63 ca 25 41 c1 fd b5 c0
       -6.4284873 -2.9387944 10.361911 -5.687226
000060 21 95 21 41 0d 78 25 c1 a0 39 47 c1 ef 2b 34 c1
       10.098908 -10.341809 -12.451569 -11.260726
000070 3f ae 07 c0 9c 3a 86 c0 00 eb ef 40 40 89 0b c1
       -2.1200101 -4.1946545 7.4974365 -8.721008
000080 87 91 05 c1 a5 32 1a 41 55 29 3b c1 0a c2 01 c1
       -8.348029 9.637364 -11.697591 -8.109873
000090 6c be bc c0 7e 03 46 41 b5 de a0 c0 33 5e 73 40
       -5.898245 12.375853 -5.027186 3.8026245
0000a0 2d f5 9d c0 ce a0 dd c0 56 d2 23 c0 df f7 8b 3f
       -4.9361787 -6.9258795 -2.559713 1.0935019
0000b0 83 22 0e 41 71 4d a9 3d 53 d2 2a 41 18 39 63 bf
       8.883426 0.08266724 10.676349 -0.88758993
0000c0 f6 64 f1 40 08 c8 0f c1 76 26 25 c0 7a 86 3a c1
       7.5435743 -8.986336 -2.5804725 -11.657831
0000d0 ea 31 f6 bf 74 38 27 c0 99 0d a6 3e e0 02 7a 40
       -1.9233983 -2.6128206 0.3243225 3.9064255
0000e0 2c 58 34 41 55 77 d4 40 51 62 3a c0 df 28 18 c1
       11.271526 6.639567 -2.9122508 -9.509978
0000f0 8d 6e 14 41 84 13 37 40 bc 39 24 c1 c6 45 ef 40
       9.27699 2.8605661 -10.264095 7.4772673
000100 04 17 d7 c0 06 01 48 40 fc 8b 1d 3f 56 6a d2 c0
       -6.7215595 3.1250625 0.61541724 -6.5754805
000110 d6 46 b3 bf fd 4f 47 3d 63 eb 42 3f 1c f1 80 40
       -1.4005992 0.048660267 0.7614042 4.0294323
000120 74 7b 15 41 3c 7a 4d 41 fa b0 2c c1 d0 f3 83 c0
       9.34264 12.842342 -10.793207 -4.1235123
000130 e8 90 cf be ef 75 3d 41 f2 d7 8b 40 7f d9 4e 40
       -0.40540242 11.841292 4.3701105 3.232025
000140 2f 12 25 c0 2b 18 45 c1 17 a7 b5 be c0 cb 6e 3e
       -2.5792348 -12.3184 -0.35479042 0.23319912
000150 68 5a ff c0 42 e5 bb 40 fa dd e0 c0 6d 05 18 41
       -7.979786 5.8717356 -7.0270967 9.501325
000160 f6 d8 57 c0 27 5f e8 3f 86 92 32 c1 de 72 4b c1
       -3.3726172 1.8154038 -11.160772 -12.715544
000170 01 55 73 c0 90 91 09 c1 52 b1 a5 3f b5 a5 72 40
       -3.8020632 -8.598038 1.2944739 3.791364
000180 93 19 fc c0 a9 31 30 bf 7e 1e 15 41 db dd a5 c0
       -7.878122 -0.68825775 9.319944 -5.183332
000190 79 bc b4 c0 95 a4 02 c1 d4 16 96 40 f1 7e 82 bf
       -5.648007 -8.165181 4.6902866 -1.019499
0001a0 6b d0 81 40 2e a2 03 bf 1f 31 17 bf 15 5d 82 be
       4.0566916 -0.5141934 -0.5905933 -0.2546164
0001b0 16 11 d1 40 68 70 c7 c0 e4 d0 31 41 29 50 f1 40
       6.5333357 -6.2324715 11.113499 7.541035
0001c0 60 75 fc 40 1b 3d a5 c0 8f 6d d1 c0 b3 27 ca 40
       7.889328 -5.163709 -6.544624 6.317346
0001d0 26 13 b3 c0 af 78 30 40 c2 a2 32 c0 2e 5a 82 40
       -5.5960875 2.757366 -2.791184 4.0735083
0001e0 c0 01 f7 c0 c8 2e 33 41 fb 32 e8 c0 97 51 19 41
       -7.7189636 11.198921 -7.256223 9.582419
0001f0 52 21 39 c1 05 a0 3e 41 cd 0f 13 41 cc a9 64 41
       -11.570635 11.914067 9.191358 14.291454

encoder.net.1.running_var f4 [128]
000000 40 89 9c 41 b2 84 b6 41 a3 44 13 41 d0 2e a4 3f
       19.567017 22.814793 9.204257 1.2826786
000010 cb 5e ed 41 d9 a2 23 41 a5 ca c1 41 c7 ff 88 41
       29.671286 10.227258 24.223948 17.124891
000020 fb 21 9f 41 6f 20 1e 42 ce 63 f9 40 0d b7 1b 42
       19.891592 39.531673 7.793433 38.92876
000030 e6 70 89 40 63 fc 08 41 cc 17 95 41 a1 a3 17 41
       4.2950315 8.561618 18.63662 9.477448
000040 92 35 47 41 f5 5c 05 42 ea 1f 76 40 5b af 08 42
       12.450579 33.34078 3.8456979 34.171246
000050 a3 b8 b9 41 e9 2c 3a 41 40 89 24 41 f4 42 d4 40
       23.215155 11.635964 10.283508 6.633173
000060 23 c6 26 42 e0 31 07 42 c3 e0 99 41 0a fe 98 42
       41.693493 33.798706 19.234747 76.49617
000070 09 28 8d 3f f5 95 58 40 5f 68 af 41 45 02 57 41
       1.1027843 3.3841527 21.925962 13.438054
000080 5f 0b 77 41 9a 77 71 41 96 1c b7 41 89 a7 aa 41
       15.440276 15.0917 22.888958 21.331804
000090 fd 20 78 40 e0 bc a8 41 16 bb 8b 40 53 4b 07 40
       3.8770134 21.092224 4.3665876 2.1139724
0000a0 34 b7 e0 40 de 5e 6b 41 f9 f8 5e 41 8f 81 98 41
       7.0223637 14.710661 13.935784 19.063261
0000b0 ad c6 89 41 6e c0 31 40 b0 58 c4 41 46 d8 24 42
       17.22201 2.77737 24.543304 41.211205
0000c0 c1 6c 01 42 61 42 54 41 62 34 24 42 62 ca 11 42
       32.356205 13.266206 41.051155 36.44764
0000d0 c9 9a 3f 40 e6 d1 0c 41 bc b6 49 42 0f 56 04 41
       2.9938223 8.801245 50.42845 8.27101
0000e0 20 21 f9 41 9c e9 f1 40 c6 5d 88 40 8e 11 59 41
       31.141174 7.559767 4.261447 13.566786
0000f0 81 bd 2e 41 cf 32 82 41 95 cd 60 41 8b 61 15 42
       10.921266 16.274809 14.050191 37.345257
000100 a4 25 80 41 53 f2 cf 41 ce e6 14 41 8a a5 ca 40
       16.01838 25.993322 9.306349 6.3327074
000110 21 80 40 40 fc a9 cb 41 fb 43 1e 40 a2 77 c6 3f
       3.0078204 25.458 2.4728992 1.5505259
000120 44 47 14 42 5d a5 01 42 8a 6f 46 41 ab 9b 3f 40
       37.069595 32.411488 12.402231 2.9938762
000130 93 9f d7 40 19 fa f5 41 e0 20 bd 40 62 0e a5 41
       6.7382293 30.747118 5.910263 20.632023
000140 2c e7 b5 41 fc 00 b2 41 74 ac 4e 40 89 4d 39 41
       22.737877 22.25048 3.2292757 11.5814295
000150 97 95 28 41 77 fd ff 41 78 39 e2 41 18 0a ef 41
       10.536521 31.998762 28.27806 29.879929
000160 d8 56 e5 3f c2 e7 9c 41 82 88 ea 41 7d 5f 83 41
       1.7917128 19.613163 29.316654 16.421625
000170 05 e2 9c 40 92 11 05 41 50 92 50 40 8b 44 ba 40
       4.9025903 8.31679 3.2589302 5.820867
000180 9d 52 ed 40 05 d4 07 41 e2 0e bd 41 04 11 dc 40
       7.4163346 8.489263 23.632267 6.877077
000190 e8 88 8b 40 16 77 36 41 3e 78 2a 41 42 fd 82 41
       4.360462 11.404074 10.654356 16.373661
0001a0 83 63 71 40 7b b9 dd 3f a3 40 ce 40 52 bd 88 40
       3.7716987 1.7322229 6.44539 4.2731104
0001b0 b8 e3 33 42 da e2 58 41 bc 61 9b 42 f1 18 21 41
       44.97238 13.555384 77.69089 10.068589
0001c0 64 88 68 42 8b 55 0e 41 28 d0 fe 41 eb d1 0f 42
       58.133194 8.8958845 31.851639 35.954998
0001d0 84 6c 99 40 fc 1e 7a 40 70 75 59 41 e0 93 64 40
       4.7944965 3.9081411 13.591171 3.5715256
0001e0 a4 e4 6c 42 3f 95 38 42 26 70 fa 40 ac 4e bd 41
       59.22328 46.14575 7.82619 23.663414
0001f0 a5 24 34 42 ab 0b 78 41 46 51 4e 42 3b ee a0 41
       45.035786 15.502849 51.57937 20.116323

encoder.net.3.weight f4 [128, 128]
000000 e6 6c 8a 3b c5 90 83 bd 06 ba 6c bc c8 07 47 be
       0.0042244075 -0.06424097 -0.014448648 -0.19436562
000010 e7 6c 05 bd c2 01 04 bc dc 70 7e bc 0c 71 3e b9
       -0.03257456 -0.00805706 -0.015529837 -0.00018161925
000020 27 4a bc bc 33 e2 8f bc c7 f7 02 bb 04 a0 7c ba
       -0.022984577 -0.017563915 -0.0019984113 -0.00096368813
000030 1f 88 fb bd 93 03 b9 bd 95 cd 9b 3d a4 7e 58 bc
       -0.122818224 -0.09033885 0.07607571 -0.013213787
000040 8c d9 d0 bc 97 c9 62 bd 07 6a ef 3d da 7d 99 3d
       -0.02549436 -0.055368032 0.11690145 0.074947074
000050 4a ec e4 bd ea a2 e8 bd 2d 46 99 bd 5e 0e e7 bd
       -0.11177881 -0.113591984 -0.07484088 -0.11282037
000060 d4 90 90 bc ab 69 ce bd b7 19 4c ba 2b a4 22 bd
       -0.017647184 -0.10078748 -0.0007785814 -0.039707344
000070 6e 3c 1d be 36 29 b3 bc 86 24 80 bc 2a 7a 67 bb
       -0.15355083 -0.021870237 -0.015642416 -0.0035320618
000080 d1 c9 49 3b c9 80 51 3d f6 de 44 bc a3 4d ed 3a
       0.0030790458 0.05114821 -0.012016049 0.0018104803
000090 13 ab cb bb f0 ae ae bc 6b f5 a2 be 18 24 87 bd
       -0.006215462 -0.021323651 -0.31827864 -0.06598681
0000a0 6a a5 2b bc bc 88 da bb 1a 30 b5 3c da 34 93 bd
       -0.0104764495 -0.006669132 0.022117663 -0.07187815
0000b0 76 65 90 bd 20 c6 22 bd 72 ad 96 3c af 54 0b bd
       -0.07050602 -0.039739728 0.018393252 -0.034016307
0000c0 cb 19 08 be 6c 55 0c 3b 63 ea f3 bc 37 3b 24 3c
       -0.13291089 0.002141322 -0.02977485 0.010023884
0000d0 25 2a 53 be 9a fc 6d 3d 47 c2 ef bc bf 1c 92 bc
       -0.20621546 0.058102228 -0.029267443 -0.017835973
0000e0 d1 61 15 3c 8a ba cc 3c ee 47 35 3d d1 33 58 bc
       0.0091175595 0.024991293 0.04425805 -0.013195948
0000f0 23 b5 b2 bd 76 c7 60 bd 67 cf 8d 39 aa 15 2c 3d
       -0.08725955 -0.05487772 0.00027048143 0.042012848
000100 89 c9 0e bb 92 4d f5 bd 2a c7 27 bd ac ae 4a be
       -0.0021787605 -0.11977686 -0.040961422 -0.19793195
000110 f9 3d 41 bd 9d cf a2 bd 70 ec a6 bd c4 2d 10 bb
       -0.047178242 -0.07949755 -0.081505656 -0.0021999935
000120 10 e3 63 bd 79 e4 9b bd 3f a8 03 3a e6 63 60 be
       -0.055636466 -0.07611937 0.0005022324 -0.21913108
000130 7e f0 f1 3b 54 8e 1b 3d a0 50 5b bd eb 76 fb bd
       0.007383405 0.03797753 -0.053543687 -0.12278541
000140 9c 64 f8 bd f5 88 26 3d 81 08 8d 3d 59 02 f7 39
       -0.12128565 0.040657956 0.068863876 0.0004711326
000150 f1 6e 16 be d6 76 db 3c e4 9d b9 3d b9 2a 4a 3d
       -0.14690758 0.026790064 0.09063318 0.04935715
000160 b1 9d 9e be ee df 36 bd 05 7b 56 ba 60 d4 81 ba
       -0.30979684 -0.04464715 -0.00081817835 -0.0009905212
000170 45 c7 50 bc 7e 61 4a bb 35 21 43 bd a4 6c 94 bc
       -0.012742822 -0.0030880864 -0.04763909 -0.01811821
000180 fd e2 51 ba c3 43 1e bd 78 d8 d7 bb 29 86 16 bd
       -0.0008006541 -0.03863884 -0.0065870844 -0.03674904
000190 22 bb 80 ba 68 83 9d 3b d4 c1 fa 3a b3 0c 8a 3d
       -0.0009821395 0.0048069246 0.0019131252 0.067407034
0001a0 cd c1 38 bc 4f c4 31 3d 5d 05 24 3d 3c 7c 8d 3a
       -0.011276674 0.043400105 0.040044177 0.0010794471
0001b0 5a 14 18 bd bd 44 98 3c 54 f6 de bc f5 b2 0a be
       -0.037128784 0.018587464 -0.027217068 -0.13544829
0001c0 5f 8a bc bc e4 03 9d bd 56 fb a6 bc 26 d0 d7 bb
       -0.0230152 -0.07666758 -0.020383518 -0.0065860925
0001d0 2b e9 fe 3b c8 bb 9f 3b 13 27 9e bc 5b 38 65 bc
       0.0077792606 0.00487468 -0.019305741 -0.013990487
0001e0 d4 68 11 3d f2 fe 7a bb ad 49 64 be f5 4f df bc
       0.035500363 -0.0038298932 -0.2229373 -0.027259806
0001f0 30 66 c4 ba 61 35 bb bd 6e 32 78 bd 7c 97 a6 bb
       -0.0014984068 -0.091410406 -0.06059497 -0.0050839763
000200 9a 94 b4 bb 1e 1b c4 bb fe 30 01 3c 6a 75 25 3d
       -0.0055108787 -0.005984678 0.007885216 0.040395178
000210 91 25 01 be 6e 4f 0a 3d c9 93 8f bd ac af 58 3d
       -0.12611987 0.033767156 -0.0701061 0.05290191
000220 3f ae 5f bd a6 90 a5 bd 6b d5 38 3d 5d aa 81 bd
       -0.054609533 -0.0808423 0.045125406 -0.06331322
000230 e6 4f b2 3d c4 1a 2d 3b 62 0d ca bd c7 09 0e bc
       0.08706646 0.0026413659 -0.09865834 -0.008669323
000240 5b bb bd bb 49 6a 21 3e 8c 72 8d bd e8 ec af bc
       -0.005790157 0.15763201 -0.06906614 -0.02147527
000250 8b c6 36 3b 40 37 7b 3a 61 f5 87 3c 60 7c 1e 3b
       0.0027889337 0.0009583123 0.016596498 0.002418302
000260 c4 6a 43 3c 87 a3 99 3d ce e0 b3 3a e3 50 94 3d
       0.01192731 0.075018935 0.0013723613 0.072419904
000270 0b 94 9a 3a e5 50 8a 3d 8a 2f 9f bc ba bf a3 bc
       0.0011793388 0.06753711 -0.019431848 -0.019988883
000280 ea 47 ef 39 3b 45 7b ba 81 64 0d 3b f8 00 7e ba
       0.00045639212 -0.0009585206 0.0021574798 -0.00096894754
000290 a6 b0 98 3a fe 9c 5f bb b3 35 ea 3d da a9 04 ba
       0.0011649325 -0.0034120674 0.114360236 -0.000506071
0002a0 93 1f 86 3d c5 05 d4 bd f3 77 9c bc f6 fc d9 bc
       0.06548991 -0.10352663 -0.019100165 -0.026609879
0002b0 40 3b 11 bc de 27 be ba d8 84 68 b9 10 17 00 3b
       -0.008864224 -0.0014507731 -0.00022174732 0.0019544996
0002c0 d2 c0 4f bb 40 a1 bd 3a 8b f0 12 bd e2 86 97 bc
       -0.0031700623 0.0014467612 -0.03587393 -0.018496934
0002d0 a2 58 10 3d c0 4e aa bb 8f fc 5b bd 4b 93 26 bd
       0.035240777 -0.005197376 -0.053707656 -0.040667813
0002e0 27 80 d0 bc 3d e8 84 bd 0a fa 87 bd ea a3 34 3b
       -0.025451733 -0.064896084 -0.06639488 0.002756352
0002f0 ec d0 d9 bc ad 12 59 3d 5e 11 2f bc c1 73 fc 3c
       -0.02658888 0.052996326 -0.010685293 0.030816915
000300 4b 4e 81 bc 03 11 79 bc 12 6a b3 bc 3b 4f 08 3e
       -0.015784403 -0.01520181 -0.021901164 0.13311474
000310 cb 8e 04 ba 29 ce 00 3e 65 a6 1a bc 5d b4 60 bd
       -0.0005056678 0.12578644 -0.009439086 -0.054859508
000320 2e c9 a8 bd e9 65 b6 bd 8b ed 16 3d 84 ac 1d 3d
       -0.08241497 -0.089061566 0.036847632 0.0384946
000330 08 66 cc bc 54 e6 74 3c c7 96 7a 3c be 3c 42 bb
       -0.024950996 0.014947493 0.015294737 -0.0029638256
000340 af 9f 97 3d 5c f7 bd bc be 27 69 bd 16 f2 b3 bd
       0.07403504 -0.02318924 -0.056922667 -0.087864086
000350 d7 4e d6 bb 98 ff a8 bb 62 cb 9a bc da 96 31 b9
       -0.00654016 -0.0051574223 -0.018895809 -0.00016936232
000360 da 55 bd 3d dd d9 3c 3a 3a 01 90 3a 4d 67 16 3d
       0.092448905 0.0007204095 0.0010986694 0.03671961
000370 21 3f 88 3a b5 a0 72 3a 2c 45 e8 bc cb 96 82 3d
       0.001039479 0.00092555146 -0.028353296 0.06376418
000380 cf 33 b1 3a 52 3e 3c 3c 06 e2 d2 bb e0 5c 87 bd
       0.0013519468 0.011489468 -0.0064356355 -0.066095114
000390 80 47 a3 3a 14 7b 49 3a e9 54 8f 3d 70 c6 e4 bd
       0.0012457222 0.00076858816 0.06998617 -0.111706614
0003a0 ba 83 12 39 bc f4 0d bb b4 ce 0d 3e 4d d4 37 bd
       0.00013972717 -0.0021660766 0.13848382 -0.0448802
0003b0 9a 2a a1 3c 52 e2 c4 3a 9c 85 9f bd 2a b6 39 bb
       0.019673634 0.0015021062 -0.07789156 -0.0028337338
0003c0 a0 0f aa 3d cd 16 ae 3d 4b 0c b3 3c b7 52 8f 3d
       0.083037615 0.08500443 0.021856448 0.069981985
0003d0 54 d9 6e 39 11 58 47 3d a6 08 39 3b 13 1d 8f bd
       0.0002277841 0.04866797 0.0028233915 -0.06987967
0003e0 00 c6 3c bd cb ef 89 3d b2 1f 39 3c 38 b9 3b bb
       -0.046087265 0.0673519 0.011299061 -0.0028644335
0003f0 6c 95 ba bb 1f e2 e4 bc 03 47 02 3c 45 68 dd 3c
       -0.005694082 -0.027939854 0.007951501 0.027027259

encoder.net.3.bias f4 [128]
000000 2d d0 9d bd 8b a3 94 bd c7 c9 bc bd bc 0e c4 3b
       -0.07705722 -0.07257756 -0.092181735 0.005983202
000010 60 26 75 bd d6 67 47 bd 78 2c a5 3d c8 4e b0 bd
       -0.05985105 -0.04868301 0.08065122 -0.08608776
000020 e9 66 58 bc a6 7a 25 3d b0 7d 24 bd 99 3a 37 3d
       -0.013208129 0.04040017 -0.040158927 0.044733617
000030 6f bd f8 bb 0d 68 a6 bc 59 68 e5 bc 40 35 c6 bc
       -0.0075909416 -0.020313287 -0.028003858 -0.024195313
000040 04 f3 c0 bd be 85 07 bd 40 23 ce bc a7 9a 81 3d
       -0.094213516 -0.03308653 -0.025163293 0.06328326
000050 58 89 11 bd 52 eb 86 3d 01 c7 6a bd a7 6e 09 bd
       -0.03553137 0.065878525 -0.05731869 -0.033552792
000060 d3 bc df 3b d9 3a 2e 3d 6d 86 9d 3d 61 69 1f 3d
       0.0068279295 0.04253659 0.07691655 0.038918857
000070 bc cb 89 bd 5f c9 65 bb 96 45 6d 3d 5e dd b6 3d
       -0.067283124 -0.0035062653 0.05792769 0.08928941
000080 d8 c2 96 3d dd c5 02 3d 75 00 57 bc 35 59 92 3d
       0.07361382 0.03192698 -0.013122668 0.07145921
000090 fc 93 a2 3c 98 4a b8 bd bd e6 80 3d 08 87 8d ba
       0.019845955 -0.08998603 0.0629401 -0.0010797689
0000a0 f8 41 d3 3d 4b f6 00 3d c3 79 56 3c 40 59 ac bd
       0.10315317 0.031484883 0.013090554 -0.084154606
0000b0 d1 cb a9 bd 6a 2b 30 bd f7 f6 26 3d cb 8f d8 3c
       -0.08290828 -0.043010153 0.040762868 0.026435753
0000c0 b0 ac 30 3c a2 97 c3 bd 6b 2a 78 3d 93 78 2d bd
       0.010783359 -0.09550406 0.060587328 -0.042351317
0000d0 89 09 40 3d 17 43 96 bd dd ae a6 bb 6e 80 fe 3c
       0.046884093 -0.07337015 -0.0050867633 0.0310671
0000e0 16 ac 18 3d 5d d0 95 bd 65 5b 68 3d 9b f3 37 bd
       0.03727349 -0.07315133 0.056727786 -0.044910055
0000f0 fc e7 aa bd 85 df b0 bd ab d9 94 bd 11 af e3 3c
       -0.08345029 -0.08636383 -0.07268079 0.02779344
000100 a8 8c 74 3d 81 1b 8f 3d be 6b 7f 3d dc ba fb ba
       0.059704453 0.06987668 0.06235861 -0.0019205469
000110 43 a7 03 3c 26 25 a7 3c 88 4a 9d bd dc ad 69 bb
       0.008035484 0.020403456 -0.07680231 -0.0035656607
000120 1e fa e9 3c a5 c9 91 3d 88 ce 58 3d 38 51 2f bd
       0.028561648 0.07118539 0.05293134 -0.042802066
000130 5e c3 85 bb e6 73 48 3d 58 4f 6b 3d 6b 45 31 bd
       -0.0040821275 0.048938654 0.057448715 -0.043279093
000140 d6 e2 ac 3d e7 42 87 bb ff 44 83 bb 44 e5 b3 bc
       0.08441703 -0.0041278484 -0.0040060277 -0.021959908
000150 4f ea a1 3d 0d e1 b9 bd 99 f9 07 bd 48 c5 85 bd
       0.07906019 -0.09076128 -0.03319702 -0.06531769
000160 f4 b7 9d bc c1 31 7d 3d 34 0d ee bc 58 a9 51 bd
       -0.019252755 0.061815027 -0.02905903 -0.05118689
000170 be 7b 42 3d ca 77 fd 3c 13 88 cc bc c3 0b 16 bd
       0.04748129 0.030940909 -0.024967229 -0.03663231
000180 3a a2 50 3c bf e1 2d 3d cb d5 89 3d ff 89 c5 3c
       0.01273399 0.042451616 0.06730231 0.024113653
000190 57 bf 4d 3c fe 5c aa 3c db 5d 80 3c 5b ff be 3c
       0.012557826 0.020796295 0.015669754 0.023315122
0001a0 ab dc 10 bd 80 70 57 bd 71 79 0c 3d e2 c7 f0 3c
       -0.035366695 -0.052597523 0.034295503 0.029392187
0001b0 90 e7 40 bd 0f cc 42 bd 83 f6 3c 3d 48 e4 bf bc
       -0.047095835 -0.047557887 0.04613353 -0.023424283
0001c0 8d e6 a6 3d 00 08 8e 3c 28 d5 03 3c 74 e6 08 bd
       0.08149443 0.0173378 0.008046426 -0.033422902
0001d0 12 92 dd bc 8c 24 68 3c 15 ee 6b bd 55 a5 32 bd
       -0.02704719 0.01416887 -0.0576001 -0.043614704
0001e0 b7 8f c4 bc ab 57 85 bc f2 d2 80 bd af 89 09 bd
       -0.02399431 -0.016277155 -0.062902346 -0.03357857
0001f0 ba 9c 6c bc 1d f5 22 3d 49 7f 38 3d e1 7d 32 3d
       -0.014441663 0.03978454 0.045043264 0.04357708
