Mixture_of_latest_Koopman_NN/results_vanderpol_temporal/best_model.pth (torch, 178421 bytes, 30 tensors)

A_f f4 [20, 20]
000000 3a 8d 7e 3f fc 8d 54 3b ca e5 29 3b 28 45 86 3b
       0.99434245 0.0032433262 0.0025924318 0.0040975995
000010 68 55 dc 3b f3 a4 ce 3a 57 9b bb bb f9 ed 82 3b
       0.0067240484 0.0015765711 -0.005725305 0.0039956537
000020 48 2c e0 ba cb fc dc bb 71 6c c9 3a dd 5d 9e bb
       -0.0017103041 -0.0067440025 0.0015367401 -0.0048329667
000030 9b 73 31 3b 8e 92 96 ba 3b 28 8a 39 2e f1 6b 3b
       0.0027076963 -0.0011487768 0.00026351385 0.0036001909
000040 54 3c 86 bb 46 3b da bb 8a bd 0a 3c a9 60 05 3c
       -0.004096547 -0.006659898 0.008468041 0.008140721
000050 53 be eb bb 00 84 7c 3f e7 ae 24 3b 4e d3 2b ba
       -0.0071943193 0.98638916 0.0025128664 -0.0006554619
000060 71 ed 62 3c 1e 69 cd 3a 5f ed b8 bc b4 04 ca 3c
       0.013850556 0.0015671586 -0.022574125 0.024660446
000070 c7 89 d1 ba 6a 59 31 ba 77 d8 cb 3b d0 18 50 bc
       -0.0015986495 -0.0006765338 0.006220873 -0.012701228
000080 55 39 34 3b 28 dd c9 ba df d0 c6 38 75 82 f6 bb
       0.0027499993 -0.0015400993 9.480281e-05 -0.007522876
000090 f9 65 17 bc 50 5a 4b 3c 85 45 a4 3b 7b 71 61 3c
       -0.009240621 0.012411669 0.00501317 0.013759966
0000a0 95 45 37 3c 83 0d 70 bb 86 74 7e 3f 6e 0a 63 ba
       0.011186023 -0.0036629147 0.9939655 -0.0008660917
0000b0 0c 6a 8d bb 08 d8 9c 3b 5a 29 53 bb 0f 88 27 ba
       -0.0043156203 0.004786495 -0.0032220692 -0.0006390819
0000c0 89 51 03 bc e1 af 6b 3c 70 15 76 3b ed 4c ae bb
       -0.008015045 0.0143851945 0.00375494 -0.005319229
0000d0 4c 2f 83 bb ee 6d ab ba ca 88 c5 3b 85 6a 94 3b
       -0.004003441 -0.0013079026 0.0060282694 0.0045292997
0000e0 13 2c 24 bc ef fe 97 3c 4d 0e 38 3b da 79 4a ba
       -0.010020274 0.018554179 0.0028084696 -0.0007723846
0000f0 89 ec f2 3b f3 c2 6e 39 a6 cc f8 37 00 82 80 3f
       0.007413451 0.00022770073 2.96592e-05 1.0039673
000100 4e e4 05 3c c5 ba 8a 38 21 10 18 3b 09 8d 7f 3b
       0.008172108 6.615141e-05 0.0023202973 0.0038993976
000110 b0 38 33 b9 a0 da 9d 3a 28 3d be bb 53 bc 96 3b
       -0.00017091888 0.0012043305 -0.0058056302 0.0046000867
000120 95 6a 42 b8 be 52 74 39 26 2b 39 37 6e 01 98 3a
       -4.6352467e-05 0.00023300477 1.1036906e-05 0.0011597106
000130 74 d3 cc ba 8f 57 66 3b ca ad de 3a 9a 01 2e 3b
       -0.0015626983 0.0035147404 0.0016989049 0.0026551248
000140 c0 b4 25 39 86 ff 5c 3a 26 f2 df b9 76 3b 41 3b
       0.00015802961 0.000843041 -0.0004271429 0.0029484904
000150 d0 34 7e 3f a1 66 a3 b9 56 ca fd b9 d1 f2 c2 3b
       0.99299335 -0.00031166247 -0.00048406672 0.005949356
000160 0c 2d 86 39 ff 12 0e bb 44 c8 d9 ba 87 2d c3 b9
       0.00025592034 -0.0021678803 -0.001661547 -0.0003722722
000170 12 a3 16 ba df a9 d5 b8 a4 82 fa b8 95 8a 1f bb
       -0.0005746345 -0.000101882724 -0.00011945263 -0.0024344076
000180 89 24 bd 3a fa f5 56 bb f6 a6 87 3b 8d b9 69 b9
       0.0014430444 -0.0032800422 0.0041397763 -0.00022289735
000190 e6 be e7 bb 1b c1 24 3d 1e 70 87 3c 23 17 9d bb
       -0.0070723174 0.040223222 0.016532954 -0.004794018
0001a0 bc cf 5c bc 55 88 7f 3f 8d 4d 07 3b d7 3c 96 bc
       -0.013477262 0.998174 0.002064559 -0.018339558
0001b0 1c 28 c7 3b 90 46 2f 3d 44 e6 d7 bb d8 63 72 3d
       0.0060777795 0.042791903 -0.006588729 0.05917725
0001c0 e1 c9 cc 3c 7a b8 f3 ba 68 46 08 bc 9f 6b 25 bd
       0.024998607 -0.0018594407 -0.008317567 -0.04038584
0001d0 e5 e3 18 3d a8 65 0d bd 4b c8 c3 bb 48 19 10 bb
       0.037326712 -0.034520775 -0.0059748045 -0.0021987725
0001e0 7d d2 bd 3b 04 40 d7 3b ee 3b 59 3a cb 85 a8 39
       0.0057929144 0.0065689106 0.0008286823 0.0003214314
0001f0 82 1f fd ba c4 76 d6 39 4a 4b 7f 3f 29 ed 24 bc
       -0.0019311758 0.00040905748 0.99724257 -0.010066309
000200 b9 44 21 ba b8 8d 18 bb 61 63 83 ba 67 fd 7d bb
       -0.0006151903 -0.002327783 -0.0010024124 -0.0038755776
000210 21 97 50 3a 74 5e 8c b9 65 44 64 b9 06 4a 42 3b
       0.000795709 -0.00026773254 -0.00021769253 0.0029646172
000220 32 66 6c bb 60 8b 41 b9 cd 18 93 bb f0 f9 dc 3a
       -0.0036071655 -0.00018457836 -0.0044890405 0.0016859155
000230 7c 65 6a 3c 15 fa 9d 3b 11 a7 e8 ba ea c6 e8 37
       0.014306422 0.004821072 -0.0017749985 2.7749182e-05
000240 e0 be 8d bc bf 9a a3 ba e5 17 c4 3c 6b d4 7b 3f
       -0.01730293 -0.0012482031 0.023937175 0.98371
000250 27 12 93 3a d2 a5 96 3b ce 8d a2 ba a0 16 96 3c
       0.001122062 0.004597404 -0.001240188 0.018321335
000260 06 72 f7 ba c3 46 5b 3a 4d 0d 8c b8 99 93 b3 bc
       -0.0018878586 0.00083647313 -6.678198e-05 -0.021920966
000270 6c fb b7 3c f9 39 8e bb 9a 44 af bb 42 2f 71 bc
       0.022458754 -0.004340407 -0.005348754 -0.01472074
000280 8c a5 bb bb e0 e2 1f bc 1c f8 d6 3c b6 1b 61 bb
       -0.005726522 -0.009758681 0.026241355 -0.0034348792
000290 dc 3e d3 ba 25 68 1e 3c 62 0b 13 3b ef 64 88 3a
       -0.0016116756 0.009668385 0.0022437205 0.0010406057
0002a0 29 e1 7b 3f 68 d1 f9 3c 45 2a 48 bc bb ba a3 3c
       0.9839044 0.03049536 -0.012217109 0.019986501
0002b0 ff 42 ce 3c af 57 55 bc 55 15 57 3b 2c 5f 63 bb
       0.02517843 -0.013021394 0.0032819111 -0.0034694178
0002c0 a2 e3 9c 3b 1f 97 28 3c 1e 48 b1 ba 63 8d 87 3a
       0.004787878 0.010289936 -0.0013525521 0.0010341819
0002d0 9d 2c a4 3c ec 31 58 3c 24 ce d1 ba 95 41 44 3c
       0.020040805 0.013195496 -0.0016006869 0.011978527
0002e0 ab 36 da bb 79 70 a7 ba 0e 9f d0 bb b7 21 11 bd
       -0.006659349 -0.0012774608 -0.006366617 -0.035432544
0002f0 ee f3 9c 3a 5a dc 81 3f 44 46 89 bc 4c 64 1d 3d
       0.0011974552 1.0145371 -0.016757138 0.03842573
000300 56 b7 b1 ba 2f 42 8a b9 56 6d 01 ba 87 cb 70 bc
       -0.0013558667 -0.00026370722 -0.0004937252 -0.014696962
000310 1f 59 a3 3c ed c9 2f bb b2 22 39 bc cc 4e 86 bb
       0.019939957 -0.0026823238 -0.011299776 -0.004098749
000320 a7 05 3f bc 30 1e ae bc 79 a8 b2 3a 5f 83 47 bc
       -0.0116590625 -0.021254629 0.0013630531 -0.012177317
000330 ae 25 23 3a 73 d0 67 3a 31 d6 81 3b d0 38 67 3b
       0.0006223571 0.0008843012 0.003962301 0.0035281666
000340 7a 44 6c ba 64 8d 6d bb 67 8c 80 3f 00 23 a2 bb
       -0.00090128893 -0.0036247605 1.0042847 -0.00494802
000350 69 87 ad 3a c2 23 ab b9 d5 88 98 39 0c a5 57 3b
       0.0013239208 -0.00032642303 0.00029093647 0.0032904772
000360 20 00 e1 ba d2 22 71 3a 81 47 c7 3b e1 09 07 bb
       -0.0017166175 0.0009198609 0.006081522 -0.0020605254
000370 3d 32 3f 3b b8 aa 17 3d 75 0b 20 b9 54 1c 04 3c
       0.0029174231 0.037028044 -0.00015263057 0.008063395
000380 9f 93 65 3b ef 03 ce b8 76 c5 9e 3b 52 30 64 bc
       0.0035030616 -9.823578e-05 0.0048453165 -0.013927536
000390 89 48 83 b7 6c 01 b1 bb 55 61 83 bb 0a 93 7f 3f
       -1.5650194e-05 -0.005401781 -0.0040094056 0.9983374
0003a0 b2 17 c3 b8 73 89 79 39 d4 56 9e b8 59 34 81 3b
       -9.302738e-05 0.00023797694 -7.5502e-05 0.003943008
0003b0 34 9a d8 3a 9e d7 e3 bc f0 4d 22 bc 5b 50 22 3c
       0.0016525448 -0.027812775 -0.009906277 0.009906854
0003c0 80 d3 9f 3c f7 2f f4 3c 3a e1 50 3c 44 32 a2 3b
       0.01951003 0.029808028 0.012749011 0.00494984
0003d0 c0 48 62 bc 30 6b 05 bb 59 e8 40 bc f7 ae 71 bb
       -0.01381129 -0.0020358078 -0.011774146 -0.0036877969
0003e0 8a ef 01 bc 9a 7d 3b 3d 3e a6 3d bc 4c 6c 71 3d
       -0.007930646 0.04577408 -0.01157528 0.05894117
0003f0 4a f9 81 3f a7 9e 02 bc fd 57 94 3b fa b1 fe bc
       1.0154202 -0.007972396 0.0045270906 -0.031090725

A_b f4 [20, 20]
000000 5b b3 80 3f 0d 92 64 bb 92 83 2d bb 2b e4 8d bb
       1.0054735 -0.0034877092 -0.0026476127 -0.0043301783
000010 65 73 df bb 8d b0 d9 ba 7e 53 c0 3b 4b 57 59 bb
       -0.006819176 -0.0016608402 0.005869328 -0.0033163603
000020 3d 4b e0 3a 8c 13 df 3b 98 df a4 ba 74 13 9d 3b
       0.0017112267 0.00680775 -0.0012578843 0.0047935788
000030 a4 59 36 bb e0 8e 8e 3a 2c 56 97 b9 ee 56 80 bb
       -0.0027824426 0.001087632 -0.00028865167 -0.003916613
000040 8e 36 88 3b b5 67 e3 3b 32 c1 08 bc 73 60 08 bc
       0.004156894 0.006939853 -0.008346843 -0.008323777
000050 8c 94 f7 3b 1e a4 81 3f ca f4 2a bb cf 47 b9 39
       0.00755555 1.012821 -0.0026085847 0.0003533945
000060 b9 93 70 bc 1d 74 dd ba 33 ec c0 3c 08 50 cb bc
       -0.014683657 -0.0016895566 0.023550129 -0.024818435
000070 06 d6 da 3a a0 04 60 3a 5a f0 c5 bb f2 0f 5d 3c
       0.0016695864 0.0008545611 -0.006040615 0.013492571
000080 ac d7 3c bb f1 b5 cb 3a 6b 3e e6 b8 c5 af f1 3b
       -0.0028815074 0.0015541894 -0.00010978881 0.0073756897
000090 05 e8 20 3c 1e 86 43 bc 36 71 9f bb cf 0d 6f bc
       0.009820943 -0.0119338315 -0.0048657907 -0.014590695
0000a0 17 e0 34 bc 0e 3d 58 3b 8f be 80 3f 1d 71 36 3a
       -0.011039755 0.0032995376 1.0058154 0.0006959604
0000b0 c4 55 8c 3b 4f 4d 9c bb 89 ba 55 3b b6 70 84 38
       0.004282685 -0.004769958 0.0032612404 6.3152445e-05
0000c0 0d ae 06 3c d2 d5 6f bc 70 a6 74 bb 50 4e b8 3b
       0.008220208 -0.014638381 -0.003733065 0.00562457
0000d0 8e 30 73 3b e0 d7 ad 3a ff a2 c8 bb fd 64 8d bb
       0.0037107798 0.0013263188 -0.0061229463 -0.0043150173
0000e0 02 19 26 3c 94 a8 98 bc af da 29 bb ba fb 3c 3a
       0.010137798 -0.018635072 -0.00259177 0.0007209141
0000f0 0f 67 ec bb 85 86 a7 38 54 4c 26 37 ea 04 7f 3f
       -0.007214434 7.988237e-05 9.912143e-06 0.99616873
000100 98 e3 06 bc f2 ad ad b8 00 d4 13 bb e0 90 87 bb
       -0.0082329735 -8.281683e-05 -0.0022556782 -0.0041371435
000110 91 ab 14 39 78 b6 a2 ba 9b 4c bc 3b c8 c6 8f bb
       0.00014178293 -0.0012413999 0.005746437 -0.0043877102
000120 77 66 8c 38 1d bf 81 b9 9a 08 ad b7 01 e7 97 ba
       6.694806e-05 -0.00024747188 -2.0627213e-05 -0.001158923
000130 e5 4d d5 3a fc 47 7a bb 19 83 e4 ba 96 37 31 bb
       0.0016273825 -0.0038189879 -0.001743409 -0.0027041188
000140 94 ac d5 b8 55 4a 4f ba 0a 6e d4 39 33 56 3d bb
       -0.00010188777 -0.00079074997 0.00040517777 -0.002889049
000150 ba e6 80 3f e7 cd aa 39 29 56 18 3a 3f b0 bf bb
       1.0070412 0.00032578336 0.00058111787 -0.0058498676
000160 96 ee 8e b9 2c 8a 0f 3b 5c 69 e2 3a e6 19 d0 39
       -0.0002726211 0.0021902425 0.0017273831 0.00039692147
000170 c9 ca 14 3a b4 94 ca 38 23 99 80 38 f1 d6 19 3b
       0.00056759693 9.659809e-05 6.1320396e-05 0.0023474062
000180 da f7 b2 ba 34 d5 54 3b 15 73 8a bb 5a 2d 1d 39
       -0.0013654188 0.0032475712 -0.0042251446 0.00014989582
000190 de db 0b 3c 88 0c 13 bd 7c 57 84 bc 3d 47 e5 3b
       0.008536307 -0.035900623 -0.016154997 0.0069970177
0001a0 8f bb 66 3c 91 37 80 3f b0 ae 80 bb fe 77 85 3c
       0.014082803 1.0016958 -0.0039270744 0.016292568
0001b0 23 5d d4 bb 5b 70 27 bd 8f bd a5 3b 7a 71 68 bd
       -0.0064808293 -0.040878635 0.0050579975 -0.056748845
0001c0 c1 c3 c8 bc 7a fa dc 3a fa f2 0a 3c 92 18 20 3d
       -0.024507405 0.0016859316 0.008480782 0.039085932
0001d0 ee 3f 15 bd 65 bf 07 3d 55 41 85 3b 3b d0 48 3b
       -0.03643792 0.033141512 0.004066626 0.0030641693
0001e0 d5 62 c8 bb de 4b e4 bb 94 1c 4a ba 55 44 df b9
       -0.0061152973 -0.006967052 -0.0007709947 -0.00042584786
0001f0 41 d4 15 3b 37 f1 b6 b9 95 4a 80 3f a4 d3 2e 3c
       0.002286211 -0.00034893464 1.0022761 0.010670576
000200 03 56 3d 3a a7 0e 13 3b cd de 95 3a 19 7f 66 3b
       0.00072225946 0.0022439153 0.0011434198 0.003517097
000210 04 3a 37 ba 81 50 85 39 1c d7 83 39 59 9a 36 bb
       -0.0006989541 0.00025427717 0.00025146536 -0.0027862994
000220 5d a4 56 3b e0 34 05 3a e2 70 9c 3b 25 7a b1 ba
       0.0032751777 0.00050814264 0.004774199 -0.001354043
000230 51 49 66 bc 47 2a 55 bb a9 dc ef 3a 38 6c 79 3a
       -0.014055566 -0.003252642 0.0018300015 0.0009514722
000240 bc 66 93 3c 9e 26 b1 3a 1c 9c ca bc 6f f4 81 3f
       0.017993324 0.0013515537 -0.024732642 1.015272
000250 32 cf 97 ba b9 5d 99 bb bf 16 38 3a 2f 1a 97 bc
       -0.0011582135 -0.004680362 0.00070224324 -0.018445102
000260 a8 07 02 3b d6 7f 52 ba 68 e1 f7 38 9e 4b b8 3c
       0.001984099 -0.00080299133 0.00011819863 0.022496995
000270 7e 5b bb bc 68 c1 5c 3b b3 9c 99 3b cc 7b 7c 3c
       -0.022870775 0.0033684615 0.0046878695 0.015410375
000280 b7 38 f8 3b 88 22 48 3c 90 b7 db bc be 49 84 3b
       0.0075751203 0.012215264 -0.026820928 0.004037111
000290 18 17 55 3a 6c 97 23 bc b1 91 1c bb 09 24 50 bb
       0.00081287464 -0.009984832 -0.002389055 -0.003175976
0002a0 bf 13 82 3f dc 90 ee bc f1 e7 3f 3c ca a1 91 bc
       1.0162276 -0.029121809 0.011713014 -0.017777342
0002b0 a3 8f d2 bc 60 32 58 3c 4d 4f 55 bb e6 d1 26 3b
       -0.025703257 0.013195604 -0.0032548488 0.00254547
0002c0 0e cd 6b bb 09 3b 2f bc e8 55 3e 3a ef 6e b9 ba
       -0.0035980376 -0.010695227 0.0007260726 -0.0014147441
0002d0 fd 54 a2 bc d5 03 33 bc 5e 83 da 3a 20 3e 2f bc
       -0.019815916 -0.010926207 0.001667123 -0.010695964
0002e0 f7 6a ff 3b 9a 70 ab 3a e1 d9 aa 3b bd e3 0d 3d
       0.0077947336 0.0013079823 0.0052139615 0.034641016
0002f0 f4 47 9f ba 68 39 7c 3f 49 26 83 3c 61 f2 1d bd
       -0.0012152181 0.98525095 0.016009467 -0.03856123
000300 6e 3f bc 3a 54 56 63 39 78 7e 01 3a 44 89 7c 3c
       0.0014362165 0.00021680567 0.0004939805 0.015413586
000310 cc 1e a8 bc 75 79 b5 3a b6 d8 2e 3c 8b 69 b1 3b
       -0.020522498 0.0013845401 0.010671785 0.005414193
000320 89 91 3f 3c 80 3f ad 3c 54 fc ba ba dd ae 42 3c
       0.011692413 0.021148443 -0.0014265873 0.011882511
000330 8c be a1 ba 8a e7 72 ba ae 94 5f bb 0d 9c 76 bb
       -0.0012340113 -0.00092660694 -0.003411572 -0.0037629635
000340 5e 7f 7e 3a 8e 32 78 3b 57 eb 7e 3f 6f 67 a9 3b
       0.000970831 0.003787193 0.9957785 0.005169801
000350 35 c5 b5 ba 06 d4 ae 39 fc fb 8e b9 1c e6 5b bb
       -0.0013867976 0.00033345836 -0.00027272094 -0.0033553904
000360 cb 74 05 3b 2e 01 75 ba 24 97 c9 bb b1 f5 c5 3a
       0.0020363803 -0.0009346184 -0.0061520506 0.0015103129
000370 00 25 6f bb 13 13 18 bd cd 57 91 39 2f fb 02 bc
       -0.003649056 -0.037127566 0.00027721972 -0.007994457
000380 29 48 34 bb 62 f0 35 39 9c 49 c0 bb 2a 18 7c 3c
       -0.002750883 0.00017351055 -0.00586815 0.015386621
000390 18 54 10 b8 3a dc ad 3b 94 2a 8c 3b 6f 15 80 3f
       -3.4410594e-05 0.005305794 0.0042775366 1.0006541
0003a0 cb 26 75 39 e8 94 a8 b9 20 d5 ae 38 d2 df 97 bb
       0.00023379472 -0.000321544 8.336664e-05 -0.0046348358
0003b0 61 37 0b bb 15 11 e5 3c 0d db 24 3c a8 ee 16 bc
       -0.0021242725 0.027962247 0.010061991 -0.0092121735
0003c0 53 13 90 bc ce fa d5 bc 0d 02 56 bc 98 3b 3e bb
       -0.01758734 -0.02612057 -0.013062012 -0.002902722
0003d0 7d a4 6b 3c 45 2b 00 3b b7 94 2d 3c 6d d1 70 3a
       0.014382479 0.001955704 0.010594538 0.00091864803
0003e0 8c 5f 02 3c 9a 77 38 bd d5 f6 2a 3c fc dd 69 bd
       0.00795735 -0.045035936 0.010434826 -0.057096466
0003f0 24 f5 7b 3f d9 e8 00 3c cc 90 8f bb 67 99 fc 3c
       0.9842093 0.007868015 -0.004381275 0.030834867

encoder.net.0.weight f4 [128, 2]
000000 a2 fd b2 36 fa 71 09 38 b6 d9 72 39 b3 9c 35 39
       5.33434e-06 3.2769494e-05 0.00023160022 0.0001731988
000010 7f 81 5c 38 c0 7a b9 34 ef 67 63 37 ad c8 91 b8
       5.257269e-05 3.4548248e-07 1.3554453e-05 -6.9515176e-05
000020 43 25 a8 b7 b0 de ba 35 e0 70 37 37 d4 07 00 37
       -2.0044512e-05 1.392289e-06 1.0933931e-05 7.631217e-06
000030 e6 a5 76 38 3f 53 2b b9 ff a3 d6 b7 28 21 4a b8
       5.8805475e-05 -0.00016338842 -2.5587155e-05 -4.8191432e-05
000040 62 01 5c b8 45 c3 32 b8 3e 53 a6 b7 4e 15 08 b8
       -5.2453375e-05 -4.2620366e-05 -1.9827505e-05 -3.244477e-05
000050 e9 2c 96 b6 4a 6e 45 b8 c4 3f 7f bd 75 88 f1 3d
       -4.4755766e-06 -4.7071175e-05 -0.06231667 0.11793605
000060 30 dd 45 35 e8 91 9d 37 e9 11 59 39 58 0e a6 36
       7.371009e-07 1.8783801e-05 0.00020701405 4.9488553e-06
000070 e2 14 6d b8 fe c9 0c b8 71 7c a4 38 ec 85 b5 b8
       -5.6524652e-05 -3.356672e-05 7.8433084e-05 -8.6556975e-05
000080 9c 16 47 b8 ca 0f 3f 38 a2 6d dc 36 4a 11 7f b7
       -4.7466354e-05 4.5552653e-05 6.569274e-06 -1.520321e-05
000090 cc 8e 24 37 67 94 f4 37 37 e5 23 3e 94 bf f4 3d
       9.808409e-06 2.9156172e-05 0.16005407 0.11950603
0000a0 e0 3b a7 34 70 f0 0c b9 84 07 51 3d 76 f6 0b be
       3.114974e-07 -0.0001344101 0.051032558 -0.13668236
0000b0 7c 8a 25 b9 5a 17 2a b9 1a e3 29 b7 78 41 79 b7
       -0.00015787216 -0.00016221163 -1.0126061e-05 -1.48568e-05
0000c0 97 93 13 39 54 08 2a 37 b3 76 b6 b7 10 35 7b b7
       0.00014073994 1.0134729e-05 -2.1751364e-05 -1.497312e-05
0000d0 0e 1a 28 b8 98 9f 9c 36 a8 4d 58 3e 89 d2 3e be
       -4.0078587e-05 4.6677415e-06 0.21123374 -0.18635
0000e0 38 2f c5 b8 a3 c0 89 39 a0 43 90 36 94 c5 cb b6
       -9.402487e-05 0.00026274202 4.299407e-06 -6.0728726e-06
0000f0 82 6e 02 38 e0 0e 76 b6 c0 63 06 38 ec 8a 1c b9
       3.1097334e-05 -3.6665515e-06 3.204099e-05 -0.00014929072
000100 7a 00 50 39 6e 6e 0c 37 cc 7f 8e 37 78 a7 be b8
       0.00019836603 8.370362e-06 1.698723e-05 -9.0910995e-05
000110 e6 33 76 b8 1d be 66 39 58 b0 17 36 7e eb b3 37
       -5.8699305e-05 0.00022005332 2.26034e-06 2.1448122e-05
000120 f6 38 89 38 b1 e2 b9 38 49 6c d4 38 f8 84 41 b9
       6.543279e-05 8.863712e-05 0.000101291174 -0.00018455449
000130 34 61 97 37 07 b9 8d b8 5e e3 4c 37 d6 9e 2b 39
       1.8045866e-05 -6.757868e-05 1.2212286e-05 0.00016367002
000140 79 0b 34 be 86 5f 4b 3e ca 5e 6b b9 98 3c 2e b8
       -0.17582501 0.19860658 -0.00022446658 -4.1541265e-05
000150 30 ab 09 b8 b0 f2 50 36 c3 ba 7b b8 f0 90 96 36
       -3.2822776e-05 3.1135678e-06 -6.0017e-05 4.4872213e-06
000160 f8 c8 db b7 92 80 cb 38 3d ba 4c b8 b6 ff 3c b6
       -2.6200418e-05 9.7037424e-05 -4.8810838e-05 -2.8163026e-06
000170 f4 21 94 b7 f8 4b 1d 38 6a 0a 80 b8 ec ae 88 b8
       -1.7658786e-05 3.750247e-05 -6.1054554e-05 -6.517567e-05
000180 58 36 9a 37 b4 bc 8a 38 eb 5a 7a b9 88 c1 f0 b7
       1.8383536e-05 6.6155015e-05 -0.00023875727 -2.870035e-05
000190 57 e6 c0 3e 29 4e 5f 3e 16 be 88 38 dc 1a ad b6
       0.37675735 0.2180716 6.5203916e-05 -5.1589286e-06
0001a0 3d 15 a7 37 09 85 c2 b7 cd c4 bc b8 07 1b d1 b7
       1.9917841e-05 -2.3188551e-05 -9.0011956e-05 -2.4927327e-05
0001b0 b0 c7 08 b8 4e 3f e4 37 29 50 06 b8 c8 5e 08 b8
       -3.26109e-05 2.7209197e-05 -3.2022745e-05 -3.25132e-05
0001c0 38 8f c0 b6 61 5d 1b b8 68 9f 85 b7 63 20 21 b8
       -5.7387188e-06 -3.7041846e-05 -1.5929065e-05 -3.8415554e-05
0001d0 22 cb e0 b7 0c 9e d5 37 a1 6e a8 38 7e aa a3 b7
       -2.6797472e-05 2.5465175e-05 8.0314705e-05 -1.9510506e-05
0001e0 30 28 89 39 23 6d 63 36 6c 72 85 38 0c 23 87 38
       0.00026160618 3.3889162e-06 6.363247e-05 6.4438296e-05
0001f0 fa d2 f6 b8 14 99 37 b7 c0 27 9d 38 ba 9a 84 38
       -0.000117694915 -1.0943291e-05 7.4937474e-05 6.3230706e-05
000200 aa ef 9c b8 03 3e d7 b8 3c be b1 b8 29 8a 27 38
       -7.4833006e-05 -0.000102635495 -8.4754516e-05 3.9944574e-05
000210 9e db 22 39 d5 24 08 b8 ee 33 81 b7 fc 65 e9 b6
       0.00015531338 -3.245923e-05 -1.540218e-05 -6.9558137e-06
000220 04 f1 47 37 a0 5f 3c b8 1e 6b 98 38 8c c2 66 37
       1.191744e-05 -4.491175e-05 7.267877e-05 1.3754365e-05
000230 7b cc 52 b9 04 d2 8c 39 6a 6b e1 38 2e f1 4d 37
       -0.00020103336 0.00026859355 0.000107488435 1.2275106e-05
000240 2f c1 e6 b8 04 93 30 38 48 e5 36 38 04 7d 54 37
       -0.00011003238 4.209859e-05 4.3605716e-05 1.2665292e-05
000250 70 d1 25 38 5e 9a 17 b9 10 dd 61 39 e3 ab 6c 39
       3.953412e-05 -0.00014457988 0.00021540024 0.00022570747
000260 bf 85 93 bd d0 9e f4 3d 77 d4 19 38 38 59 0d 37
       -0.072032444 0.119443536 3.6675916e-05 8.425028e-06
000270 f8 a7 99 b7 52 9b 89 b8 03 9f c5 37 fc d4 34 38
       -1.8317238e-05 -6.5616e-05 2.3558276e-05 4.31137e-05
000280 8c 00 4b b7 c5 24 75 b8 0d 82 c0 be 3d 86 7d be
       -1.209987e-05 -5.8446796e-05 -0.3759922 -0.24758239
000290 c6 8d 8c b8 26 ea 9d 36 20 d9 e2 36 28 da 0b b8
       -6.7021276e-05 4.706223e-06 6.7606015e-06 -3.3343356e-05
0002a0 81 50 01 39 78 eb 37 38 00 f1 e2 37 89 f3 ab b8
       0.00012332389 4.3849897e-05 2.7053524e-05 -8.199277e-05
0002b0 50 d8 ae b8 c6 3d 31 38 5c 7a 7b b8 f6 cd a3 b8
       -8.337258e-05 4.225762e-05 -5.995702e-05 -7.810809e-05
0002c0 98 32 ec 35 12 08 cc 38 a2 f7 85 38 30 b0 c7 b6
       1.7598095e-06 9.728981e-05 6.3880594e-05 -5.951173e-06
0002d0 0e da fd b8 c8 42 25 b9 f0 ca 93 38 bc 4a 3a 37
       -0.00012104596 -0.00015760504 7.047306e-05 1.1103864e-05
0002e0 72 53 d4 36 40 a7 dc 38 d0 da 33 b6 84 75 a8 37
       6.3278067e-06 0.0001052157 -2.6800444e-06 2.0081883e-05
0002f0 4f a8 dd 38 e8 ac 83 38 dc 74 8a 36 d6 b4 d8 b7
       0.00010569451 6.278773e-05 4.1263247e-06 -2.5833415e-05
000300 a0 f9 84 b7 98 61 f5 38 36 54 0c 39 0e bd 06 b7
       -1.5851867e-05 0.000117006886 0.00013382811 -8.03104e-06
000310 9a ee a7 b8 78 b6 a0 37 76 a9 fe b7 f6 c0 84 37
       -8.0076235e-05 1.9158455e-05 -3.0358071e-05 1.582548e-05
000320 20 34 86 37 bc 88 11 b9 a2 31 31 38 7c 74 83 38
       1.5998317e-05 -0.00013879215 4.2246313e-05 6.268264e-05
000330 f4 63 1e be 72 e0 4f 3e d9 8c 7e b9 b8 6b 00 b9
       -0.15467817 0.20300463 -0.00024275797 -0.0001224716
000340 f4 a0 39 37 b9 31 f6 37 16 22 df b7 dc 29 1f 39
       1.1064334e-05 2.934864e-05 -2.6599544e-05 0.00015179015
000350 bf 38 e1 b7 10 44 19 36 0c c1 68 38 60 0c 96 39
       -2.6848515e-05 2.2838394e-06 5.54929e-05 0.0002861945
000360 12 86 fa b8 2a c7 cf 38 a4 99 39 39 cf ec 40 b8
       -0.000119459015 9.9076264e-05 0.0001770021 -4.5996912e-05
000370 98 7c 79 b6 10 f4 ce 34 94 ba 14 b8 78 cd be b8
       -3.7176414e-06 3.854807e-07 -3.5459714e-05 -9.0981775e-05
000380 38 ec b5 b8 59 7e 47 39 be 11 9e 38 2f de d1 37
       -8.674752e-05 0.00019025187 7.537332e-05 2.5018204e-05
000390 fc 41 d4 b7 61 e2 df b7 46 30 b3 b6 ef e8 b3 37
       -2.5303096e-05 -2.6689087e-05 -5.3402355e-06 2.1446931e-05
0003a0 05 c2 34 b8 f2 71 d9 b7 74 3c dd 38 94 41 bd b7
       -4.309604e-05 -2.5921476e-05 0.000105493615 -2.2561093e-05
0003b0 d4 ef 18 b7 74 a0 0a b9 e3 ad 37 b9 e4 fe a8 b8
       -9.115745e-06 -0.00013220479 -0.00017517018 -8.058341e-05
0003c0 20 3d e3 b7 12 6c e9 38 48 dd 3d b7 3c 22 11 38
       -2.7088972e-05 0.000111304355 -1.1316799e-05 3.4602577e-05
0003d0 f4 a6 9a 3c fb 18 81 bc d6 a9 89 b9 2c 75 dc b7
       0.018878438 -0.015758982 -0.00026257214 -2.6280606e-05
0003e0 03 6f 0a b8 6a 18 2e b8 18 74 cc b8 fa 11 2b b8
       -3.300515e-05 -4.150757e-05 -9.749102e-05 -4.078632e-05
0003f0 18 fe 3a b8 24 33 da 36 39 c2 33 be d1 d8 87 bd
       -4.45825e-05 6.50286e-06 -0.17554559 -0.06633151

encoder.net.0.bias f4 [128]
000000 31 6e 4b bf e0 44 a3 3e 09 02 af be 28 c6 ef be
       -0.79465014 0.31888485 -0.3418124 -0.4683087
000010 99 dc cd be 2c 9f ce 3e 21 2e c0 3e 3f 42 0c 3f
       -0.40207365 0.40355814 0.37535194 0.54788584
000020 c4 45 83 3e 0b 96 73 be b2 3a 44 be d6 94 56 3e
       0.25639164 -0.23787706 -0.19163015 0.20955214
000030 63 11 13 3f 5c 78 45 3e 87 10 aa be 0f bf a9 be
       0.57448405 0.19284195 -0.33215734 -0.3315358
000040 5e 7d 2a bf ac ab 19 3e 8c 30 cb be 1c 50 22 bf
       -0.66597545 0.15006894 -0.39685476 -0.6340349
000050 8e 02 1f 3f 67 94 e9 be ef bb a3 bd 22 5d 51 3e
       0.62113273 -0.45621035 -0.0799483 0.20445684
000060 32 26 cd 3c cb b7 f3 be d6 bb 11 bf b5 5a 0f 3f
       0.025042627 -0.4760116 -0.5692724 0.5599778
000070 80 50 ed 3d ed 76 16 3f 46 75 72 be b9 f5 53 3e
       0.1158762 0.58775216 -0.23677549 0.20699205
000080 e4 97 27 be b1 6c ed bc 55 3d dc be 99 5c 74 3e
       -0.16366535 -0.028982492 -0.43015543 0.23863448
000090 58 4b 64 3e aa 01 50 bc d8 c9 23 be ff 40 df be
       0.22294366 -0.012695709 -0.15994966 -0.43604276
0000a0 4e d9 fa 3e 20 cc 06 bf 8b a4 91 3e ef dc 70 be
       0.48993915 -0.5265522 0.2844585 -0.2352178
0000b0 a7 d1 ad be af f6 01 3e 0f 23 bf be ec 1c 28 3e
       -0.33949015 0.12691759 -0.37331435 0.16417283
0000c0 f2 67 0b 3e 88 b5 06 bf 13 26 e7 3d 2e c0 99 3e
       0.1361387 -0.52620745 0.11286559 0.30029434
0000d0 bb e9 83 3e cd b3 b5 bd 0a 87 13 bf 86 58 e1 bd
       0.2576426 -0.08872185 -0.5762793 -0.11003213
0000e0 65 18 7b 3e 11 fc 83 be 60 1f 85 3e a8 a2 ee 3e
       0.24521025 -0.2577825 0.260005 0.46608472
0000f0 6e 79 b5 be 34 4b 15 3c 28 28 95 3e c8 40 64 3d
       -0.35444206 0.009112168 0.291322 0.055725843
000100 f2 ce 72 3d 55 41 b6 3d 9f 02 14 bf eb 0e 66 3d
       0.05927939 0.0889918 -0.578165 0.05616657
000110 e2 7f ec 3e 67 2d 22 3f 6f c2 d4 3e 7e fe c8 3d
       0.46191317 0.6335053 0.4155459 0.098141655
000120 e2 3c a9 3e b0 dc a9 be ee 27 15 bf 03 c4 1b bf
       0.33054262 -0.33176184 -0.5826405 -0.60845965
000130 bf 20 32 3f 47 ce e5 3e b7 f1 f9 be c3 6d 87 3e
       0.69581217 0.4488394 -0.48817226 0.2645093
000140 07 8c 08 3f 33 77 33 3f 20 a5 16 3f 01 26 0c 3f
       0.53338665 0.7010376 0.5884571 0.5474549
000150 54 5c 18 be 5b a9 7e be 4f a4 14 3f 3f 7e ca 3e
       -0.1487897 -0.24869291 0.58063215 0.39549443
000160 df 55 ca be 47 15 23 3f 9a f0 ab 3e 89 0e c9 3e
       -0.3951864 0.6370434 0.33582002 0.39268902
000170 40 70 e2 be 2c d6 4e 3e 00 37 7e be 08 64 0d 3f
       -0.44226265 0.20198888 -0.24825668 0.5523076
000180 27 ab 06 be 6e 78 8d 3e e0 f7 00 3e be 97 95 3e
       -0.13151227 0.27630943 0.12594557 0.29217333
000190 6a 51 69 be 38 fa b0 3e c5 76 fc be ea 8c 23 3e
       -0.22784963 0.34565902 -0.49309364 0.15971723
0001a0 89 66 f3 be c1 50 33 bf 76 c8 11 bf c1 d4 11 3f
       -0.47539166 -0.70045096 -0.56946504 0.5696526
0001b0 35 f6 c3 3e 71 b3 29 3f 9a 57 0f 3f 6d d0 23 bf
       0.3827378 0.6628943 0.55993044 -0.6398991
0001c0 d8 de f7 be d9 af e8 bd 9e 9e da be 86 a8 f8 3e
       -0.48412204 -0.11361665 -0.4269914 0.48566073
0001d0 f5 8f 0c bf c9 cd b0 be eb b7 2e bf bd 96 cd be
       -0.5490716 -0.34532002 -0.68249387 -0.40154067
0001e0 c6 03 15 3f d3 76 11 3f de 04 01 3f ce f6 0b 3f
       0.5820888 0.56821936 0.5039805 0.5467347
0001f0 fe 6b 15 3f 56 a5 3b be fd 0d 9f 3e 95 3f 23 3f
       0.5836791 -0.1832479 0.3106536 0.63768893

encoder.net.1.weight f4 [128]
000000 67 2c 4d b8 94 4d cc b8 5a 54 3a 39 88 00 93 b6
       -4.891716e-05 -9.741928e-05 0.00017769766 -4.3810032e-06
000010 0c e6 2d b9 a8 01 0d b8 65 0f 12 39 40 a7 41 b7
       -0.00016584265 -3.3618562e-05 0.0001392938 -1.1542637e-05
000020 47 f2 06 b9 4a 48 ab b8 b8 4b 83 36 0c 5d b1 3e
       -0.00012869491 -8.16738e-05 3.912919e-06 0.34641302
000030 ea 1f d6 38 f3 0b 15 39 5c ce dd b8 db 96 3a b9
       0.0001021026 0.00014214199 -0.000105765386 -0.0001779454
000040 09 a8 e2 38 5f 47 68 3c 3e f6 98 b8 09 52 0a 3f
       0.00010807819 0.014177172 -7.293791e-05 0.54031426
000050 6f 77 93 38 f1 51 eb 3e 17 05 47 39 d8 6a f0 38
       7.0317525e-05 0.45960954 0.00018980015 0.00011463993
000060 1c 9f 13 b9 b8 d7 6f 37 21 28 8d 38 04 10 1f 3f
       -0.00014078285 1.4295736e-05 6.7308785e-05 0.6213381
000070 a6 7c bf b8 d3 0c 79 38 b0 7d ac 38 44 57 b5 b8
       -9.130807e-05 5.937817e-05 8.22501e-05 -8.647007e-05
000080 20 45 37 36 d0 98 61 b8 ea bd f3 38 c0 6c ba 35
       2.730936e-06 -5.3786498e-05 0.00011622517 1.388973e-06
000090 d0 d2 67 b7 a4 f9 97 39 06 25 b5 b9 f8 24 aa b8
       -1.3817757e-05 0.0002898696 -0.00034550595 -8.113118e-05
0000a0 11 96 10 3e c8 2c b9 38 cb 64 e9 b8 8a 49 57 38
       0.14119746 8.8298286e-05 -0.0001112908 5.1328483e-05
0000b0 7c 33 b5 b8 ff ea 33 38 89 d2 7e 38 26 85 14 b9
       -8.640342e-05 4.2895783e-05 6.0754395e-05 -0.00014163982
0000c0 c8 81 8b b6 e6 46 66 b9 a8 89 38 3f d0 d3 ac b7
       -4.1576313e-06 -0.00021960921 0.72085047 -2.060263e-05
0000d0 68 16 8d 39 5a 81 85 39 3a 31 84 39 46 78 8c 38
       0.0002691031 0.0002546411 0.0002521368 6.698123e-05
0000e0 a2 62 8c b8 44 4a 93 37 c4 0d c5 37 c0 67 d7 b5
       -6.694092e-05 1.7558348e-05 2.349064e-05 -1.6048944e-06
0000f0 18 c0 b8 36 a2 ab bd 38 0e bf 27 38 d8 6a d4 b8
       5.50599e-06 9.0441914e-05 3.9993836e-05 -0.00010128849
000100 f5 1f 3f b9 28 c0 24 38 e0 c1 b5 b8 04 9e 65 39
       -0.00018227084 3.9279606e-05 -8.6668646e-05 0.00021898007
000110 28 ca 65 b8 c8 61 0e b9 8a bf 8d 38 ed 9d f8 b8
       -5.4786127e-05 -0.00013578602 6.759081e-05 -0.000118549775
000120 50 c5 a2 39 6b 73 ad b8 08 35 13 36 90 46 b4 36
       0.00031046057 -8.270781e-05 2.1935575e-06 5.3726326e-06
000130 cb fd cb 3e 83 57 dc b9 41 1e f1 38 20 64 7a b6
       0.39842066 -0.0004202687 0.00011497411 -3.7311183e-06
000140 bf 0b 66 b9 75 1e 34 3f 88 4d 75 b9 bc f1 a1 37
       -0.00021938885 0.70358974 -0.00023393903 1.9305262e-05
000150 54 c7 39 37 a5 de 79 39 58 e3 a1 39 44 43 d8 38
       1.1073269e-05 0.00023829432 0.00030877697 0.00010312212
000160 78 b3 30 b7 f5 e1 71 b7 a1 cd 99 b8 ad a7 a8 b8
       -1.0532203e-05 -1.4417329e-05 -7.33391e-05 -8.042096e-05
000170 b4 6b 8c b8 e0 ef a2 b7 c2 32 c9 b8 ac 20 cd 37
       -6.6957815e-05 -1.9423605e-05 -9.593881e-05 2.4453118e-05
000180 9b 58 7b b9 e6 16 2a b9 80 c5 8b 35 59 3d 23 38
       -0.00023970233 -0.00016220994 1.0413787e-06 3.8919363e-05
000190 ef 09 24 b8 ca 04 66 38 56 20 66 3e 40 a1 34 b8
       -3.91099e-05 5.4840733e-05 0.22473273 -4.306552e-05
0001a0 cb 9b 6b b9 b7 e8 9a b8 c0 db eb b7 b8 62 19 b7
       -0.00022469384 -7.386639e-05 -2.8116512e-05 -9.142495e-06
0001b0 f8 8d e4 b7 b2 46 b9 b8 20 a9 93 35 01 26 b1 38
       -2.7245827e-05 -8.8346555e-05 1.1001575e-06 8.4470965e-05
0001c0 57 5b 82 b9 04 80 62 38 85 43 85 38 9c a3 34 37
       -0.00024863586 5.4001823e-05 6.354511e-05 1.0766929e-05
0001d0 4e ae 94 38 be be 1a 39 90 a5 39 b8 a2 b3 6c b9
       7.089657e-05 0.00014757641 -4.426163e-05 -0.00022573632
0001e0 11 96 ec 38 af 2b 20 b9 17 d3 06 38 aa 79 13 b9
       0.00011281309 -0.00015275062 3.2144682e-05 -0.00014064336
0001f0 ed 1a 9f b8 0e 4e d4 38 d0 e0 29 b6 73 dd e0 3e
       -7.586726e-05 0.000101234866 -2.531382e-06 0.43918952

encoder.net.1.bias f4 [128]
000000 ee 90 2f bd e2 7c f2 bc 87 81 93 bd f5 19 cb bd
       -0.042862825 -0.029600564 -0.0720244 -0.0991706
000010 9d 99 c6 bd f5 ae b8 3c fd 88 1c bb cc 01 40 bd
       -0.09697268 0.022544364 -0.0023885362 -0.046876714
000020 03 99 68 bd 13 1f 1c bc d8 30 f2 bb 86 6e 12 be
       -0.05678655 -0.009528893 -0.0073910765 -0.14299974
000030 91 5c 39 bd 6d 37 b0 bd 82 d6 a6 bd 7b eb b6 bd
       -0.045254294 -0.08604322 -0.08146383 -0.08931633
000040 68 fe 08 bd f1 36 10 bd d4 e4 a3 bd 89 b7 45 3d
       -0.033445746 -0.035208646 -0.0800263 0.048270736
000050 e1 30 14 bd 91 71 95 bc 84 6c 39 bd 08 c0 61 bb
       -0.036179427 -0.01824263 -0.045269504 -0.0034446735
000060 cf 1a 85 bd 21 3d de bd 98 6c ac bd 03 7a 33 bd
       -0.06499254 -0.10851503 -0.0841915 -0.04381753
000070 f2 e9 c7 bc 44 6e 2b 3c 90 97 fa bb fb 3a 8f bd
       -0.024403546 0.010463301 -0.007647462 -0.069936715
000080 b9 85 98 bd 4a 05 6f bc ca a2 3f 3b 0e 39 08 bc
       -0.074473806 -0.014588663 0.0029241317 -0.008314384
000090 56 45 da 3b ea 6c 77 bd 38 04 b0 bd 7c 63 5d bd
       0.0066610975 -0.060406603 -0.08594555 -0.054049954
0000a0 19 26 64 bc d8 a6 22 bd 15 29 7b bd 5a 4d d6 bc
       -0.013925099 -0.039709896 -0.061318476 -0.026159931
0000b0 6d 82 c1 bd 92 09 2d bc 59 bc fb bc 39 94 f7 bc
       -0.09448705 -0.010561364 -0.03072946 -0.030222045
0000c0 2d 59 03 bc d9 7b 7d bb e4 16 f6 3d 4c ce fa 3c
       -0.008016867 -0.0038678555 0.12016085 0.030615948
0000d0 e2 6c 0c be 17 ef 3d bd 6f b7 c8 bd e1 05 df bd
       -0.1371341 -0.046370592 -0.09800612 -0.10889793
0000e0 a7 5c 50 bd f2 88 0e be 87 44 99 bd c3 8b be bb
       -0.05086961 -0.13919428 -0.07483774 -0.0058150007
0000f0 8e e5 62 bd b2 22 a1 bc 2e da ad 3c 7a be 81 bd
       -0.0553947 -0.019669864 0.0212222 -0.06335159
000100 35 e1 4d bd df a7 cf bd 45 70 c0 bd 89 64 38 bd
       -0.050263602 -0.10139441 -0.09396414 -0.045017753
000110 fe 8f e3 bd a5 54 ce bd 56 70 75 3a d0 1c af bd
       -0.11111449 -0.100747384 0.00093627477 -0.085504174
000120 7c 68 83 bd 02 37 b6 bd 1a 4e 61 bd 38 92 08 3c
       -0.06416413 -0.08897211 -0.055006124 0.0083356425
000130 0a f8 7d 3b 3e 56 92 bd 09 f7 e6 bd 46 21 66 bd
       0.003875258 -0.07145356 -0.11277587 -0.056184076
000140 ff 06 13 bd 03 3f 7d 3d 28 61 b1 bd ab f9 7a bc
       -0.035895344 0.06182767 -0.08661109 -0.015318315
000150 d0 54 df bd 5a 73 15 bd dd f5 c9 3d 88 a0 b9 bd
       -0.109048486 -0.03648696 0.09861348 -0.09063822
000160 79 45 e8 bd 76 28 ea ba d6 bf 56 bd 67 64 ae bd
       -0.11341376 -0.0017864842 -0.052429043 -0.08515244
000170 3b 0e 6e 3d 7c f9 68 3d 54 e1 f5 bd e9 c4 ba bc
       0.05811904 0.05687855 -0.120058686 -0.022798972
000180 43 4f 0e bd 48 14 79 bd c5 fe 50 bd 3d d7 aa bd
       -0.03474356 -0.060810357 -0.051024217 -0.08341835
000190 5e 02 80 bd 7d e4 88 3d 20 5e 92 bd 8b cf d0 bc
       -0.062504515 0.06684206 -0.07146859 -0.02548959
0001a0 cd 46 0d bc e0 a2 b9 bd 55 58 d4 bb 55 ab a2 bd
       -0.008622837 -0.09064269 -0.0064802566 -0.07942835
0001b0 8a 45 82 3c 3b 4f d4 bd 8a 5d 1f be 63 a7 b2 bd
       0.0159023 -0.103666745 -0.15563026 -0.08723333
0001c0 79 ac ac bd a8 9a 36 3b 22 bc 84 bd ac 5a 0d be
       -0.08431334 0.0027863178 -0.06481196 -0.1380412
0001d0 05 e4 a4 bd 2c 4f a9 bd 96 c8 1a bd ab fa 8c bd
       -0.08051304 -0.08267054 -0.03778895 -0.068837486
0001e0 9b 39 b0 3b 23 e1 7e bd 2f cd 9d bc b4 60 0a bc
       0.005377961 -0.062226426 -0.019262878 -0.008445907
0001f0 f4 c5 cc bd 72 08 51 bd 96 4a 32 bd 7f 0a d0 3a
       -0.09998694 -0.051033445 -0.043528162 0.0015872269

encoder.net.1.running_mean f4 [128]
000000 30 6e 4b bf 3b 44 a3 3e 59 02 af be 0d c6 ef be
       -0.7946501 0.31887993 -0.3418148 -0.46830788
000010 64 dc cd be 7c 9f ce 3e 75 2f c0 3e 38 42 0c 3f
       -0.40207207 0.40356052 0.37536207 0.5478854
000020 6d 46 83 3e af 96 73 be 47 3a 44 be 12 be 50 3e
       0.25639668 -0.2378795 -0.19162856 0.20385006
000030 51 11 13 3f d0 76 45 3e 04 11 aa be e3 bd a9 be
       0.574483 0.19283605 -0.33216107 -0.33152685
000040 5c 7d 2a bf 16 ac 19 3e 08 31 cb be 9c 7a 20 bf
       -0.66597533 0.15007052 -0.39685845 -0.6268709
000050 c9 02 1f 3f fd d8 e6 be 3a b6 a3 bd 43 5d 51 3e
       0.62113625 -0.45087424 -0.07993741 0.20445733
000060 75 28 cd 3c d2 b7 f3 be b3 bb 11 bf 2e 56 13 3f
       0.025043705 -0.4760118 -0.5692703 0.57553375
000070 de 49 ed 3d e7 76 16 3f 81 75 72 be 0e f4 53 3e
       0.11586355 0.5877518 -0.23677637 0.20698568
000080 b6 9c 27 be 5c 6c ed bc 75 3e dc be 88 5c 74 3e
       -0.16368374 -0.028982334 -0.430164 0.23863423
000090 09 49 64 3e 28 04 50 bc 56 c9 23 be 8e 41 df be
       0.22293486 -0.012696303 -0.15994772 -0.43604702
0000a0 4b d1 f3 3e ad cb 06 bf 4a a4 91 3e b9 dd 70 be
       0.47620615 -0.52654535 0.28445655 -0.2352208
0000b0 f0 d1 ad be 5d f6 01 3e d9 22 bf be a1 17 28 3e
       -0.33949232 0.12691636 -0.37331274 0.16415264
0000c0 6f 66 0b 3e 1f b6 06 bf 35 20 06 3e 71 bf 99 3e
       0.13613294 -0.52621645 0.13098224 0.3002887
0000d0 ae e9 83 3e e2 b2 b5 bd 54 87 13 bf f6 56 e1 bd
       0.2576422 -0.0887201 -0.5762837 -0.110029146
0000e0 9b 19 7b 3e c7 fb 83 be 23 20 85 3e 56 a2 ee 3e
       0.24521486 -0.25778028 0.2600108 0.46608227
0000f0 77 79 b5 be 9e 34 15 3c d2 28 95 3e 40 3d 64 3d
       -0.35444233 0.009106783 0.29132706 0.055722475
000100 80 d6 72 3d 6c 42 b6 3d 87 02 14 bf 94 0f 66 3d
       0.059286594 0.08899388 -0.57816356 0.0561672
000110 f6 7f ec 3e f8 2c 22 3f c7 c1 d4 3e d2 fb c8 3d
       0.46191376 0.63349867 0.4155409 0.09813656
000120 e5 3c a9 3e 39 dc a9 be 8b 27 15 bf 75 c4 1b bf
       0.3305427 -0.3317583 -0.5826346 -0.60846645
000130 f0 81 30 3f 71 cd e5 3e 00 f2 f9 be b9 6d 87 3e
       0.6894827 0.44883302 -0.48817444 0.264509
000140 5f 8c 08 3f 6c f6 2e 3f 5a a5 16 3f 09 26 0c 3f
       0.5333919 0.6834476 0.58846056 0.5474554
000150 0b 5e 18 be 43 ab 7e be 39 a5 14 3f 38 7e ca 3e
       -0.14879625 -0.24870019 0.5806461 0.39549422
000160 41 56 ca be 64 15 23 3f 1a f2 ab 3e 2a 0e c9 3e
       -0.39518932 0.63704515 0.33583146 0.3926862
000170 f8 70 e2 be c4 d6 4e 3e 08 3a 7e be 18 64 0d 3f
       -0.44226813 0.20199114 -0.24826825 0.55230856
000180 d9 ac 06 be 05 78 8d 3e 63 f8 00 3e 1e 98 95 3e
       -0.13151874 0.2763063 0.12594752 0.2921762
000190 5f 50 69 be c8 f9 b0 3e 52 74 01 bf 80 8d 23 3e
       -0.22784565 0.34565568 -0.50568116 0.15971947
0001a0 10 67 f3 be fd 50 33 bf 50 c8 11 bf 0f d4 11 3f
       -0.47539568 -0.70045453 -0.5694628 0.569642
0001b0 a4 f5 c3 3e aa b2 29 3f 97 57 0f 3f b2 cf 23 bf
       0.38273346 0.66288245 0.55993026 -0.6398879
0001c0 85 df f7 be 14 af e8 bd 4c 9e da be 6c a8 f8 3e
       -0.4841272 -0.113615185 -0.42698896 0.48565996
0001d0 ee 8f 0c bf 94 ce b0 be 76 b7 2e bf 5c 96 cd be
       -0.5490712 -0.34532607 -0.6824869 -0.40153778
0001e0 8a 03 15 3f 1a 77 11 3f 91 5f 01 3f c7 f5 0b 3f
       0.58208525 0.5682236 0.5053645 0.546719
0001f0 43 6c 15 3f 3f a4 3b be c9 0d 9f 3e c6 eb 20 3f
       0.5836832 -0.18324374 0.31065205 0.6285976

encoder.net.1.running_var f4 [128]
000000 ac 3f 57 31 20 e5 f4 33 46 25 30 31 3e cc c8 31
       3.132281e-09 1.1403813e-07 2.5632558e-09 5.8439857e-09
000010 4f 7d 20 31 9d 17 ac 31 96 62 08 34 7b 30 f3 31
       2.3354294e-09 5.0085434e-09 1.2701852e-07 7.0777424e-09
000020 15 b0 1d 32 0a e7 37 32 be e8 a7 31 2d af 1c 3d
       9.178639e-09 1.0704534e-08 4.8867994e-09 0.038253
000030 d2 15 0d 30 16 95 2a 33 a5 ea cc 32 93 fb 74 34
       5.132651e-10 3.9716802e-08 2.385543e-08 2.2815793e-07
000040 71 2d 9a 32 74 20 9f 30 ea c2 b8 31 5c a1 a4 3d
       1.7948624e-08 1.1577996e-09 5.377264e-09 0.08038589
000050 cb 19 a4 32 59 40 33 3d 4f 1b 5f 33 e5 a2 91 31
       1.9103842e-08 0.04376254 5.194607e-08 4.2385744e-09
000060 c8 43 0c 33 3b de 3c 31 02 36 a4 31 6d c0 42 3e
       3.2657937e-08 2.7483924e-09 4.779168e-09 0.19018717
000070 32 7e 10 34 92 be 7a 33 2e 99 a1 30 21 75 f8 33
       1.3456955e-07 5.8380984e-08 1.1757828e-09 1.15697055e-07
000080 42 1a 11 34 3a a8 ed 32 1d 3f c1 33 0d be 81 31
       1.351373e-07 2.7666932e-08 8.998743e-08 3.7760004e-09
000090 05 ae c8 32 d7 df 80 33 88 3e ee 31 ca 31 53 32
       2.33622e-08 6.001181e-08 6.9338206e-09 1.2293137e-08
0000a0 02 75 27 3e e0 48 a0 33 ea c7 7a 32 64 b4 f4 32
       0.16353229 7.4638365e-08 1.459737e-08 2.848737e-08
0000b0 31 20 0e 32 5a b3 cd 31 b3 ee 49 32 2b 11 ae 34
       8.272807e-09 5.986675e-09 1.1754014e-08 3.2422517e-07
0000c0 2a ba 49 33 8a 33 47 34 fb d2 cb 3e ee 9d d7 32
       4.6968275e-08 1.8552069e-07 0.39809403 2.5101112e-08
0000d0 8d f5 83 31 1c 5e bc 32 1a c8 51 32 28 5b 23 31
       3.8405177e-09 2.1928876e-08 1.2210899e-08 2.3771438e-09
0000e0 29 c8 d6 32 75 d8 b5 30 6e d6 8e 32 67 2b 26 32
       2.5003901e-08 1.3231004e-09 1.6628487e-08 9.67234e-09
0000f0 ad 39 b2 33 de e8 09 34 12 71 4d 32 c8 2f ac 32
       8.299262e-08 1.2843836e-07 1.195828e-08 2.0045164e-08
000100 f9 be 01 33 0c 0e af 32 64 43 54 33 d0 71 f4 31
       3.020884e-08 2.0379069e-08 4.9421388e-08 7.1142736e-09
000110 21 5c 5c 31 e4 98 22 32 91 42 9d 33 60 2e 84 32
       3.2066583e-09 9.464404e-09 7.3229906e-08 1.5387911e-08
000120 a0 9f c9 32 f8 c7 93 32 99 22 c4 33 8a 17 05 34
       2.3472069e-08 1.7203988e-08 9.1332545e-08 1.2395154e-07
000130 ea b4 2e 3d c1 5f 02 33 a4 5a 0c 33 0f da 50 32
       0.042653 3.035507e-08 3.2678727e-08 1.2156774e-08
000140 76 ab 6e 32 4f 7d d5 3e 72 2c 34 32 ef 4b 06 33
       1.3892409e-08 0.41697165 1.0487485e-08 3.1268367e-08
000150 b8 db b9 32 93 5f bc 33 91 a2 af 33 40 c5 27 33
       2.1636751e-08 8.771817e-08 8.178643e-08 3.9062115e-08
000160 68 31 ba 31 94 ef 17 32 62 7c 15 33 79 a5 d8 32
       5.4189293e-09 8.843831e-09 3.480489e-08 2.5220958e-08
000170 1c 00 84 32 82 f1 38 31 38 ef 36 34 a8 b7 98 31
       1.5366872e-08 2.6912805e-09 1.7037098e-07 4.4446615e-09
000180 a7 72 90 32 ee 42 8f 32 47 35 19 32 b7 85 19 32
       1.6815944e-08 1.6677827e-08 8.917886e-09 8.936175e-09
000190 2c cf 6c 32 f7 35 a0 31 27 98 17 3e 6d 6b 01 34
       1.3784113e-08 4.662748e-09 0.14804135 1.2053142e-07
0001a0 42 57 88 32 3a ba d6 32 82 11 e7 31 57 46 bb 33
       1.5872164e-08 2.4997565e-08 6.7249752e-09 8.720661e-08
0001b0 1e eb 6d 33 26 42 d2 33 4c 5a b4 2f 2c 70 39 33
       5.53947e-08 9.7909194e-08 3.280597e-10 4.317569e-08
0001c0 3d 39 89 33 9e 08 b4 32 ff 96 2a 31 77 17 57 30
       6.389971e-08 2.0958677e-08 2.4824087e-09 7.824989e-10
0001d0 f0 6a b7 31 1a 74 09 33 15 8a 82 32 df f0 99 33
       5.3381584e-09 3.2003392e-08 1.5196784e-08 7.168432e-08
0001e0 58 eb 3c 32 ad 39 11 33 bb 4b c4 3a 6b fa bb 34
       1.0996551e-08 3.38129e-08 0.0014976183 3.5013667e-07
0001f0 84 a7 75 32 2e 19 5e 33 45 77 d3 31 d9 63 a0 3d
       1.4298966e-08 5.1711304e-08 6.1544676e-09 0.078315444

encoder.net.3.weight f4 [128, 128]
000000 83 bf 3c b9 06 04 8a 38 c4 88 3b 39 44 75 b8 b8
       -0.00018000421 6.581102e-05 0.00017884659 -8.795646e-05
000010 f8 e6 00 b7 e0 c3 9e 38 40 e5 08 39 3f 5e c9 b8
       -7.683171e-06 7.570512e-05 0.00013055373 -9.6019816e-05
000020 55 80 d0 b8 c4 49 19 38 62 f5 12 b9 77 8e b0 38
       -9.9421166e-05 3.6546742e-05 -0.00014015057 8.41887e-05
000030 5f d4 78 38 fe 51 93 38 15 e5 bb 38 5a cf 13 b9
       5.9325594e-05 7.0247785e-05 8.959525e-05 -0.00014096257
000040 aa 5f c5 b8 88 b7 80 37 b7 dd 02 b9 34 82 ad 39
       -9.411511e-05 1.5344252e-05 -0.00012480361 0.0003309414
000050 c0 1b 09 37 40 c8 45 37 48 64 23 b9 ec 45 22 b8
       8.172297e-06 1.1788739e-05 -0.00015582249 -3.868893e-05
000060 90 f0 0c 39 46 3b 22 39 84 cf a0 b9 6b a6 48 b9
       0.00013441057 0.00015471605 -0.0003067219 -0.00019135482
000070 5c f5 a7 b8 21 f2 cd b8 6a 9b 3c 39 10 ce d7 b7
       -8.008882e-05 -9.820262e-05 0.00017986973 -2.5725953e-05
000080 24 0a 3a 39 0f b8 86 b9 92 da 8d b8 2d c9 2c 39
       0.0001774212 -0.00025695606 -6.764116e-05 0.00016478142
000090 f1 63 0d b9 ea a6 0f b8 a2 65 f9 38 33 7b ab b8
       -0.00013484039 -3.4249308e-05 0.00011892176 -8.176863e-05
0000a0 f2 f7 e9 38 0d 14 75 b9 27 49 1a b8 10 52 3a b7
       0.00011156489 -0.0002337249 -3.678459e-05 -1.1105571e-05
0000b0 48 fb e1 b8 c6 26 db 38 c5 2a 42 39 74 1b 38 b7
       -0.00010775641 0.00010449956 0.00018517215 -1.0973647e-05
0000c0 14 64 87 b8 ac 57 0e 38 9b 09 42 b9 3e 9a 25 b8
       -6.455943e-05 3.393709e-05 -0.0001850486 -3.9482715e-05
0000d0 7e 4f a3 38 6a 78 19 39 0a a9 88 37 71 6d 00 3a
       7.787252e-05 0.00014636075 1.6291178e-05 0.00048991205
0000e0 50 2e e6 b8 51 10 14 b9 ec 36 76 38 75 1e 14 b9
       -0.00010975881 -0.00014120458 5.870212e-05 -0.00014125726
0000f0 08 f7 a6 b7 e8 b7 73 b9 23 d2 e1 38 e0 43 50 37
       -1.9903775e-05 -0.00023242796 0.00010767977 1.24135695e-05
000100 c8 79 3f 38 f0 1e a9 37 4d 9b 03 39 10 63 5f b7
       4.5651366e-05 2.0160776e-05 0.00012550988 -1.3314901e-05
000110 c0 ab 6b 39 ca 56 f0 38 e2 ce ac 38 80 dd c8 38
       0.00022475328 0.000114602575 8.240134e-05 9.578001e-05
000120 44 57 7e b9 61 2a 85 39 a4 d5 9c b7 4f 49 f7 b8
       -0.00024255837 0.00025399312 -1.8696133e-05 -0.000117915326
000130 8c 6d 63 38 12 92 ab 39 36 47 86 b8 92 da ae b8
       5.422304e-05 0.00032724492 -6.402882e-05 -8.3376784e-05
000140 4c a4 3b b8 f4 10 17 38 bc 09 35 b9 10 64 22 37
       -4.4737288e-05 3.6016994e-05 -0.00017265131 9.67925e-06
000150 bd 4f 2b 39 a6 d6 7e 39 60 69 7f 38 91 f5 45 39
       0.00016337536 0.0002430329 6.0894876e-05 0.00018878865
000160 49 f0 7b 38 ac e3 69 38 00 d3 63 b3 72 58 41 b9
       6.0066846e-05 5.5763565e-05 -5.304446e-08 -0.00018438863
000170 b6 7b 29 38 50 75 5c b7 88 02 f6 b7 ac 07 35 b8
       4.0407955e-05 -1.3140336e-05 -2.9326664e-05 -4.3160908e-05
000180 70 13 47 37 b7 f4 e3 b8 02 f8 49 b9 de ad 68 39
       1.186585e-05 -0.00010869785 -0.00019261244 0.00022190015
000190 ca dc 07 b9 e8 68 a9 b8 6e 55 49 b8 8d d9 ae b8
       -0.00012956854 -8.078088e-05 -4.8001697e-05 -8.3374885e-05
0001a0 93 19 20 38 d8 d1 4c 38 6e b8 13 b9 30 b8 01 b9
       3.817079e-05 4.8832822e-05 -0.00014087718 -0.00012371014
0001b0 8a 65 0c 38 ce dc 93 38 58 15 9b b7 60 6b 63 b7
       3.3473167e-05 7.050634e-05 -1.8487379e-05 -1.3555255e-05
0001c0 c3 8d a9 b8 0d c3 0b 39 c8 b9 18 39 7e 4d 93 38
       -8.084953e-05 0.00013328735 0.00014565059 7.02394e-05
0001d0 62 8b 95 38 4e 31 98 38 7c 18 be b7 f0 8c 09 b6
       7.130836e-05 7.2571085e-05 -2.2661166e-05 -2.0496627e-06
0001e0 5c 84 8f 37 0b 0d eb 38 5c 86 80 38 84 3c 49 b8
       1.7108563e-05 0.00011208103 6.128542e-05 -4.7978494e-05
0001f0 d0 9f da b6 a8 9b 41 38 02 3a b2 38 6f 3b 1f b8
       -6.515511e-06 4.6159752e-05 8.498506e-05 -3.7963906e-05
000200 0a cf 3c b8 f0 a9 b6 b8 30 8e fc b7 50 79 aa b8
       -4.5015513e-05 -8.7100896e-05 -3.0106952e-05 -8.128828e-05
000210 f9 52 b5 39 92 27 f1 b8 e6 8b 61 b8 80 78 93 36
       0.0003458483 -0.00011499146 -5.377447e-05 4.3949694e-06
000220 cb 18 38 39 9b 88 9c 39 59 c0 9e b8 24 a0 06 b9
       0.00017556844 0.00029856418 -7.569855e-05 -0.00012838893
000230 b7 42 63 b8 a0 8d 17 b6 ee b3 9a b8 28 cb 7a 39
       -5.418315e-05 -2.258319e-06 -7.376807e-05 0.0002391754
000240 99 50 0d 38 20 12 1f b9 ba ec de b8 f9 f5 3f b9
       3.3692082e-05 -0.00015170174 -0.00010629879 -0.00018306811
000250 c8 66 ea 37 28 4c 3b b8 0e 60 9e 39 44 be ec 38
       2.7942835e-05 -4.46552e-05 0.00030207675 0.00011288797
000260 74 d6 0e b9 f1 c7 43 b9 1c b6 ea 38 d2 0c 23 38
       -0.00013622065 -0.00018671133 0.0001119191 3.887417e-05
000270 04 a4 a7 b8 4c 83 90 b8 54 95 03 39 ea 46 8e b7
       -7.993731e-05 -6.890911e-05 0.00012548763 -1.6960741e-05
000280 f9 49 ba 38 c6 d1 8f 38 00 51 d9 35 b0 27 79 37
       8.8829496e-05 6.857845e-05 1.6191334e-06 1.4850797e-05
000290 92 50 82 b9 c8 55 1c 37 60 48 fd 38 d8 aa 9e 39
       -0.00024855562 9.318297e-06 0.00012077461 0.00030263397
0002a0 c2 f8 d3 38 fc 0d 8d b7 d8 35 5e b8 9e f6 80 b8
       0.00010107599 -1.6815022e-05 -5.297907e-05 -6.149452e-05
0002b0 ce aa 02 b9 41 63 cb 38 b1 58 55 39 94 da cb b8
       -0.00012461396 9.698282e-05 0.00020346303 -9.720508e-05
0002c0 f4 6a 30 b9 e9 8b 6c b9 ac 5b 09 b9 d4 94 aa b8
       -0.00016824511 -0.00022558834 -0.00013099489 -8.133953e-05
0002d0 84 bf 76 b8 0e c6 35 b9 5d d8 db 37 a8 69 7d b8
       -5.8829333e-05 -0.00017335286 2.6207586e-05 -6.04183e-05
0002e0 26 8e 34 39 bc ed 82 39 8c 82 7d b9 e2 d0 ec 38
       0.00017219092 0.00024972658 -0.00024176593 0.000112922644
0002f0 ee 77 46 38 2a 56 b8 b7 48 d7 8a b7 26 1a 11 38
       4.7318572e-05 -2.1974633e-05 -1.655113e-05 3.4595047e-05
000300 8c 02 3d b9 fa ab 10 39 66 ff 1f 39 93 76 09 3a
       -0.00018025393 0.00013796976 0.00015258565 0.0005243804
000310 aa f2 3a 38 c2 17 d1 b9 21 0d 72 39 0a 79 8e b8
       4.4571854e-05 -0.00039881287 0.0002308381 -6.793633e-05
000320 ec 14 9a 37 44 bf e8 b8 08 71 fa 38 c6 f3 69 b8
       1.8367973e-05 -0.00011098248 0.00011941983 -5.577856e-05
000330 7c 69 51 b9 1c a5 8d 39 f8 2b 53 b8 90 21 5b b7
       -0.00019971089 0.00027016632 -5.034727e-05 -1.3061232e-05
000340 c0 99 60 b9 f9 a1 24 b9 04 fd 57 39 0f a8 58 b9
       -0.00021419581 -0.00015700598 0.00020598253 -0.00020661972
000350 da 86 c4 b7 b0 63 3c b9 dd 0a 43 b8 71 61 44 b9
       -2.3427816e-05 -0.00017966214 -4.650174e-05 -0.00018728316
000360 e0 f3 2f b8 28 cc 0e b8 a6 e4 b4 39 4f d4 08 b9
       -4.1950378e-05 -3.4045574e-05 0.00034502632 -0.00013049062
000370 4b 86 e0 b8 f3 1a eb 38 dc 30 be b8 e4 a9 f5 b8
       -0.00010706166 0.00011210693 -9.069007e-05 -0.00011714155
000380 fc 31 fe b8 b4 f6 19 39 86 e9 a5 b8 44 66 02 b9
       -0.00012120974 0.00014683121 -7.91131e-05 -0.00012435863
000390 52 03 a7 b8 5b f5 92 b8 ca 0b 51 39 c0 81 bd 36
       -7.963799e-05 -7.0075235e-05 0.00019936185 5.647744e-06
0003a0 32 41 87 b8 86 54 42 39 9c 14 7d b9 82 76 7f b9
       -6.449445e-05 0.00018532769 -0.00024135638 -0.00024362843
0003b0 5f b9 13 b9 57 c3 73 39 3f c3 28 b9 65 7f 5c 38
       -0.00014088069 0.00023247056 -0.00016094463 5.2570733e-05
0003c0 77 82 f3 38 d0 08 a5 b9 ce b4 0d 38 a1 35 1d b9
       0.00011611444 -0.00031477818 3.3785407e-05 -0.00014992665
0003d0 7e 64 05 b9 a8 31 78 37 9d a6 1c b8 3e 6b 5d 38
       -0.00012721305 1.4793513e-05 -3.734847e-05 5.2790383e-05
0003e0 e0 21 55 b9 b8 c5 94 b7 cc b7 80 37 84 cb 9b b8
       -0.00020325882 -1.7735045e-05 1.5344376e-05 -7.428884e-05
0003f0 32 4c b7 b9 b5 46 e1 b9 7b 80 ee 38 ce 30 30 39
       -0.0003496125 -0.00042968025 0.00011372656 0.00016802849
